Assets/NNModels/PlaneLandingAgent.onnx (onnx, 85473 bytes, 13 tensors)

77 f4 [20]
0	0x40c79526	6.2369566
1	0x3f916ca7	1.1361283
2	0x40c79526	6.2369566
3	0x3f312b85	0.6920703
4	0x3d5e321b	0.054247003
5	0x3d543de8	0.05181685
6	0x3f2375ca	0.63851607
7	0x40829581	4.08075
8	0x3f1c80d5	0.6113408
9	0x3e137597	0.14400326
10	0x3e2f0c79	0.17094602
11	0x3e0fcfc7	0.14044105
12	0x3db9d9d2	0.09074749
13	0x3d958598	0.073008716
14	0x3dc0c1eb	0.09411987
15	0x3bfa123f	0.0076315696
16	0x3a29c8c3	0.0006476754
17	0x3a29c8c3	0.0006476754
18	0x3a29c8c3	0.0006476754
19	0x3efff78a	0.49993545

action_model._discrete_distribution.branches.0.bias f4 [3]
0	0xbdf5dc05	-0.12004856
1	0xbe4c410a	-0.19946685
2	0x3e9c8708	0.3057177

action_model._discrete_distribution.branches.0.weight f4 [3, 128]
0	0x3d3860ed	0.04501431
1	0x3d0d3a96	0.0344797
2	0xbe064082	-0.13110545
3	0x3d7d0e2a	0.061781086
4	0x3d8895f1	0.06669224
5	0x3d1ffd7b	0.039060097
6	0xbd73a0d8	-0.059479564
7	0x3cae1e0d	0.021254564
8	0x3c9f1681	0.01941991
9	0xbda57de8	-0.08080655
10	0x3e043d7b	0.12914078
11	0x3d40ee27	0.04710212
12	0x3bc56f0b	0.0060252002
13	0x3d8851ad	0.066562034
14	0x3d4b1464	0.049579993
15	0xbc7ee09c	-0.015556481
16	0xbe058dc0	-0.13042355
17	0xbcf24e86	-0.029578459
18	0xbd7d1a51	-0.061792675
19	0xbdf2fd0d	-0.11864672
20	0xbdc63ae0	-0.09679198
21	0xbe6a189f	-0.22860955
22	0xbd867325	-0.06564931
23	0xbd6530d2	-0.05595476
24	0xbd9af585	-0.075663604
25	0xbd3fe858	-0.04685244
26	0x3e1a1de8	0.15050471
27	0x3c31f304	0.010861162
28	0xbdd99cd8	-0.10625619
29	0x3cac3123	0.021019524
30	0x3c8a403a	0.016876329
31	0x3d602a80	0.05472803
32	0x3cad90d2	0.02118722
33	0x3dc944c9	0.09827573
34	0x3d401188	0.04689172
35	0xb90bbe03	-0.00013326858
36	0xbdff8e30	-0.12478292
37	0xbc19e80a	-0.009393701
38	0x3c2c6801	0.010522843
39	0x3d3500f8	0.044190377
40	0x3a64d988	0.00087299244
41	0x3d6a179a	0.057151414
42	0x3d1a1e02	0.037626274
43	0xbe0597ce	-0.1304619
44	0x3d3ccb4a	0.04609231
45	0xbca6a1ab	-0.020340761
46	0xbbd09981	-0.0063659553
47	0x3c8f5518	0.01749663
48	0x3a98206e	0.0011606344
49	0x3ca4cb78	0.020116553
50	0xbe53e73c	-0.20693678
51	0xbc507fb8	-0.012725763
52	0xbde099bf	-0.10966825
53	0xbdacba48	-0.08433968
54	0xbdac55ab	-0.08414777
55	0x3d5c5783	0.053794395
56	0x3bc9942f	0.006151698
57	0xbdaeb52a	-0.08530648
58	0xbe6259cb	-0.22104566
59	0x3d40f006	0.047103904
60	0x3da2a387	0.079413466
61	0x3d75c884	0.06000568
62	0x3d8f2a62	0.06990506
63	0xbcf69213	-0.03009895
64	0xbc95e677	-0.01829837
65	0x3df72492	0.12067522
66	0xbdef81c2	-0.11694671
67	0x3e0495c1	0.12947752
68	0x3dce3917	0.10069483
69	0xbd8844fe	-0.06653784
70	0x3dc15bd9	0.09441347
71	0x3dc9f47a	0.09861083
72	0x3be3e1f4	0.006954426
73	0xbda4af73	-0.08041277
74	0xbe1b7653	-0.15181856
75	0x3d94ee4a	0.072720125
76	0x3d5ce68b	0.0539308
77	0x3cde5144	0.02713836
78	0x3e4677b9	0.19381608
79	0xbd29169f	-0.04128134
80	0x3cb051da	0.021523405
81	0xbc072f3f	-0.00825101
82	0x3d0ddd94	0.03463514
83	0xbd720421	-0.05908597
84	0xbe7e5e72	-0.24840716
85	0x3d0d9c12	0.03457267
86	0x3d5b68cc	0.05356674
87	0x3bc028dd	0.0058642463
88	0x3c0bae86	0.008525496
89	0xbdf3daf8	-0.11906999
90	0xbd9146c4	-0.070935756
91	0x3c410271	0.011780367
92	0xbb3358cb	-0.0027366157
93	0xbe2243b5	-0.1584614
94	0x3dc53914	0.096300274
95	0xbd198fa9	-0.03749052
96	0xbd0552a8	-0.03254953
97	0x3d8e4a53	0.0694777
98	0xbe7446df	-0.2385516
99	0x3d9a28b7	0.07527297
100	0x3d2bbf3f	0.041930433
101	0x3d765a84	0.060144916
102	0xbdde070f	-0.1084119
103	0x3cba0f8b	0.02271249
104	0xbde7c1ca	-0.11316259
105	0x3d6cc688	0.05780652
106	0x3d308097	0.043091383
107	0x3dc0c706	0.09412961
108	0x3d27791a	0.040886976
109	0x3d8f0b0e	0.069845304
110	0x3d02925d	0.031877864
111	0x3d5cbc83	0.053890716
112	0x3d4b26e6	0.049597643
113	0x3d8b3997	0.06798094
114	0xbcb60af6	-0.022222023
115	0xbbdbc34a	-0.00670663
116	0xbd06840a	-0.032840766
117	0x3d8728e6	0.06599598
118	0x3d557bd7	0.052120056
119	0x3cf8e013	0.030380284
120	0xbda448d2	-0.08021702
121	0x3d179162	0.037003882
122	0x3d008c0a	0.03138355
123	0xbd3a4c89	-0.045483146
124	0x3d45b8dd	0.048272002
125	0xbd551bd7	-0.052028503
126	0xbdd3bba3	-0.10338523
127	0xbc499c41	-0.01230532
128	0x3d595f4f	0.05306941
129	0x3d1de282	0.038546093
130	0x3f16483d	0.58703977
131	0xbd25e7fe	-0.040504448
132	0x3dd5b39a	0.10434647
133	0xbc975f74	-0.018478133
134	0x3f10eb33	0.56608886
135	0x3e1e7d61	0.15477516
136	0x3ea9cf6f	0.33166072
137	0x3d933210	0.07187283
138	0xbc9cc7fd	-0.01913833
139	0x3d281639	0.04103682
140	0xbcd7065a	-0.026248146
141	0xbd7afe7f	-0.061277863
142	0x3df1587e	0.11784457
143	0x3ee707e9	0.45123222
144	0x3f08a0be	0.53370273
145	0x3d689d09	0.056790385
146	0xbcfdb6d7	-0.030970974
147	0x3d64033e	0.055667154
148	0x3d058006	0.032592796
149	0x3e87e6a3	0.2654315
150	0x3d865d5d	0.065607764
151	0x3e4f27f1	0.2023008
152	0x3e115d28	0.14195693
153	0x3d9e2147	0.07721191
154	0xbc8d228c	-0.017228387
155	0x3af5e48f	0.0018760132
156	0x3da17d36	0.0788521
157	0x3e89d839	0.26922777
158	0xbba137a0	-0.004919961
159	0x3deaae26	0.114589974
160	0xbc955353	-0.018228209
161	0xbd4a3165	-0.049363513
162	0x3e5cd23e	0.21564576
163	0xbdeabdb4	-0.11461964
164	0x3eba0e9b	0.36339268
165	0x3ef05873	0.4694248
166	0xbd535f9d	-0.051604856
167	0x3d1853d0	0.037189305
168	0x3dbe727d	0.09299181
169	0x3e05b682	0.13057902
170	0xbc979be3	-0.01850695
171	0x3f0c855f	0.5489101
172	0xbcd6f9ee	-0.026242223
173	0x3ccec822	0.025241915
174	0x3c0b7210	0.008511081
175	0xbd1f7045	-0.038925428
176	0xbd1959e1	-0.03743923
177	0x3d653ba0	0.055965066
178	0x3dd49eb1	0.103818305
179	0xbc6b3167	-0.01435504
180	0x3eeb1101	0.4591141
181	0xbd006b18	-0.031352133
182	0x3d07f91d	0.033196557
183	0x3e188ebe	0.14898202
184	0x3db582ef	0.08862864
185	0xbd8d3834	-0.068954855
186	0x3f051173	0.5197975
187	0x3d56c1f9	0.05243108
188	0x3d47cf16	0.048781477
189	0x3eb01d38	0.34397292
190	0x3edad1b8	0.42738128
191	0x3ec8e5f4	0.3923794
192	0xbd635ec1	-0.055510286
193	0xbe9b6ec9	-0.3035796
194	0x3c6bc8e6	0.01439116
195	0x3d91f362	0.071265
196	0xbedc1dbe	-0.4299144
197	0x3ccc957e	0.024973627
198	0x3db5dd66	0.08880119
199	0x3d2461b8	0.040132254
200	0x3d7a247b	0.061069947
201	0x3f0bd4b4	0.54621434
202	0x3bfeaf40	0.0077723563
203	0xbe019801	-0.12655641
204	0x3d91ac71	0.07112969
205	0x3d5a0fb5	0.053237636
206	0xbd8fb12d	-0.070162155
207	0xbb13ed7b	-0.002257197
208	0xbd37de8e	-0.04488998
209	0xbd5e6ca6	-0.054302834
210	0xbd0348d2	-0.03205187
211	0x3f05593c	0.52089286
212	0x3ebba099	0.36645964
213	0x3b0be88e	0.002134833
214	0xbd100d50	-0.035168946
215	0xbc905dea	-0.017622907
216	0x3e1c4a46	0.15262708
217	0xbc16a828	-0.009195365
218	0x3d87262b	0.06599077
219	0x3e6a70b9	0.22894563
220	0x3c0ebf6c	0.008712631
221	0x3efd2b38	0.49447036
222	0x3d9f1e6c	0.077694744
223	0xbd927f7d	-0.07153223
224	0x3ea3b39a	0.31972963
225	0x3e7987fc	0.2436828
226	0x3e9e393a	0.30903035
227	0x3d055300	0.032549858
228	0x3e08c34b	0.13355748
229	0xbd1c866e	-0.03821414
230	0x3dd5b555	0.10434977
231	0x3c60a660	0.013711542
232	0x3d95857e	0.07300852
233	0x3db43c16	0.08800523
234	0x3e344c32	0.17607191
235	0xbe7d6c2c	-0.24748296
236	0xbe5c1645	-0.2149287
237	0xbc5aabe0	-0.013346642
238	0x3e32ac52	0.17448547
239	0x3cec6013	0.028854406
240	0x3e0e03fa	0.13868704
241	0x3c2df8db	0.010618414
242	0x3e800e16	0.25010747
243	0xbdffed89	-0.12496478
244	0xbdb9837a	-0.0905828
245	0x3e878665	0.26469722
246	0xbc169aa7	-0.009192145
247	0xbd8d2716	-0.06892221
248	0xbdbbed31	-0.091761
249	0xbd47a0c3	-0.0487373
250	0x3d99fe9a	0.075192645
251	0xbdb89a58	-0.09013814
252	0x3b53f8fd	0.0032344454
253	0x3d69d7fd	0.057090748
254	0x3d77fdd2	0.060544796
255	0xbde6bf7b	-0.11266991

action_model._discrete_distribution.branches.1.bias f4 [3]
0	0xbd7e7058	-0.062118858
1	0x3d9a4d4d	0.07534275
2	0xbc2327b0	-0.009958193

action_model._discrete_distribution.branches.1.weight f4 [3, 128]
0	0xbc7283c6	-0.014801925
1	0xbd2f1445	-0.04274394
2	0xbc9f7c65	-0.019468496
3	0xbc79480c	-0.015214931
4	0xba8a0e8b	-0.0010532899
5	0x3c57a896	0.013162753
6	0xbd2dff99	-0.042480085
7	0xbdd3cbd8	-0.103416145
8	0xbddbecb9	-0.10738511
9	0xbcbd309d	-0.02309447
10	0x3cc05b95	0.02348117
11	0xbd091f40	-0.033477068
12	0xbd56b125	-0.052415032
13	0xbd1b769e	-0.03795492
14	0xbd89b45d	-0.06723855
15	0xbd548245	-0.051882047
16	0xbd5b6f86	-0.053573154
17	0x3de872d6	0.11350028
18	0x3ddc6212	0.10760893
19	0x3d0d5516	0.034504972
20	0x3cfca58e	0.030840661
21	0xbdd8e546	-0.105906054
22	0x3d506a19	0.050882433
23	0xbd8a745c	-0.06760475
24	0xbe3574cb	-0.17720334
25	0x3c488cf7	0.01224064
26	0x3ce851ff	0.028359411
27	0xbd4c60a7	-0.049896862
28	0xbdce4194	-0.10071102
29	0xbc3336e7	-0.010938383
30	0x3b629b1f	0.0034577323
31	0xbdcb7c1d	-0.09935782
32	0xbc432a96	-0.011912009
33	0xbc40747f	-0.011746525
34	0xbc552a97	-0.0130106425
35	0x3d3435b3	0.043996524
36	0xbd6e1755	-0.05812772
37	0x3d04fb8b	0.032466453
38	0xbc4f3a83	-0.012648228
39	0xbd128b03	-0.035777103
40	0xbca9993f	-0.020702956
41	0xbd41cadf	-0.047312614
42	0xbd5d1736	-0.053977214
43	0xbc8eee82	-0.017447714
44	0xbc308544	-0.0107739605
45	0xbd145bba	-0.03622029
46	0xbdc33c34	-0.09532967
47	0xbb787478	-0.0037911218
48	0x3b0d7973	0.0021587282
49	0xbd043575	-0.032277543
50	0xbd8bee68	-0.06832582
51	0xbdaad7cf	-0.083419435
52	0xbd300139	-0.042969916
53	0x3cb77de5	0.022398898
54	0x3d9bf7be	0.076156124
55	0x3b25771f	0.0025248004
56	0xbd91bd79	-0.07116217
57	0x3c1114b5	0.008855035
58	0x3d242dd3	0.040082764
59	0xbda547de	-0.08070348
60	0xbd36a9fd	-0.044595707
61	0x3d2c7409	0.042102847
62	0xbcd6e8f6	-0.026234131
63	0xbd5a967f	-0.05336618
64	0x3d6dfe5d	0.058103908
65	0xbc89a79b	-0.016803553
66	0x3deea74a	0.116530016
67	0x3a3e5757	0.00072609395
68	0xbd8fda2d	-0.070240356
69	0x3d3f55c3	0.046712648
70	0x3cc9109f	0.024544058
71	0xbd2c0656	-0.04199823
72	0x3d42db41	0.047572378
73	0xbb53b1ec	-0.0032302095
74	0x3d2e9e62	0.042631514
75	0x3d1c2c6f	0.038128313
76	0x3dbb8e31	0.0915798
77	0xbde477ff	-0.111557
78	0xbd45607e	-0.048187725
79	0xbd899661	-0.067181356
80	0xbd44bd68	-0.048032194
81	0xbdf37a92	-0.11888613
82	0xbd82e8d4	-0.06392065
83	0xbd2fc9f8	-0.04291722
84	0xbc40433d	-0.011734781
85	0xbda85118	-0.082185924
86	0xbd6d757d	-0.057973374
87	0xbd694ec9	-0.0569599
88	0xbb4c044f	-0.0031130498
89	0xbdcb4613	-0.09925475
90	0xbcf39a5f	-0.029736696
91	0xbcb64ce2	-0.022253457
92	0x3b817666	0.003950882
93	0xbd7d9cbe	-0.06191706
94	0xbb4b8c76	-0.0031059063
95	0xbd04cc4c	-0.032421395
96	0xbd9b539e	-0.07584308
97	0x3dce8d5a	0.100855544
98	0xbd9a4d82	-0.07534315
99	0x3d403580	0.04692602
100	0x3d37aff1	0.044845525
101	0x3d95b697	0.07310217
102	0x3d4f3830	0.050590694
103	0x3b593081	0.0033140483
104	0xbde2f2f3	-0.11081495
105	0xbd1e903a	-0.038711764
106	0xbd1ba64a	-0.038000382
107	0x3c3a917a	0.011387223
108	0xbc78b671	-0.015180216
109	0xbd4631e5	-0.048387427
110	0xbcce2909	-0.025166051
111	0xbd4af8a9	-0.049553547
112	0xbd803495	-0.06260029
113	0xbc09feaa	-0.008422533
114	0xbc421cd2	-0.011847692
115	0xbd3c8b7b	-0.046031456
116	0x3a3e4225	0.0007257781
117	0x3c9b4ed7	0.018958492
118	0xbcb998bf	-0.022655843
119	0x3c4d341b	0.01252463
120	0xbd693fa6	-0.056945466
121	0xbd380a43	-0.04493166
122	0xbde9a547	-0.11408477
123	0xbc9a786e	-0.018856253
124	0xbdcbe3c9	-0.09955556
125	0xbdcf565a	-0.10123892
126	0x3a2c665a	0.0006576531
127	0xbceb90f4	-0.028755642
128	0xbd6106d5	-0.054938156
129	0x3e57db3a	0.21079722
130	0x3cccab8d	0.024984146
131	0xbcb3c551	-0.021944674
132	0x3e0bf325	0.13666971
133	0x3c5946ca	0.013261506
134	0xbd9938e5	-0.07481555
135	0x3d7e2e96	0.062056147
136	0xbe02c9c5	-0.12772281
137	0xbe8a179a	-0.26971132
138	0xbd8b5982	-0.06804182
139	0x3e4d8644	0.2007075
140	0x3e11f93a	0.14255229
141	0x3e0ce995	0.1376098
142	0x3eaacc5c	0.3335904
143	0x3c9f5f36	0.01945458
144	0xbd3dce1d	-0.046339143
145	0xbda2d028	-0.07949859
146	0x3da5365b	0.08067008
147	0xbcca2fa7	-0.024680926
148	0x3bd0d870	0.0063734576
149	0xbe802386	-0.25027102
150	0xbc10791b	-0.008817936
151	0xbec2fb14	-0.38082182
152	0xbe5a0b5d	-0.21293397
153	0xbe9f1b56	-0.31075543
154	0xbe3bc270	-0.18335891
155	0xbd454a32	-0.04816646
156	0xbcbcab61	-0.023030939
157	0x3e9adaef	0.30245158
158	0xbd1e88d6	-0.038704716
159	0x3e537ead	0.20653792
160	0x3e10a735	0.14126284
161	0xbbad6d9a	-0.0052926065
162	0x3e5b0516	0.21388659
163	0x3d74b2dc	0.059740886
164	0xbe3976d5	-0.18111737
165	0x3e38e3c4	0.18055636
166	0x3caf989d	0.021435076
167	0x3e678042	0.2260752
168	0x3e39ff00	0.18163681
169	0x3ea8b0cd	0.32947388
170	0x3e0748ac	0.13211316
171	0xbe13d272	-0.14435747
172	0x3b3cf7fc	0.0028834334
173	0x3cb14aae	0.021642055
174	0x3e0e290e	0.13882849
175	0xbd3f20cd	-0.04666214
176	0x3e49ca0d	0.19705983
177	0x3d0df435	0.034656722
178	0xbe56e8ae	-0.20987198
179	0x3c99f219	0.018792199
180	0xbe46901c	-0.19390911
181	0x3b447c10	0.0029981174
182	0xbc844c35	-0.01614962
183	0xbd4a671c	-0.04941474
184	0xbd6f4788	-0.058417827
185	0x3cd46bd0	0.025930315
186	0xbe10ea91	-0.1415198
187	0x3d86991a	0.065721706
188	0x3ec413db	0.382964
189	0xbc7b19c2	-0.015325965
190	0xbdc264ec	-0.094919056
191	0xbd9afd17	-0.07567804
192	0xbc691ddc	-0.01422831
193	0x3c32fa09	0.010923871
194	0xbd831594	-0.064006
195	0x3c78983e	0.015173016
196	0xbbf34cae	-0.0074249124
197	0xbd61aaec	-0.055094644
198	0xbcbe6e5f	-0.023245988
199	0x3dc0cf3b	0.09414526
200	0x3d9f9dee	0.077937946
201	0xbe435836	-0.19076619
202	0x3c04a581	0.0080961
203	0x3b8aaf55	0.004232327
204	0xbca7ba66	-0.020474624
205	0x3e13f365	0.14448316
206	0x3d32e561	0.043675784
207	0xbd3172de	-0.043322437
208	0xbc84b6a8	-0.016200379
209	0x3e679b0a	0.22617736
210	0x3e0ea031	0.13928296
211	0xbd7af00a	-0.061264075
212	0xbe4beda2	-0.19914868
213	0x3edd6c8b	0.43246874
214	0x3ea7e993	0.3279539
215	0x3da27308	0.07932097
216	0xbdf7b129	-0.120943375
217	0xbd1df41c	-0.03856288
218	0x3cbafe4f	0.022826342
219	0x3e290901	0.16507341
220	0xbe25052f	-0.16115259
221	0xbdf1c8b5	-0.1180586
222	0x3e869e91	0.26292852
223	0x3b315a02	0.0027061705
224	0x3b8af065	0.004240083
225	0xbe3b233e	-0.18275163
226	0xbe2588d7	-0.16165482
227	0xbe60cf36	-0.21954045
228	0x3bd5c028	0.006523151
229	0xbe91eec8	-0.28502488
230	0xbd127aa9	-0.03576151
231	0x3c47a51a	0.012185359
232	0xbd960f5b	-0.073271476
233	0xbd62b19f	-0.055345174
234	0x3bfa2693	0.007633993
235	0x3d0e77f6	0.034782372
236	0x3d520292	0.051271982
237	0x3e8237de	0.25433248
238	0xbd167696	-0.036734186
239	0x3d95e385	0.073187865
240	0x3e405529	0.18782486
241	0xbc09f935	-0.008421232
242	0x3c8111ab	0.015755495
243	0x3c006345	0.007836168
244	0xbb00c000	-0.001964569
245	0xbd25e206	-0.040498756
246	0x3c6eb226	0.014568841
247	0x3ca8a9cc	0.020588778
248	0xbcee3bfa	-0.029081333
249	0x3d43eda3	0.04783405
250	0x3ed67f11	0.4189382
251	0x3d4ce9e1	0.05002773
252	0x3e39041a	0.18067971
253	0x3d294538	0.041325778
254	0x3c8c13ab	0.017099222
255	0x3d4b853b	0.049687605

action_model._discrete_distribution.branches.2.bias f4 [3]
0	0xbd160093	-0.03662164
1	0x3db86cb6	0.0900511
2	0xbbf9f409	-0.007627968

action_model._discrete_distribution.branches.2.weight f4 [3, 128]
0	0x3d4107d4	0.047126606
1	0xbd0382f0	-0.032107294
2	0xbd784560	-0.060613036
3	0x3d1bc780	0.038032055
4	0x39d7d328	0.0004116532
5	0x3dadede6	0.08492641
6	0x3c7324d6	0.014840325
7	0xbcd5a047	-0.026077403
8	0x3cdd044f	0.026979594
9	0xbcc53936	-0.024075132
10	0x3d6f05c4	0.058355108
11	0xbd25b41e	-0.040454976
12	0xbcb99855	-0.022655645
13	0xbc194bcb	-0.009356449
14	0xbda0b747	-0.078474574
15	0xbcefe056	-0.029281776
16	0xbcd26b57	-0.02568595
17	0xbd948aab	-0.07253011
18	0xbe150c2b	-0.14555423
19	0xbb3e80b6	-0.0029068417
20	0xbc501884	-0.0127011575
21	0x3c3bf749	0.011472532
22	0xbd488da6	-0.04896321
23	0x3c97af23	0.018516129
24	0x3a9aec40	0.0011819676
25	0xbc9e9001	-0.019355776
26	0x3cc24b8f	0.02371767
27	0xbcfde348	-0.030992165
28	0xbda0174e	-0.07816945
29	0xbddd57d6	-0.10807769
30	0x3da0d18d	0.07852469
31	0xbd9bbe35	-0.076046385
32	0xbe265de4	-0.16246754
33	0x3c6c6e09	0.014430531
34	0xbdefd84a	-0.11711176
35	0xbdd341df	-0.10315298
36	0x3cfd6ee0	0.030936658
37	0xbdbb9f5c	-0.09161255
38	0xbd8cb6e5	-0.06870822
39	0xbd3d5764	-0.04622592
40	0x3b4bcde8	0.0031098071
41	0xbe13e66c	-0.14443368
42	0x3d77e83b	0.060524207
43	0xbc205817	-0.009786627
44	0x3c7df032	0.015499162
45	0xbc109470	-0.008824453
46	0xbdba3709	-0.090925284
47	0x3d358295	0.044313986
48	0xbe1ac7b7	-0.15115248
49	0x3d8465af	0.06464707
50	0xbd2fd775	-0.042930085
51	0x3d417b31	0.047236625
52	0x3cdf4697	0.02725534
53	0xbc35ed19	-0.011103892
54	0xbcd85437	-0.026407344
55	0x3cf99093	0.030464446
56	0xbb8e2516	-0.004337917
57	0xbc4659da	-0.012106383
58	0xbc9bb82f	-0.019008724
59	0xbd794e35	-0.0608656
60	0xbd66f581	-0.056386475
61	0xbc8607ef	-0.016361205
62	0x3cc8d6df	0.024516521
63	0xbbac5207	-0.005258802
64	0x3d016dd5	0.031598885
65	0x3d195c76	0.037441693
66	0xbd593b0b	-0.053034823
67	0xbca09d45	-0.019606242
68	0x3d30a8ed	0.04312985
69	0x3ba709bf	0.0050975974
70	0x3cdbc019	0.026824998
71	0x3c8134f7	0.015772326
72	0xbd9e663b	-0.07734343
73	0x3cf93505	0.03042079
74	0xbd1116d2	-0.035422154
75	0x3d47f524	0.04881777
76	0xbbfbb098	-0.0076809637
77	0xbd02c252	-0.0319236
78	0x3dd38393	0.1032783
79	0xbc3be157	-0.011467299
80	0x3d1b1f96	0.03787192
81	0xbdc4b9db	-0.096057616
82	0xbe08769b	-0.13326494
83	0xbd1f6100	-0.038910866
84	0xbd1aea3c	-0.03782104
85	0xbcb33afb	-0.02187871
86	0x3d11d881	0.035606865
87	0xbd830f3d	-0.06399391
88	0x3d0e2e3b	0.034712058
89	0xbcb66476	-0.0222647
90	0xbdc54075	-0.09631435
91	0xbe052800	-0.1300354
92	0xb8d6e0d2	-0.00010246191
93	0xbab13ec9	-0.001352274
94	0xbd67540c	-0.056476638
95	0x3bca7399	0.006178331
96	0xbad7219c	-0.0016413215
97	0x3d9bdb68	0.07610208
98	0xbce8ade7	-0.028403236
99	0x3d1d3082	0.03837634
100	0x3d8d8afa	0.06911273
101	0x3d20d8a9	0.039269123
102	0xbc661525	-0.014043127
103	0xbc47e0c4	-0.012199584
104	0xbd1d5dd0	-0.038419545
105	0x3d88a3fb	0.06671902
106	0x3cf4ff78	0.029906973
107	0x3d8719bf	0.065967076
108	0xbce32231	-0.027726265
109	0xbc757141	-0.014980615
110	0x3c9cdbf3	0.019147849
111	0xbcb296ff	-0.021800516
112	0xbcc4f5dc	-0.024043016
113	0xbc616fbd	-0.013759551
114	0xbdb3469c	-0.08753702
115	0x3b44fff8	0.0030059796
116	0xbc5df673	-0.013547528
117	0x3d1e4d63	0.03864802
118	0x3c989f5b	0.018630674
119	0xbd037a02	-0.032098778
120	0xbd48e2c0	-0.04904437
121	0x3d8aeab5	0.06783048
122	0xbe1c53e4	-0.15266377
123	0xbcb5fac0	-0.022214293
124	0xbdd256ba	-0.10270448
125	0xbdc822ce	-0.097722635
126	0xbd878be3	-0.06618478
127	0x3c8923ba	0.016740669
128	0xbd8c1156	-0.06839244
129	0x3eb0efdb	0.34557995
130	0xbe092d18	-0.13396108
131	0x3b56e9d2	0.0032793176
132	0x3e48f9b1	0.196265
133	0xbc4693c7	-0.012120194
134	0x3d1c7ad4	0.038203076
135	0x3e293c12	0.16526821
136	0x3d700bcd	0.058605004
137	0xbd22cf70	-0.03974861
138	0xbc85ff20	-0.016357005
139	0x3e95a8db	0.2923039
140	0x3d12c856	0.035835586
141	0x3eb1feeb	0.347648
142	0xbdb3fcfe	-0.08788489
143	0x3c38fd6f	0.011290892
144	0x3c3daaf0	0.011576399
145	0x3ea5239a	0.32253724
146	0x3e38d577	0.1805018
147	0x3c41dd6c	0.011832576
148	0x3d8b3448	0.06797081
149	0xbe243eda	-0.16039601
150	0x3cd30da5	0.025763342
151	0x3cfe810e	0.031067397
152	0xbce93475	-0.028467396
153	0xbd031c83	-0.032009613
154	0x3c2c8771	0.010530339
155	0xbe06f87e	-0.1318073
156	0xbe80edfe	-0.25181574
157	0xbe8fa24f	-0.2805352
158	0xbc7011bd	-0.014652667
159	0x3de92914	0.11384788
160	0x3e693f05	0.22777946
161	0xbc94fbb0	-0.01818642
162	0x3d2a5490	0.04158455
163	0x3dcc57ff	0.099777214
164	0x3c4e2cb8	0.012583904
165	0xbe66a208	-0.22522748
166	0x3be0b902	0.006857992
167	0x3c9e160f	0.019297628
168	0xbcc42f28	-0.023948267
169	0x3dde97bf	0.10868787
170	0xbc30cd90	-0.010791197
171	0x3d595948	0.05306366
172	0xbb5894ac	-0.00330476
173	0x3ce277c9	0.027645009
174	0xbd45c960	-0.04828775
175	0x3901a7a3	0.00012364848
176	0x3e40db5b	0.18833677
177	0x3c492045	0.01227576
178	0xbe73bb50	-0.23801923
179	0xbde64a84	-0.112446815
180	0x3d8dcbf7	0.06923669
181	0x3d54f2e1	0.05198944
182	0x3dbdf61a	0.09275456
183	0xbd203201	-0.039110187
184	0xbca4d1d8	-0.020119593
185	0x3d07d4ba	0.033161856
186	0xbe6b8448	-0.2299968
187	0xbe220124	-0.15820748
188	0x3e097ed5	0.13427289
189	0xbd5b8e71	-0.05360264
190	0x3bcf44c5	0.0063253366
191	0x3e0526b5	0.13003047
192	0x3dc6a874	0.09700099
193	0xbd28c6d6	-0.04120525
194	0x3e0fd962	0.14047769
195	0xbe2471a1	-0.16058971
196	0xbcbef334	-0.023309328
197	0xbbbf77cd	-0.005843139
198	0xbdc52b41	-0.09627391
199	0x3e358f2e	0.177304
200	0x3d4cbbc4	0.049983755
201	0xbbc73109	-0.0060788435
202	0x3d9617a3	0.07328727
203	0xbc18ef15	-0.009334345
204	0x3ded9533	0.11600723
205	0x3e58f7ac	0.2118823
206	0xbdaa06ba	-0.08302064
207	0xbe48aed3	-0.1959794
208	0xbd650288	-0.055910617
209	0xbde9eef8	-0.11422533
210	0x3e07200a	0.13195816
211	0x3d3d1fad	0.046172787
212	0xbe414077	-0.18872248
213	0x3d53c3ca	0.05170039
214	0x3d8d080a	0.06886299
215	0xbdf445b1	-0.11927355
216	0xbd25a478	-0.040440053
217	0xbe6a70d1	-0.22894599
218	0x3d1f30b7	0.038864817
219	0x3df8d56e	0.121500835
220	0xbdc06589	-0.09394366
221	0x3cd3ca0c	0.02585318
222	0x3e164006	0.1467286
223	0xbe135700	-0.14388657
224	0x3df900db	0.12158366
225	0xbd00f65c	-0.031484947
226	0xbd8ba466	-0.06818466
227	0x3e600472	0.21876696
228	0x3cc59fc5	0.024124036
229	0xbba1d5e5	-0.0049388283
230	0x3d02437e	0.031802647
231	0xbc14dabd	-0.009085354
232	0xbe149f53	-0.14513902
233	0xbc170242	-0.009216847
234	0x3dc904d0	0.09815371
235	0xbc942d39	-0.01808797
236	0x3d4690f7	0.048478093
237	0x3eb5595e	0.35419744
238	0xbc9e6dbd	-0.019339437
239	0xbd44e19b	-0.048066717
240	0xbb5e1a93	-0.0033890351
241	0xbd14d90d	-0.03633981
242	0xbe4494ac	-0.19197339
243	0xbd8a5d25	-0.06756047
244	0xbce8f207	-0.02843572
245	0xbd1b7484	-0.037952915
246	0x3dd8e83d	0.10591171
247	0x3d3c6e99	0.04600391
248	0xbdd8d01d	-0.105865695
249	0xbc1dbb70	-0.009627208
250	0x3e274d45	0.1633807
251	0xbc71645a	-0.014733398
252	0xbe771f57	-0.24133049
253	0xbe64f48a	-0.22358909
254	0x3d56e287	0.052462127
255	0x3d212b2e	0.03934782

discrete_action_output_shape f4 [1, 3]
0	0x40400000	3.0
1	0x40400000	3.0
2	0x40400000	3.0

network_body._body_endoder.seq_layers.0.bias f4 [128]
0	0x3e0a4abf	0.13505076
1	0x3e0c13eb	0.13679473
2	0x3d34a561	0.04410303
3	0x3dbaf47d	0.09128664
4	0x3dfa8a84	0.12233451
5	0xba1b48af	-0.00059236115
6	0xbb06a55c	-0.002054534
7	0x3e41228e	0.18860838
8	0x3cc29a08	0.023755088
9	0xbd9708df	-0.07374739
10	0x3d50ef2d	0.051009346
11	0x3cc1fb5c	0.023679428
12	0x3e57e790	0.21084428
13	0x3c89ef2d	0.01683768
14	0x3e35ce8f	0.17754577
15	0x3e0ca468	0.13734591
16	0x3de645a0	0.11243749
17	0x3e03e584	0.12880522
18	0x3df06ba6	0.11739282
19	0x3e243573	0.16036014
20	0xbcdb7b92	-0.026792321
21	0x3da46276	0.080265924
22	0xbd4dd955	-0.050256092
23	0x3e55f248	0.20893204
24	0x3d9dc012	0.0770265
25	0xbce122f5	-0.02748249
26	0xbc9e64ec	-0.019335233
27	0x3da96921	0.08272005
28	0x3e6735ff	0.22579192
29	0xbd5b3be2	-0.053523906
30	0x3d83bf22	0.0643294
31	0xbd95fb90	-0.07323372
32	0x3dcc4992	0.0997497
33	0x3e346434	0.1761635
34	0x3ce5285e	0.02797335
35	0x3dc3647e	0.09540652
36	0xbc9894d9	-0.018625664
37	0x3e097403	0.13423161
38	0x3d667ad9	0.0562695
39	0xbdab2bbc	-0.08357951
40	0x3e493056	0.19647345
41	0xbd4bf28b	-0.049791854
42	0x3e584fce	0.21124193
43	0x3d6f94c7	0.058491495
44	0x3d9f85c0	0.07789183
45	0xbd98f1d6	-0.074680015
46	0xbd6446fb	-0.055731755
47	0x3d320137	0.04345819
48	0x3d5d7258	0.054064125
49	0x3ddf07ed	0.108901836
50	0x3d6d9354	0.05800183
51	0xbc09acbb	-0.008402999
52	0xbdb6cd03	-0.08925822
53	0xbd66a57d	-0.056310166
54	0xbddcefd2	-0.107879296
55	0x3e0209fb	0.1269912
56	0x3d112e4e	0.03544455
57	0x3dc00d43	0.093775295
58	0x3cc88b94	0.024480619
59	0xbc53bbec	-0.012923222
60	0x3e1f1f8d	0.1553938
61	0x3dfea0d1	0.12433017
62	0xbca943a5	-0.020662138
63	0x3c92c13f	0.017914413
64	0x3dfe5306	0.12418179
65	0xbdd42708	-0.10359007
66	0xbd62729b	-0.055285078
67	0xbc7078de	-0.0146772545
68	0x3c16214c	0.009163212
69	0x3c9c4618	0.019076392
70	0x3c5584ac	0.01303212
71	0x3d4d8e2e	0.05018442
72	0x3c3d976d	0.011571747
73	0xbd3133c2	-0.04326225
74	0x3e19bf47	0.15014373
75	0xbcb30b45	-0.02185596
76	0x3ca85f6c	0.020553313
77	0xbd2b02e7	-0.041750815
78	0xbdfc8e2b	-0.12331804
79	0x3e99cb9b	0.3003815
80	0x3e01886c	0.12649697
81	0x3e512ccf	0.2042725
82	0x3ce971f4	0.02849672
83	0xbd44fbfc	-0.048091874
84	0xbdbf54af	-0.09342324
85	0x3e11b50e	0.14229223
86	0x3d7cf1a3	0.06175388
87	0x3e78158e	0.24226972
88	0x3ce391e8	0.027779534
89	0xbcef2836	-0.029193979
90	0x3da6b593	0.08140101
91	0xbc8b7709	-0.017024534
92	0x3db8447a	0.08997436
93	0x3e498242	0.19678596
94	0x3d9d43fc	0.076789826
95	0x3cbf63f0	0.023363084
96	0xbd382271	-0.04495472
97	0x3d388e95	0.04505785
98	0x3baea127	0.0053292695
99	0xbc8af358	-0.016961738
100	0x3d9326eb	0.071851574
101	0x3d553dc1	0.052060846
102	0x3e0a257c	0.13490862
103	0x3d16939d	0.03676187
104	0x3e6ebcd6	0.23314223
105	0xbd96f5bc	-0.07371089
106	0x3da6c5e4	0.081432134
107	0x3d4b77cf	0.049674805
108	0x3e8670d5	0.2625796
109	0xbd0bb35d	-0.0341066
110	0x3dac1d83	0.084040664
111	0x3da60888	0.08107096
112	0x3cff6c57	0.03117959
113	0x3e55cb77	0.20878397
114	0x3c92fbdd	0.017942363
115	0xbd4073c3	-0.0469854
116	0x3e0db27b	0.13837616
117	0xbd8efc0b	-0.06981667
118	0xbc117238	-0.0088773295
119	0x3e05a903	0.13052754
120	0xbd2f9f73	-0.042876672
121	0xbbd4e965	-0.0064975494
122	0x3e0a79e4	0.1352306
123	0x3d8979f7	0.06712716
124	0x3d9bacd3	0.07601323
125	0x3d9222f7	0.07135575
126	0xbdc79a9e	-0.09746288
127	0x3d82b465	0.06382064

network_body._body_endoder.seq_layers.0.weight f4 [128, 20]
0	0xbf262248	-0.6489606
1	0x3dde620f	0.10858547
2	0x3e5cd8dc	0.215671
3	0xbe3e4448	-0.18580735
4	0xbbbbd413	-0.0057320683
5	0xbeb0c14d	-0.34522477
6	0x3c6d8114	0.014496107
7	0x3e1073da	0.14106694
8	0x3ee5f986	0.44916934
9	0xbeaa7531	-0.33292535
10	0xbde35fa5	-0.11102227
11	0x3e6618af	0.22470354
12	0x3f0f0100	0.558609
13	0x3db2b9b2	0.08726825
14	0xbe82da5d	-0.25557223
15	0xbf270143	-0.652363
16	0x3ea3bd6a	0.3198045
17	0x3e3e9859	0.18612804
18	0x3e619bae	0.22032043
19	0xbd580bef	-0.052745756
20	0xbddd7c8b	-0.1081477
21	0xbe1abec0	-0.15111828
22	0xbe3aef2a	-0.18255296
23	0x3e3faa72	0.18717363
24	0x3dfd68c1	0.12373496
25	0x3de14687	0.1099978
26	0xbd094d3a	-0.033520915
27	0x3ebfb6b0	0.37444067
28	0x3e66e28a	0.22547355
29	0x3eace093	0.33765087
30	0x3cef7db4	0.029234745
31	0x3e2cda4f	0.16880153
32	0xbe7fbba0	-0.24973917
33	0x3f0f165e	0.55893505
34	0x3dd5528e	0.10416137
35	0x3da9f6b7	0.0829901
36	0x3d8d821a	0.069095805
37	0x3e4521e6	0.19251212
38	0x3caa79a3	0.020809954
39	0xbec25647	-0.3795645
40	0xbe298a51	-0.1655667
41	0xbdbbb629	-0.09165604
42	0x3dca2523	0.098703645
43	0x3e5ede77	0.21764551
44	0x3eaf3a6f	0.3422427
45	0xbdf3960b	-0.11893853
46	0xbe749ee6	-0.2388874
47	0xbdb92653	-0.09040513
48	0xbe8ad3f6	-0.27114838
49	0x3f5f6d8a	0.8727652
50	0xbe7023a6	-0.23451099
51	0xbf2c529b	-0.67313546
52	0xbe883a47	-0.26606962
53	0xbddabefa	-0.10680957
54	0xbdd39d38	-0.103327215
55	0xbdb1c239	-0.08679623
56	0xbe7b50cc	-0.2454254
57	0xbc9ac608	-0.018893257
58	0xbe41a0b1	-0.18908955
59	0xbec8e20d	-0.39234963
60	0xbe9bf06d	-0.30456868
61	0x3e93ce43	0.28868303
62	0xbd53c567	-0.05170193
63	0xbcc5ac98	-0.02413015
64	0xbf2fbf69	-0.68651444
65	0xbe01a907	-0.12662135
66	0xbee44b76	-0.44588822
67	0xbe5ccad6	-0.21561751
68	0xbe7e13af	-0.24812196
69	0xbe5c5852	-0.21518067
70	0xbecb99ba	-0.39765722
71	0xbf1a2200	-0.6020813
72	0xbcfcc1b3	-0.030854082
73	0x3eb3f7a3	0.3514987
74	0xbf6943dd	-0.91119176
75	0xbe23398d	-0.15939923
76	0xbe13036d	-0.14356776
77	0x3e7e9842	0.24862769
78	0x3db246e6	0.08704929
79	0xbe837e35	-0.25682226
80	0x3e2863e2	0.16444352
81	0xbe2958e4	-0.16537815
82	0xbeef3040	-0.467165
83	0xbd2762aa	-0.040865578
84	0x3e5f4373	0.21803074
85	0x3cc335ad	0.023829306
86	0xbe785e64	-0.24254757
87	0x3e50ede8	0.20403254
88	0xbee8e4eb	-0.4548715
89	0x3f73c456	0.9522146
90	0x3d9a78fc	0.07542607
91	0xbe4bdd2b	-0.19908588
92	0xbdd2bc0c	-0.10289773
93	0x3e845a2e	0.25850052
94	0x3b8a42bb	0.0042193807
95	0xbe095419	-0.13410987
96	0xbdbff8bb	-0.093736134
97	0xbeb41e6f	-0.3517947
98	0xbecc8d8b	-0.3995174
99	0xbe49f986	-0.19724092
100	0xbdcf5e35	-0.101253904
101	0x3d73eb12	0.059550352
102	0x3e8b6c7b	0.27231202
103	0x3ea07021	0.31335548
104	0xbe06835c	-0.13136047
105	0x3ed343d2	0.4126268
106	0xbe474863	-0.19461207
107	0xbe8a41a9	-0.2700322
108	0xbef92139	-0.4865816
109	0x3f7a6150	0.9780474
110	0x3d4e89ce	0.05042439
111	0xbe733733	-0.23751526
112	0xbe92dee6	-0.28685683
113	0x3cbb0649	0.022830145
114	0x3e45d64f	0.19320033
115	0x3d10f1a7	0.035386708
116	0x3dcec691	0.10096467
117	0x3e22123f	0.15827273
118	0xbd5a71e8	-0.053331286
119	0x3e6f0769	0.2334267
120	0x3e73a43b	0.23793118
121	0xbf1547d7	-0.58312744
122	0x3e54bed6	0.20775923
123	0xbe0bb419	-0.1364292
124	0xbd85be33	-0.06530418
125	0x3f05fb6b	0.5233676
126	0xbc88c4a5	-0.01669533
127	0xbe4a99e0	-0.19785261
128	0x3e5c5a3d	0.21518798
129	0x3e681333	0.22663574
130	0x3eeacc14	0.45858824
131	0x3f9a6056	1.2060649
132	0xbe02ac60	-0.12761068
133	0xbe7016fe	-0.23446271
134	0x3f38c733	0.72178954
135	0x3e2afc0a	0.16697708
136	0xbe7c30bf	-0.2462797
137	0x3e29b90f	0.165745
138	0x3ecfeadf	0.4060888
139	0x3de215e6	0.11039333
140	0x3dea6884	0.11445716
141	0x3f0ddc53	0.55414313
142	0xbecca3bd	-0.39968672
143	0xbe8e429f	-0.27785203
144	0x3e22ddf6	0.15904984
145	0xbe07d135	-0.132634
146	0xbe4a4273	-0.19751911
147	0x3e123d82	0.14281276
148	0x3df46bfe	0.119346604
149	0x3ecd8f83	0.40148553
150	0x3e9789f0	0.29597425
151	0xbf20a442	-0.6275064
152	0x3ea576bb	0.32317147
153	0x3db0f748	0.08640915
154	0x3ef719a2	0.48261744
155	0xbe6da6b0	-0.23208117
156	0xbd762ac3	-0.060099375
157	0x3e3709a4	0.17874771
158	0xbc847f1f	-0.016173897
159	0xbe06d2f1	-0.13166405
160	0xbe6edbf9	-0.233261
161	0xbe4cd16c	-0.20001763
162	0xbe8479f5	-0.25874296
163	0xbe35605f	-0.17712544
164	0xbebc24e6	-0.367469
165	0xbe3dc1f0	-0.18531013
166	0xbe4dd607	-0.20101176
167	0xba07b6c7	-0.0005177077
168	0x3f8a6bd8	1.0814161
169	0xbf15679d	-0.58361226
170	0xbe3f1664	-0.18660885
171	0xbcac042c	-0.020998083
172	0x3e97e904	0.29669964
173	0xbdbf9256	-0.09354083
174	0xbf1ff783	-0.6248705
175	0x3ee9aabb	0.4563807
176	0xbe06f82a	-0.13180605
177	0x3c93b33d	0.018029803
178	0xbe095edb	-0.1341509
179	0xbe56ee75	-0.20989402
180	0x3d198970	0.037484586
181	0x3d88dc6c	0.06682667
182	0x3d3758fa	0.04476259
183	0x3e28cd6a	0.16484609
184	0xbdd90cb2	-0.105981246
185	0x3e552914	0.20816451
186	0x3d7295ef	0.05922502
187	0xbf17a00e	-0.592286
188	0xbe95e480	-0.29275894
189	0xbe05dded	-0.13072939
190	0xbc856361	-0.01628274
191	0x3d83e70f	0.06440555
192	0x3deeac35	0.1165394
193	0x3e713db1	0.2355869
194	0x3ca75963	0.020428365
195	0x3d8e9106	0.06961255
196	0xbdc2e60a	-0.09516533
197	0xbde0794c	-0.109606355
198	0x3d6d1100	0.05787754
199	0x3eeaff1e	0.45897764
200	0xbedc8d02	-0.4307633
201	0x3c18a240	0.009316027
202	0x3e3e967b	0.18612091
203	0xbe17810b	-0.1479532
204	0xbe85ac2b	-0.26107916
205	0x3d86d9eb	0.06584533
206	0xbf02cda6	-0.51095045
207	0xbebb7a03	-0.36616525
208	0xbdc92cfa	-0.09823032
209	0xbe663a3d	-0.22483154
210	0x3e829ab9	0.2550867
211	0xbf61bb7e	-0.88176715
212	0xbe9e1a5d	-0.3087949
213	0xbafcdf0c	-0.0019292547
214	0x3ec0c3c8	0.3764937
215	0xbf33dd08	-0.7025914
216	0xbe822a0c	-0.25422704
217	0xbe7e9d3c	-0.24864668
218	0xbec49130	-0.3839202
219	0xbcda349e	-0.026636418
220	0xbb951a16	-0.004550229
221	0xbd885818	-0.066574275
222	0xbe8d6d47	-0.27622434
223	0xbe3cbc56	-0.1843122
224	0x3e9b2e07	0.30308554
225	0x3dbe3fcf	0.09289514
226	0x3e92de85	0.28685394
227	0x3b724544	0.0036967555
228	0xbd9b675c	-0.075880736
229	0xbdc397ca	-0.09550436
230	0x3d7b3aae	0.06133526
231	0x3f61389a	0.8797699
232	0xbed4008c	-0.41406667
233	0x3eade3ab	0.3396276
234	0x3e91719a	0.28406984
235	0xbd789eb2	-0.06069822
236	0xbd89b8fa	-0.067247346
237	0xbe15bd07	-0.1462289
238	0xbd73a251	-0.05948097
239	0x3d77a7b8	0.060462683
240	0x3e411832	0.18856886
241	0xbe85bc9e	-0.26120466
242	0x3eb6780f	0.35638472
243	0x3d6f73da	0.058460094
244	0x3e179dc7	0.14806281
245	0xbf0490de	-0.5178355
246	0x3d00ed6d	0.031476427
247	0x3dab026f	0.083500735
248	0x3f29e980	0.6637192
249	0x3d8d156c	0.068888515
250	0x3eba8fe5	0.36437908
251	0xbf2148ab	-0.6300151
252	0x3ea54bc5	0.3228437
253	0x3dd31935	0.10307542
254	0xbe63753f	-0.22212695
255	0x3e129d87	0.14317904

network_body._body_endoder.seq_layers.2.bias f4 [128]
0	0xbdc9d25d	-0.09854577
1	0xbd0fdfe6	-0.035125636
2	0xbdc3026c	-0.09521946
3	0x3c73385c	0.01484498
4	0xbda1eb85	-0.0790625
5	0x3d8ae963	0.06782796
6	0xbd98adc0	-0.07455015
7	0xbbff2ff0	-0.007787697
8	0xbdc14828	-0.09437591
9	0xbd48294e	-0.048867516
10	0xbe112b0a	-0.14176574
11	0xbc5bb0f0	-0.013408884
12	0x3d4242e8	0.047427088
13	0x3d65b19a	0.056077577
14	0xbcb196cd	-0.021678353
15	0xbda8e20e	-0.082462415
16	0xbd273a43	-0.040827047
17	0x3d0de7ef	0.034645017
18	0x3e0b4e3a	0.1360406
19	0x3cd76634	0.026293851
20	0xbb0e8b3c	-0.002175047
21	0xbd925f50	-0.07147086
22	0xbcd86554	-0.026415505
23	0xbd65411d	-0.0559703
24	0xbc9ac99e	-0.018894967
25	0xbddf8ea3	-0.10915878
26	0xbd34129f	-0.04396307
27	0x3c6e6fca	0.01455302
28	0xbcfa00cb	-0.030517956
29	0xbc03eb7b	-0.008051748
30	0x3cda482f	0.026645748
31	0x3b2059df	0.002446763
32	0x3dd79f39	0.10528416
33	0xbd05666f	-0.03256839
34	0xbd2257f8	-0.039634675
35	0x3df6eb06	0.12056546
36	0xbdb3517c	-0.08755776
37	0xbd7f1ed6	-0.062285267
38	0x3d41705a	0.047226287
39	0xbd12f3f8	-0.035877198
40	0xbd532152	-0.05154545
41	0x3c025dfb	0.007956977
42	0x3d2183b0	0.039432228
43	0xbd8dc5f6	-0.06922524
44	0x3d3b6651	0.045751873
45	0xbcf8ff29	-0.030395107
46	0xbd2e416f	-0.04254287
47	0xbd6993b1	-0.057025615
48	0x3db36273	0.08759012
49	0xbd3c8901	-0.046029095
50	0xbcc42ffe	-0.023948666
51	0xbc4b359b	-0.012402917
52	0xbd90f2de	-0.07077573
53	0x3de0af4c	0.10970935
54	0x3ca446f4	0.020053364
55	0xbe5d0d58	-0.21587121
56	0xbddb75cc	-0.10715827
57	0x3d05d121	0.032670144
58	0xbdd79808	-0.105270445
59	0xbd211ac7	-0.039332177
60	0x3ca91b09	0.020642774
61	0xbe241e3a	-0.16027156
62	0xbe12c1c2	-0.14331725
63	0xbd071a40	-0.03298402
64	0x3d3819f9	0.044946644
65	0x3dea385c	0.11436531
66	0x3de1ee00	0.11031723
67	0xbd9a763b	-0.07542082
68	0x3de58311	0.112066396
69	0x3cd26a0d	0.025685335
70	0xbe3098b8	-0.17245758
71	0xbd2265e9	-0.03964797
72	0xbd5594e9	-0.052143965
73	0xbdd9ebe6	-0.10640697
74	0x3dc3f71c	0.09568617
75	0x3c63df3f	0.0139082065
76	0xbd8d9760	-0.06913638
77	0xbcde27fb	-0.027118674
78	0xbd0e90cf	-0.03480607
79	0xbb8e3c29	-0.0043406677
80	0xbb3124a3	-0.0027029894
81	0x3da3a51a	0.07990475
82	0x3c86fbf8	0.01647757
83	0xbd5e6402	-0.054294594
84	0xbd844398	-0.06458205
85	0x3dad4111	0.08459676
86	0x3d8ec38c	0.06970891
87	0xbc84a21c	-0.016190581
88	0xbe17c5ce	-0.1482155
89	0x3ca428bf	0.02003896
90	0xbc3558a4	-0.011068497
91	0xbce08df2	-0.027411435
92	0xbdbf86a1	-0.0935185
93	0xbdb080b2	-0.08618297
94	0xbcd23e65	-0.025664518
95	0x3cd36788	0.025806203
96	0xbabdd2f0	-0.001448242
97	0xbd7e72df	-0.06212127
98	0xbdc00475	-0.0937585
99	0xbd8f3c4e	-0.06993924
100	0xbdd8c353	-0.1058413
101	0xbcd9e229	-0.0265971
102	0xbcab60f2	-0.02092025
103	0x3d25ec4c	0.040508553
104	0xbbad8ffe	-0.005296706
105	0xbd9820c4	-0.074281245
106	0xbdc8b16a	-0.09799464
107	0x3d5a9aeb	0.053370398
108	0x3d4a83b6	0.049442016
109	0xbc8a807b	-0.016906967
110	0xbe3264f2	-0.1742132
111	0xbda5b61f	-0.080913775
112	0xbd9df50d	-0.07712755
113	0xbc4625e2	-0.012093993
114	0xbdc1150e	-0.09427844
115	0x3dc15b6d	0.09441266
116	0x3db59be8	0.088676274
117	0xbe312b00	-0.1730156
118	0xbd28867e	-0.041143887
119	0x3d772024	0.060333386
120	0x3df8c479	0.12146849
121	0xbc22096e	-0.0098899435
122	0x3d014a6c	0.031565115
123	0x3dd4e4b2	0.10395183
124	0x3d0974ac	0.033558533
125	0xbc4937e8	-0.0122813955
126	0x3c4d08a2	0.012514265
127	0x3cab8a36	0.020939928

network_body._body_endoder.seq_layers.2.weight f4 [128, 128]
0	0xbc990057	-0.01867692
1	0x3c35a141	0.011085809
2	0xbe1bdbb0	-0.15220523
3	0xbe29283d	-0.16519256
4	0xbe6008ca	-0.21878353
5	0xbd940629	-0.072277375
6	0x3e51ec41	0.2050028
7	0xbdc96d15	-0.09835259
8	0xbd920dbd	-0.071315266
9	0xbde5d26b	-0.11221775
10	0xbdb89243	-0.09012272
11	0xbba9d89e	-0.0051832935
12	0x3a47399f	0.0007599834
13	0xbc57f41e	-0.013180761
14	0xbb74f0a1	-0.0037374871
15	0xbd6555a5	-0.05598988
16	0xbe48d891	-0.19613864
17	0xbe00524b	-0.12531392
18	0x3de6c0de	0.11267255
19	0xbde931ff	-0.11386489
20	0xbe2dbc22	-0.16966298
21	0xbce9de28	-0.028548315
22	0xbd4c5cd7	-0.049893226
23	0x3c6e4e4d	0.014545036
24	0xbe209c75	-0.15684684
25	0xbddb7a0a	-0.107166365
26	0xbdb6fbb4	-0.08934727
27	0x3d733b4f	0.059382733
28	0xbd403049	-0.04692105
29	0xbdf12cce	-0.11776124
30	0x3d940798	0.07228011
31	0xba07f2bc	-0.00051860115
32	0x3d0a904d	0.033829022
33	0x3deec43e	0.11658524
34	0x3df1b473	0.11801996
35	0x3bfeee50	0.007779874
36	0x3e31c347	0.17359649
37	0xbe61bbbc	-0.22044271
38	0xbd9c1b4c	-0.07622394
39	0xbdcb2ac6	-0.09920268
40	0x3d693690	0.0569368
41	0x3d1b4680	0.03790903
42	0xbe8333ba	-0.25625402
43	0xbd3114f2	-0.043232866
44	0xbd8eac9d	-0.06966517
45	0xbd5158fb	-0.05111025
46	0x3d0e207a	0.03469894
47	0x3b051ed0	0.0020312555
48	0xbd1033d3	-0.035205673
49	0xbe206055	-0.15661748
50	0xbdea7898	-0.11448783
51	0xbdd253a7	-0.10269862
52	0xbd3e8939	-0.046517584
53	0xbdf3c992	-0.11903681
54	0xbe1c8bf7	-0.15287767
55	0x3d969518	0.07352656
56	0x3d2a536a	0.041583456
57	0x3e132444	0.14369303
58	0xbde8b94d	-0.11363468
59	0xbde1085e	-0.10987924
60	0xbe1e6426	-0.15467891
61	0xbd854edd	-0.065091826
62	0x3d337d8b	0.0438209
63	0x3db42d4b	0.087977014
64	0xbde437ba	-0.111434415
65	0x3de6e066	0.11273269
66	0xbdee1de2	-0.116267934
67	0xbd64f1fc	-0.055894837
68	0x3d54e1ae	0.051973037
69	0xbe77d1c2	-0.2420111
70	0xbd50d057	-0.05097994
71	0xbd6714c6	-0.056416295
72	0xbdd4af73	-0.10385027
73	0xba0a7fd0	-0.0005283328
74	0xbe11416d	-0.14185114
75	0x3d1b20a3	0.03787292
76	0xbc90c87e	-0.017673727
77	0xbe3d22a5	-0.18470247
78	0xbd32df30	-0.04366988
79	0xbe208f3e	-0.15679643
80	0x3d72fd26	0.059323452
81	0x3d0acade	0.033884875
82	0x3d2a2a54	0.041544273
83	0x3e607f38	0.2192353
84	0xbd7656d4	-0.0601414
85	0xbd943d62	-0.0723827
86	0xbdc7d959	-0.09758253
87	0xbb76efc7	-0.003767954
88	0x3d6e93f7	0.05824658
89	0xbdfc7264	-0.12326506
90	0xbe2637b8	-0.16232193
91	0xbd471c59	-0.04861102
92	0xbe0b4597	-0.13600765
93	0xbb732156	-0.0037098727
94	0xbd9e37f6	-0.077255175
95	0x3d6a8457	0.057255115
96	0x3e3a7c82	0.18211558
97	0xbe106995	-0.14102776
98	0xbd1e0662	-0.038580306
99	0xbdeb0c4c	-0.11476955
100	0xbdf2bdc9	-0.11852605
101	0xbdeed55d	-0.116617896
102	0xbe38ac81	-0.18034555
103	0x3ccb9823	0.024852818
104	0xbe102be7	-0.14079247
105	0xbe1d53f5	-0.15364058
106	0xbda5904a	-0.080841616
107	0xbe1de72a	-0.15420213
108	0xbd8b59dc	-0.06804249
109	0x3d8dc28e	0.06921874
110	0xbe5adbf6	-0.21372971
111	0xbdd8e7f6	-0.10591118
112	0xbaa3bfd6	-0.0012493085
113	0xbdcd0c1c	-0.10012075
114	0xbe9aa1b3	-0.30201492
115	0xbd6deb18	-0.05808553
116	0x3cdf793c	0.027279489
117	0xbd41ad00	-0.047284126
118	0x3dcc4c83	0.09975531
119	0x3b85d752	0.004084506
120	0x3e3ae76f	0.18252347
121	0xbca0ae10	-0.01961425
122	0xbe5c8cf0	-0.21538138
123	0xbd02215e	-0.031770103
124	0xbe0499ae	-0.12949249
125	0xbe7bef8b	-0.24603097
126	0xbd1641c4	-0.036683813
127	0xbdc8729f	-0.09787487
128	0xbe994710	-0.2993703
129	0xbeab85c2	-0.33500487
130	0x3f02ad8a	0.5104605
131	0xbdbddc3c	-0.09270522
132	0x3defa66e	0.11701666
133	0x3ecf1bda	0.40450937
134	0x3b6a0e73	0.0035714179
135	0x3d3b031d	0.045657266
136	0xbe09408d	-0.1340353
137	0x3e04dadb	0.12974112
138	0x3cf9439d	0.030427748
139	0xbebd8ed0	-0.3702302
140	0xbcf9e32a	-0.030503828
141	0x3e2d5bb1	0.16929509
142	0xbe7e76c6	-0.24849996
143	0xbe52ec05	-0.20597847
144	0x3edc4ad9	0.43025854
145	0xbeddaff8	-0.43298316
146	0xbe2ddb2e	-0.16978142
147	0xbef4feb8	-0.47850585
148	0x3ea19a8e	0.31563228
149	0xbe49b49a	-0.196978
150	0xbe417900	-0.18893814
151	0xbe8b3c7e	-0.2719459
152	0xbd692748	-0.056922227
153	0x3e26b89b	0.16281359
154	0xbbf05bfb	-0.0073351837
155	0xbdf61e70	-0.12017524
156	0xbeb242d4	-0.3481661
157	0xbe9cbb7b	-0.30611786
158	0xbee3e961	-0.4451399
159	0xbe047467	-0.12935029
160	0xbe3ba9cf	-0.18326496
161	0xbe86b87f	-0.26312634
162	0xbdff34dc	-0.12461254
163	0xbe834d8e	-0.25645107
164	0xbd5560de	-0.052094333
165	0x3ed9d414	0.42544615
166	0xbe20147d	-0.15632816
167	0x3d81ad4e	0.06331883
168	0xbe2fe70a	-0.17177978
169	0xbf21e201	-0.6323548
170	0xbe0e2557	-0.13881432
171	0xbe2577cf	-0.16158985
172	0xbec5ec7a	-0.3865698
173	0x3ce4627a	0.027878989
174	0x3e13b7f7	0.14425646
175	0xbe623e0c	-0.22093982
176	0xbf05dc33	-0.5228912
177	0xbec4e767	-0.38457796
178	0xbdc2032d	-0.09473262
179	0xbe0901c4	-0.1337958
180	0xbe4480c7	-0.1918975
181	0xbe70c347	-0.23511992
182	0x3e53a977	0.20670114
183	0xbefc13fa	-0.4923399
184	0xbecbd967	-0.39814302
185	0xbbfafa38	-0.007659223
186	0xbcdc3448	-0.026880398
187	0xbd8a6938	-0.0675835
188	0xbe50a6d5	-0.20376141
189	0x3e939af5	0.2882916
190	0xbe7c0282	-0.24610332
191	0xbcf45384	-0.02982498
192	0xbe606522	-0.21913579
193	0xbd6b9878	-0.057518452
194	0x3e344e32	0.17607954
195	0x3e2ce17f	0.16882895
196	0x3c12c4a9	0.00895802
197	0x3b450f2d	0.003006886
198	0x3e164095	0.14673074
199	0x3c9de44b	0.019273898
200	0x3e1567e2	0.1459041
201	0x3e4a22f5	0.19739898
202	0xbe07a93e	-0.13248155
203	0xbdf284e3	-0.118417524
204	0xbe79a193	-0.24378042
205	0x3ec44804	0.38336194
206	0x3e5c3f0b	0.21508424
207	0xbe4498bc	-0.19198889
208	0xbe3a0fcb	-0.18170087
209	0xbe4cfa67	-0.20017396
210	0xbeededb7	-0.46470425
211	0xbece5b8f	-0.4030423
212	0x3caa42ec	0.020783864
213	0xbedc1bad	-0.42989865
214	0x3f001114	0.5002606
215	0xbd9cac96	-0.07650106
216	0x3e17c078	0.14819515
217	0xbea5d5fe	-0.32389826
218	0x3ddf9f58	0.10919064
219	0x3dc430e9	0.09579641
220	0x3e7e0b5f	0.24809025
221	0xbe0918df	-0.13388394
222	0x3e3ab3d7	0.18232666
223	0xbeac4e9e	-0.3365373
224	0xbe778d49	-0.2417499
225	0x3e480c7b	0.19536011
226	0x3ea3f596	0.32023305
227	0x3e14948d	0.14509793
228	0xbeaf179c	-0.341977
229	0x3eeb48c1	0.45953944
230	0xbe463436	-0.19355854
231	0x3e4e8098	0.20166242
232	0xbea52b95	-0.32259813
233	0x3ea2dfca	0.31811363
234	0xbe85ac84	-0.2610818
235	0x3e4fda4e	0.2029812
236	0xbec4b544	-0.38419545
237	0x3d03dc4e	0.03219252
238	0xbc7a8f47	-0.015292949
239	0xbe3c50ad	-0.1839015
240	0xbd90c6a0	-0.07069135
241	0xbe2c43bf	-0.16822718
242	0x3e27d0cc	0.16388243
243	0xbecd77ce	-0.40130466
244	0xbf004191	-0.50100046
245	0x3c997d0a	0.018736381
246	0xbe901499	-0.28140715
247	0xbdce9609	-0.10087211
248	0xbe3c53f1	-0.18391396
249	0xbe367f11	-0.1782191
250	0xbe62c5ad	-0.2214572
251	0xbe72d4de	-0.23714015
252	0xbe9e45f1	-0.30912736
253	0xbe1d212f	-0.1534469
254	0xbd89d1d7	-0.06729477
255	0xbe12d9eb	-0.14340942

network_body.observation_encoder.processors.0.normalizer.running_mean f4 [20]
0	0x40719d51	3.7752268
1	0xbdfdc977	-0.12391942
2	0xc0719d51	-3.7752268
3	0xbde4cd72	-0.11171998
4	0x3b5e29bb	0.0033899385
5	0xbb6c279a	-0.0036034347
6	0x3d212efc	0.03935145
7	0xc016333f	-2.3468778
8	0x3d079920	0.033105016
9	0x3ba85ec2	0.005138249
10	0x39b13f93	0.00033807437
11	0xbbbf2bee	-0.0058340942
12	0x3ba8f599	0.0051562306
13	0x3f7d1b1b	0.98869485
14	0x3bb02594	0.0053755734
15	0x3f7c222e	0.98489654
16	0x00000000	0.0
17	0x00000000	0.0
18	0x00000000	0.0
19	0x3f021043	0.50806063
