Assets/NNModels/PlanePilotAgent.onnx (onnx, 85473 bytes, 13 tensors)

77 f4 [20]
000000 b2 e3 11 41 81 66 5e 40 b8 e3 11 41 9f 4d 57 40
       9.11809 3.4750063 9.118095 3.3641126
000010 16 b8 e0 3d b8 86 3c 3e 86 43 e5 3f fe cf 9e 40
       0.109726116 0.18410766 1.7911232 4.9628897
000020 e9 03 c4 3f 6d 78 2c 3e 84 5d 84 3d d7 ce 75 3e
       1.5313693 0.16842814 0.06463149 0.24004684
000030 f1 ac 56 3e d0 b4 b1 3e 4b e2 0f 3e 43 39 f9 3c
       0.2096441 0.3470826 0.14051168 0.030422812
000040 b3 ee 85 39 b3 ee 85 39 b3 ee 85 39 0f d8 ed 3e
       0.00025545582 0.00025545582 0.00025545582 0.46453902

action_model._discrete_distribution.branches.0.bias f4 [3]
000000 50 c0 1f be be 80 3f 3e be 66 3d bd
       -0.15600705 0.18701455 -0.04624056

action_model._discrete_distribution.branches.0.weight f4 [3, 128]
000000 43 34 94 3d 6d 49 dc 3d fa 3c aa bc f9 69 47 bd
       0.07236531 0.10756192 -0.020781029 -0.048685048
000010 6d dd 58 3d 78 2e 0b bd c8 da fc 3d 35 4e 04 3e
       0.052945543 -0.033979863 0.12346417 0.12920459
000020 ce 71 57 3d c6 e0 34 3e d7 d8 b3 3b 23 f0 89 be
       0.052598767 0.1766387 0.005488496 -0.26941022
000030 fe 50 bb 3c d2 ec 24 3e 67 f2 66 3d e3 5f c6 3d
       0.022865769 0.16105965 0.056383517 0.09686258
000040 e7 f4 2b 3e 40 12 83 3d f5 76 22 3d 45 10 86 3d
       0.16792642 0.06399965 0.039664228 0.06546072
000050 9f 8a 61 bd b8 5e de bd e6 c0 36 3e c3 47 c6 3c
       -0.05506384 -0.1085791 0.17847022 0.02420414
000060 c0 e2 55 3e 9b b1 3a 3e ba c5 fa 3d b9 39 17 3e
       0.2088728 0.18231814 0.122447446 0.14768113
000070 da c5 39 3c f3 86 c0 bd ab d3 06 bf e8 14 ad 3d
       0.011338675 -0.094007395 -0.5266673 0.08451253
000080 57 a6 85 3c f0 3b 46 3b 1a d2 b8 3d 99 76 a8 bd
       0.016314669 0.0030248128 0.09024449 -0.08225746
000090 ad af 09 3e d2 d2 8c 3d 26 54 ad 3b ad 46 58 3e
       0.13445921 0.06876148 0.0052895723 0.2112071
0000a0 3b b2 ca bd 37 1e 60 3b 3e 52 3f bd 33 ae 37 3e
       -0.09897276 0.0034197697 -0.04670929 0.17937545
0000b0 4f e9 a0 bd 72 28 ac bd 11 45 28 3e 95 91 a8 3d
       -0.07857 -0.08406152 0.16432597 0.082308926
0000c0 b4 59 a6 3d 50 03 80 be 3a fa 40 bd 9a d2 72 bd
       0.08122578 -0.25002527 -0.047113635 -0.059282877
0000d0 6a 67 50 3d 4c 65 38 be 76 d0 11 3d 14 dd 8b 3d
       0.050879873 -0.18007392 0.035599194 0.06829277
0000e0 cc dc 0d 3e f1 96 3a 3e 10 e2 3a 3e c8 1d 08 3e
       0.13853759 0.18221642 0.18250299 0.1329261
0000f0 ff 18 a6 3d b5 17 13 3e 9e 64 70 3e af b6 25 3d
       0.081102364 0.14364512 0.23475882 0.040457424
000100 5c bc b7 3d cb 09 83 3d 07 07 22 bb 16 d1 89 3d
       0.089714736 0.06398352 -0.0024723427 0.06729333
000110 d1 ee 39 bd ef 38 0a bd be 00 36 3e 47 98 0b be
       -0.04539377 -0.033745702 0.1777372 -0.13632308
000120 5e 3d 93 bb 61 d3 5c 3c df c1 9b bd 5a 64 90 bd
       -0.0044933995 0.013478131 -0.07605337 -0.070503905
000130 4a e4 a4 3d 5b ea 23 3c 91 ab b5 bd 29 bc 1a be
       0.08051355 0.010004605 -0.08870614 -0.1511084
000140 2f be a4 bd c9 d7 a8 bd 8e 09 10 3e d3 ed b2 3d
       -0.08044087 -0.08244283 0.14066145 0.087367676
000150 55 fc 62 bc 40 2b e7 3d 67 50 36 bc 2b c2 2b 3e
       -0.013854106 0.11287546 -0.011127568 0.16773288
000160 fd 97 89 3d 7b 7c 2b 3e 72 35 ae 3e 22 35 8f 3e
       0.067184426 0.16746704 0.3402515 0.27970225
000170 71 43 0a bd c3 2c 87 bc 03 da c6 3e 1f 1b 55 bc
       -0.033755723 -0.016500836 0.38838205 -0.013006954
000180 21 65 ba 3d 36 14 1d 3d 56 7c 2c 3c 04 80 96 be
       0.0910132 0.038349353 0.010527691 -0.29394543
000190 ab f4 16 3e e6 fc 09 3e fd e2 c5 bc 14 8d 03 be
       0.14741771 0.1347538 -0.024156088 -0.12846786
0001a0 af 6a 04 3d b4 6b ed bd f0 eb 8a 3d bb a6 04 3d
       0.032328304 -0.11592808 0.06783283 0.03238557
0001b0 29 35 07 3b d1 c5 06 be 4b 50 05 be 6c 24 f8 bd
       0.002063105 -0.13161398 -0.1301891 -0.12116322
0001c0 97 a9 de be ae 27 a5 3c 99 2f bc 3d 3a 38 b9 3d
       -0.43488762 0.020160522 0.09188766 0.090439275
0001d0 16 35 c9 bd 4f a6 88 bd 54 f7 a3 bd 3f 35 cf bd
       -0.098245785 -0.06672346 -0.080061585 -0.10117578
0001e0 e1 08 fb bd ad 85 22 3e 9c 31 4d 3e 0f 57 85 3e
       -0.12257553 0.15871306 0.20038456 0.26042983
0001f0 7b 82 aa 3d ab 11 c0 3d 28 78 a1 3e b8 fd d8 3c
       0.083256684 0.0937837 0.31536984 0.02648817
000200 dc 29 3e 3e 02 93 78 3e f1 16 b4 be eb cd 13 3f
       0.18570656 0.24274829 -0.35173753 0.5773608
000210 bd 83 c8 3d 7d 21 e4 3e 3e c9 7a 3e 43 52 1d be
       0.09790752 0.445568 0.2449083 -0.15363412
000220 1e 59 0d 3e 0d 48 20 be 81 e7 17 be 04 04 8e 3e
       0.13803527 -0.15652485 -0.14834405 0.2773744
000230 b7 1e c2 3d 5f 54 a3 be 1b e5 2c bd 6b ff 43 be
       0.09478515 -0.31900308 -0.04221068 -0.19140403
000240 62 b0 9e 3d 3f c4 f3 3c 09 6b 82 3d 6c 3b d3 bd
       0.07748486 0.029756663 0.063680716 -0.10314068
000250 2a 39 9e 3e 32 37 8e 3e 50 80 38 3e 95 7f 87 3e
       0.30902988 0.27776486 0.18017697 0.26464525
000260 76 35 1c 3e 96 03 02 3e 29 be 80 be 1e 7c 2c bc
       0.15254769 0.1269668 -0.2514508 -0.010527639
000270 f1 03 90 3d df a6 40 3e f5 09 b6 bd 19 a9 66 3d
       0.07032002 0.18813656 -0.08888618 0.056313608
000280 06 a5 74 3e cc 71 c7 3d 52 a2 85 be c5 f8 1c be
       0.23891076 0.09738502 -0.26100403 -0.15329273
000290 b8 b8 41 3e 6f 08 1a 3e cb ee 1c 3e b9 42 5c 3d
       0.18918121 0.1504228 0.15325467 0.05377457
0002a0 8a 56 b0 3c 8f d2 bb 3d 88 28 2e 3e f3 61 b7 ba
       0.02152564 0.0917102 0.17007649 -0.0013990983
0002b0 13 4e 04 3e d5 aa 9e 3d 0f 47 fa be e1 4c aa 3c
       0.12920408 0.077474274 -0.48882338 0.020788612
0002c0 10 3d 5a 3e b6 6f 48 3e 3f b8 58 3e b4 af d3 3e
       0.21312356 0.19573864 0.21164034 0.41344988
0002d0 d1 f9 d6 3d fe 30 92 3e 59 97 b8 be 49 56 c4 3d
       0.104968674 0.28553003 -0.3605297 0.0958677
0002e0 1a 72 03 3e 01 6e d8 3d 44 db 56 3e 3e 55 e0 bd
       0.12836495 0.105678566 0.2098208 -0.10953759
0002f0 b3 1c 7d be da bc 49 3e ad 23 b8 bd cc a9 43 bc
       -0.24717979 0.19700947 -0.089911796 -0.011942338
000300 68 60 80 be 20 61 bf 3d 96 76 62 be b7 f5 10 3e
       -0.25073552 0.09344697 -0.2211555 0.14156233
000310 eb e6 a1 3e 4e 04 71 3e 4a 7b 6c 3e 36 b4 49 3e
       0.3162149 0.23536798 0.23093906 0.19697651
000320 88 ec 80 bd 8c 2c 36 3e a9 65 83 3e 0e 51 7b 3e
       -0.06295115 0.17790431 0.25663498 0.24542639
000330 2c 32 d2 3e b3 44 13 3e 87 bc 12 3c 92 37 2b 3e
       0.41053903 0.14381675 0.008956081 0.16720417
000340 85 ab 21 be cd 9e d2 3d 57 2c 2f be 57 a5 40 be
       -0.15788086 0.10284195 -0.17106758 -0.18813072
000350 12 5e 87 3d ee 8f 07 3e 21 a9 09 be 2d 6e 3d 3e
       0.06609739 0.13238499 -0.13443424 0.1849906
000360 fb 7b 2b be 8a 78 05 be d0 bd ec bc ac 13 21 3b
       -0.16746514 -0.13034263 -0.028899103 0.0024578376
000370 f4 95 2e 3d 10 0e 15 be 2a 3e 36 3e 91 73 7b 3e
       0.042623475 -0.14556146 0.17797151 0.24555804
000380 28 bf 96 3e ce 12 32 bd f5 f2 06 3c e0 e6 1c 3c
       0.29442716 -0.043474965 0.008236636 0.009576529
000390 43 96 ee bd 48 a7 2b 3c cb a2 c0 bd 3b 0f 5c 3e
       -0.11649754 0.010476895 -0.0940605 0.21490185
0003a0 2e 39 70 3e b2 50 6b 3e fa 16 0c bd 52 4d 9d bd
       0.23459312 0.22980002 -0.0342016 -0.07680763
0003b0 13 d7 8f be d4 af 82 bd 4b d1 dd 3e ed 45 05 3d
       -0.28093776 -0.06381193 0.4332374 0.03253739
0003c0 fe 61 af 3e 69 9c 59 be 7c 67 37 3e 2e 21 05 bc
       0.3425445 -0.21251072 0.1791057 -0.008125586
0003d0 7c 0c 93 3d c6 86 f1 bd 00 4d 40 3e 44 64 21 be
       0.071801156 -0.11793284 0.18779373 -0.15760905
0003e0 20 79 46 3e b4 ed 81 3d 8a 80 91 3e b1 b8 2c 3e
       0.19382143 0.063441664 0.2841838 0.16867329
0003f0 1e 70 fe bd d8 a1 3f 3d 7a 11 46 3d 36 d9 97 be
       -0.124237284 0.046785206 0.04835651 -0.29657906

action_model._discrete_distribution.branches.1.bias f4 [3]
000000 f5 0a ae bd d9 32 ef 3d 29 5b 7c 3c
       -0.08498184 0.1167962 0.015402594

action_model._discrete_distribution.branches.1.weight f4 [3, 128]
000000 c3 b1 ed bd e1 5a ab 3c d8 03 fb 3d 08 2f aa 3d
       -0.11606171 0.020917358 0.122565925 0.08309752
000010 4e f4 5e 3e 7c 72 7c bd f5 0f 17 3d 48 3a e5 be
       0.21772882 -0.06163262 0.036880452 -0.44771028
000020 fc ff e5 ba ef 21 2a 3e b5 b3 30 3e 0f b8 a4 bd
       -0.0017547603 0.16614507 0.17256053 -0.08042919
000030 72 8e 98 bc aa 00 3a be 6b 7c 85 3d 5c 55 94 bd
       -0.01862261 -0.18164316 0.065178715 -0.072428435
000040 c7 46 07 3e 11 76 65 bc b4 97 5c 3d f0 eb 9a 3c
       0.13210593 -0.0140052 0.053855613 0.018911332
000050 e3 75 d6 3c 46 38 14 3e cf db d6 3d 11 e4 a1 3b
       0.02617926 0.14474592 0.10491144 0.0049405177
000060 a6 e2 a1 3e e7 b5 f2 3d 1c 70 39 3e 1c 09 80 3e
       0.31618232 0.11851101 0.18109173 0.2500695
000070 21 60 3f 3e ec 50 0b 3d d3 2b 01 be 16 5d 9d 3e
       0.18689014 0.03401272 -0.12614374 0.3073508
000080 75 0e 42 be 8a d1 04 3b f6 ab 85 bd 46 cc bb 3d
       -0.18950827 0.0020266497 -0.065269396 0.091698214
000090 10 83 9a 3d a1 bb ed bd 98 ae 4a 3d 52 f7 ab 3e
       0.075445294 -0.11608053 0.04948291 0.33587128
0000a0 6e 41 8c 3e f1 06 7c 3d c0 8e 42 3e 25 ef 2c bd
       0.2739367 0.061530057 0.18999767 -0.042220253
0000b0 ab b4 90 bd 6c e5 bb bd 5a 50 13 3e 33 2f 6c 3d
       -0.0706571 -0.09174618 0.1438612 0.0576622
0000c0 19 b3 ec 3c fd 49 3d 3d c8 3f 99 3d 2c 28 29 3d
       0.028893994 0.04621314 0.074828684 0.041298077
0000d0 2a 47 27 3c 98 20 36 3b b2 6b 63 3d 11 53 b2 3d
       0.010209838 0.0027790423 0.055522628 0.0870725
0000e0 82 40 88 3e f9 6f a5 3d a7 6e da 3d ed 31 0f 3e
       0.26611716 0.08077998 0.106656365 0.13983889
0000f0 7e b8 ce bc cc e6 46 3d af bd 45 3e 82 f6 2a 3d
       -0.025234457 0.04855995 0.1931064 0.041738994
000100 7b 83 71 bb 37 cb 2e 3c d4 26 08 be 25 d5 f9 3d
       -0.003685205 0.010668567 -0.13296062 0.12198857
000110 68 48 a8 3d ce c0 5d 3d fc 2a 83 3d 4e a9 cd 3d
       0.082169354 0.05413895 0.06404683 0.10042058
000120 41 2c 43 bd c0 3c 1d 3e d7 7f 0e be 30 b7 c1 3a
       -0.047649626 0.15355206 -0.13915955 0.0014779326
000130 f9 0f 6c 3e da 99 f6 3c aa c5 87 3d 2a 12 38 3d
       0.23052968 0.030102659 0.06629498 0.044939198
000140 b5 af 74 3d b1 cf 2a bc eb b1 ed 3b 32 10 2a 3e
       0.05973788 -0.010425494 0.0072538755 0.1660774
000150 51 b3 81 3d 33 3f 97 3d eb 9c 16 bc 9e 1e 26 3e
       0.0633303 0.07385101 -0.009192686 0.16222617
000160 bd dc a3 3c de 37 3c 3d 06 68 4e be fa 48 35 3b
       0.020002717 0.045951717 -0.2015687 0.0027661906
000170 b8 60 d9 3d d1 c1 b1 3c 06 e3 74 be 4f ad a7 bd
       0.10614151 0.021698864 -0.23914728 -0.08187353
000180 6d 15 89 3e 7d e4 81 3d 22 95 92 3d 6a 86 bc 3d
       0.2677416 0.06342409 0.07157351 0.09205325
000190 7e fe 09 3e d3 6f 87 3e ef 1a a1 3d d0 56 1f be
       0.13475987 0.26452503 0.07866465 -0.1556046
0001a0 fc ef 64 3e f5 be de 3d e9 75 e7 bd 07 a7 11 bd
       0.22357172 0.10876266 -0.113017865 -0.03555968
0001b0 c5 5e 59 3d 18 8f 7a be f3 17 29 3e 4a ff 1d 3d
       0.053068895 -0.24468648 0.16513042 0.03857354
0001c0 39 a3 cc 3c ec a5 04 3d 54 86 2b 3c dd 7b e9 3d
       0.024980174 0.032384798 0.010469038 0.11400578
0001d0 52 ec 00 be 14 c1 0d 3e 8e 92 46 3c 69 43 8f bc
       -0.12590149 0.13843185 0.012119902 -0.017488198
0001e0 c1 1d 89 be 80 a5 1c 3e 58 d7 0f 3d c5 bf 46 3d
       -0.26780513 0.15297508 0.035117477 0.04852273
0001f0 2e ec 23 3d ed dc 4f 3d b9 9d a8 3e 91 16 8d 3e
       0.04002016 0.0507478 0.32932833 0.2755628
000200 8c 74 bb bd cb 3c 14 3b ea 9c 45 be 54 71 69 3e
       -0.09153089 0.0022619243 -0.19298139 0.22797137
000210 05 dc ed be 82 71 82 bc d1 35 44 3d ba c5 ed 3e
       -0.46456924 -0.015923265 0.047902886 0.46439916
000220 c7 d9 0f be d5 81 a9 be 22 5b 6f be f3 95 fc bc
       -0.14047919 -0.33106866 -0.23374608 -0.03083322
000230 8a 16 67 bc 73 7d 95 3e 8c 9a 79 bd 9b 1c f0 3d
       -0.014104495 0.29197273 -0.060938403 0.11724206
000240 bf 9e b0 3d b9 90 79 3d 41 08 07 bf 35 fc 91 3e
       0.086240284 0.060929034 -0.5274697 0.2851273
000250 11 55 4f 3d f7 ca 33 bd f1 c1 e6 3d b6 ed 9a bd
       0.050618235 -0.043894734 0.1126746 -0.07564871
000260 66 58 a6 3e 85 b9 c4 bc a8 4f 1b 3e 5e 1a cf 3e
       0.32489318 -0.024014244 0.15167105 0.40449804
000270 35 ac 2a 3d 0a 8a da 3c 29 be b9 3e 3b 41 e3 be
       0.041668136 0.02667715 0.36277893 -0.44385704
000280 32 7c 8e 3e 89 49 aa bd fa 45 23 3e f4 e8 74 be
       0.27829129 -0.08314807 0.15944663 -0.2391699
000290 a6 c6 86 bc 71 7d a1 3e 25 d0 cd 3d 9a fd cc 3e
       -0.016452145 0.31541017 0.10049466 0.40037233
0002a0 ed f4 04 be d8 86 fb 3b ad 25 8f be fd a1 be 3e
       -0.12984057 0.0076759867 -0.27958432 0.37232962
0002b0 81 41 4d be d5 cf a3 3e 3a fd d9 b9 76 a8 10 bd
       -0.20044519 0.319945 -0.00041578134 -0.035316907
0002c0 64 00 ab 3e 61 76 15 be 00 2e 0c bd fb f2 41 be
       0.33398736 -0.14595939 -0.034223557 -0.18940346
0002d0 b8 20 3c be 85 3e 95 bc 6a ac 56 3e dd 71 49 be
       -0.18371856 -0.018218288 0.20964208 -0.19672342
0002e0 ad c4 48 be 74 41 d3 ba b4 77 ec 3d a6 a4 a2 bd
       -0.19606276 -0.0016117529 0.11546269 -0.079415604
0002f0 ad cf ab 3e f5 6c b2 3c 4c f1 c1 bc 52 2d ac 3e
       0.33556882 0.02178047 -0.02367463 0.33628327
000300 aa 7a 40 3e 0c 47 36 3c 8d 1c a7 3d 88 5b b9 3d
       0.18796793 0.011125337 0.081597425 0.09050661
000310 14 dd 75 be 7c be 45 3d ba 71 2d bd a1 2c 9a 3c
       -0.24010116 0.048277363 -0.042344786 0.018820109
000320 b8 2c b4 be cd 00 fd bd 30 8b 35 be 98 60 91 3d
       -0.35190368 -0.12353668 -0.17728877 0.07098502
000330 4e 9e e2 3e 99 1e 93 be 6d be ca bb c8 13 61 be
       0.44261402 -0.28734282 -0.0061872513 -0.21980202
000340 c2 60 e1 bd 1a 55 db bd 86 0f 24 3d 18 1b a0 3e
       -0.11004783 -0.10709591 0.040053867 0.3127067
000350 60 32 1b bd 4d 5b 99 3d af 92 1b be a7 be 2b 3e
       -0.03788984 0.07488117 -0.15192674 0.16771947
000360 30 f4 a4 3d f5 6e 0f 3e 9a 3d 92 3d ca 31 09 3e
       0.080543876 0.1400717 0.07140656 0.133979
000370 f0 41 13 3e 54 32 ab 3d bb f6 83 3e c1 04 bb 3e
       0.14380622 0.08359209 0.25774178 0.36527064
000380 94 5d 9e 3e 99 53 0c bc 73 67 17 be 1a e0 29 3e
       0.3093077 -0.008564853 -0.14785556 0.16589394
000390 5a e4 a9 3e 4a 3f 4d be 93 41 7e 3e 1f f4 9a 3e
       0.3318203 -0.20043674 0.24829702 0.30264375
0003a0 97 39 bd 3e 7c ea 4e be 4b 5b 3a be da d1 8a bd
       0.36958 -0.20206636 -0.18198888 -0.06778307
0003b0 e0 3a ea 3d 2a 5f 06 be 9e 79 c1 3d c8 69 72 be
       0.11437011 -0.1312224 0.09447025 -0.23673165
0003c0 60 3b 36 be 78 27 8b 3d 15 be 3b 3e c0 f1 7a be
       -0.17796087 0.067946374 0.1833423 -0.24506283
0003d0 56 a8 dd bd 8a 81 97 3e b1 ad 5a 3d 02 3a f7 3d
       -0.10823123 0.29591018 0.0533883 0.12071611
0003e0 ef 88 b1 3e 25 b8 a9 3d 2d ff 6e bd 2c 70 6f 3e
       0.34674785 0.08287076 -0.058348823 0.23382634
0003f0 59 6c 01 3e ce 2f 26 bc a2 f1 49 be 5a 14 a6 3e
       0.12638988 -0.010143233 -0.19721082 0.32437402

action_model._discrete_distribution.branches.2.bias f4 [3]
000000 29 84 24 be 50 e7 3b 3e bf 23 0d 3d
       -0.1606604 0.18349957 0.03445792

action_model._discrete_distribution.branches.2.weight f4 [3, 128]
000000 e0 59 6a 3e e3 f6 9c 3d 7b e4 09 3c f1 cf 04 bf
       0.22885847 0.076642774 0.00841629 -0.51879793
000010 53 5a 48 3e 65 47 98 be 95 6d 2a bd 42 4d b0 3d
       0.19565706 -0.2974197 -0.04160841 0.08608486
000020 34 90 96 bd c8 07 1d 3e 97 5c 26 bb da d4 06 bd
       -0.07351723 0.15335 -0.0025384778 -0.032917835
000030 91 25 a2 3d cb b3 c8 bd dd 8a 89 3e 3a 46 95 3d
       0.079173215 -0.09799918 0.26863757 0.07288785
000040 2f 77 8c 3e 3e 6b c4 be 82 c2 cb 3d 5a a3 68 3e
       0.2743468 -0.3836307 0.09949209 0.22718564
000050 ce d5 bc be b5 6f ca 39 f9 f6 30 3e 9f c9 87 bd
       -0.3688187 0.0003861167 0.17281713 -0.06630253
000060 fe 86 18 3e b6 37 91 bc 15 0b 52 3e 34 ca dd 3e
       0.14895245 -0.01772676 0.2051204 0.4331833
000070 33 6d ba 3c 80 a9 81 3e 39 30 86 be ec a6 d4 3d
       0.022757148 0.2532463 -0.26208666 0.103834
000080 5e 20 07 bf 39 62 ec bc 25 3a d7 3d 7c 06 11 3e
       -0.52783763 -0.02885543 0.10509137 0.1416263
000090 6a d5 3f 3e d5 ad a2 bc fe 7b 2c 3e e2 57 20 3e
       0.18733755 -0.01985828 0.16844174 0.15658525
0000a0 77 6b 07 bc b9 8b e9 bd dd c9 14 3d 5d 33 3f 3d
       -0.008265368 -0.11403603 0.036325324 0.046679843
0000b0 11 be f2 bb 23 89 2c be e6 1a 6d bd ac 3a 5e 3d
       -0.0074079116 -0.16849189 -0.05788698 0.054255173
0000c0 e8 28 a4 bd 3f 7c 0c bc 65 9c bf 3d 04 b1 02 be
       -0.08015615 -0.008574544 0.09356002 -0.12762839
0000d0 5b d2 eb 3d e6 b7 2f 3e 60 00 f8 bd 63 be 8e 3e
       0.115147315 0.17159995 -0.121094465 0.2787963
0000e0 61 10 78 be 4b e4 13 3e d4 d1 94 3c 00 fe bb 3e
       -0.24224998 0.14442556 0.01816646 0.36717224
0000f0 d0 da cb 3c ed c1 bc 3d 02 13 19 3e 82 6c 10 be
       0.024884611 0.09216676 0.14948657 -0.14103892
000100 49 77 a5 3e cc f0 1c 3e 3b 23 4f 3e 1b d7 4e 3e
       0.3231757 0.15326232 0.20228283 0.20199244
000110 33 cc 03 be cc 71 82 3e 2d 9a 9d 3d 83 a9 40 3e
       -0.12870865 0.25477445 0.07695422 0.18814664
000120 a4 4d ef 3d 78 80 83 bb 10 ba 9d 3d 65 20 a7 3c
       0.11684731 -0.0040131174 0.07701504 0.02040119
000130 56 0b f7 bd a6 41 59 3e 69 e0 69 3e bd 13 d6 bd
       -0.12062709 0.21216449 0.22839512 -0.104529835
000140 3b 7f a9 3d 8d e0 a2 3d bb 00 2f bb 22 98 bc 3e
       0.082762204 0.07952986 -0.0026703316 0.36834818
000150 80 57 bf bc 21 63 e6 bd c5 b3 bd 3d 54 67 93 3d
       -0.023357153 -0.11249376 0.09262804 0.07197443
000160 07 7a b3 3e 7c b2 38 3d 81 12 6e 3d 64 e9 e6 3d
       0.35054037 0.04509209 0.058123115 0.112749845
000170 d5 2d 25 bd 37 dd 6d bd b5 cc 95 3c 85 55 c5 bd
       -0.040326912 -0.058072295 0.018286088 -0.09635452
000180 55 65 7d 3e 9e d2 a4 bd ab 2a 1b bd f4 57 b2 bd
       0.24745686 -0.080479845 -0.03788249 -0.08708182
000190 a1 50 7d bd 11 0e a2 bb a7 29 1c 3e 40 4f 81 be
       -0.06184447 -0.0049455245 0.15250264 -0.25255775
0001a0 71 98 0e 3e 12 71 85 3e 98 81 a1 3d dd c7 0d be
       0.1392534 0.26062828 0.07886046 -0.13845773
0001b0 20 ee 74 3d e4 aa 00 3e 9f d6 a1 bd a3 be 47 3c
       0.059797406 0.1256519 -0.07902264 0.012191447
0001c0 3c 39 0a be 3b ff 29 be e0 f9 3d 3d e8 50 9b bd
       -0.13498396 -0.16601269 0.046380877 -0.07583791
0001d0 f8 a4 2e be 2a 10 7c be 15 bd 42 3e b1 c9 5b 3c
       -0.17055118 -0.24615541 0.19017442 0.013414786
0001e0 df a6 9b bd c0 f5 11 3c f7 7c 46 3e 2b 46 86 bc
       -0.076001875 0.008908689 0.19383608 -0.01639088
0001f0 27 f6 58 bc 00 97 3e 3d da 8f c5 3d 00 e8 09 3e
       -0.013242281 0.046530724 0.09646578 0.13467407
000200 ce d8 49 be fb 2c 63 3c 72 3e 9f bd 53 49 f1 3e
       -0.1971161 0.013865705 -0.077755824 0.47126254
000210 c8 1a 44 bd ed b2 8f 3e 76 3a fc 3d e2 0c 60 3e
       -0.047877103 0.28066197 0.12315838 0.21879914
000220 de a9 17 3e fe 48 5b bc 5d 19 26 bb 72 d4 04 3d
       0.14810893 -0.013384102 -0.0025344708 0.032429166
000230 b6 ed 4c bf 46 0f 20 3e 96 6c 0c 3d f0 0d 14 3d
       -0.8005022 0.15630826 0.034283243 0.036146104
000240 d4 db 9b bd c1 36 12 3f f0 c2 a3 3a e9 b6 b5 be
       -0.07610288 0.571148 0.0012494009 -0.35491112
000250 fb 7c e3 3e 72 0d 91 3e 09 a0 61 3e d1 21 db 3d
       0.4443129 0.2833057 0.22033705 0.10699809
000260 2b f7 fd bd 32 f7 5e 3e 64 f8 b1 be f2 e0 ab 3c
       -0.12400659 0.21773985 -0.3475982 0.020981286
000270 db 8d 39 be f9 ad df be 08 b4 7c 3e 99 ae 34 bd
       -0.1812052 -0.43687418 0.24678051 -0.04411182
000280 d3 d6 80 3e 7a ae fc 3d 15 39 21 bd 85 30 17 3e
       0.25163898 0.12337966 -0.03936108 0.14764602
000290 ab b8 a8 3d 3a 33 36 3f 0a 10 be be 1e 6f 47 be
       0.082383476 0.71171916 -0.37121612 -0.19475982
0002a0 62 9f 38 bd ab ef be 3c e1 28 07 3e b4 f8 45 3f
       -0.045073874 0.023307642 0.13199188 0.77332616
0002b0 a5 c1 c5 bc a8 48 84 3e 34 a0 ca 3d fb a5 21 3d
       -0.024140188 0.25836682 0.098938376 0.039464932
0002c0 7f 89 5d 3d 17 7c 21 3e 24 8a e7 bd 14 ae 9c bd
       0.054086205 0.15769993 -0.11305645 -0.0765039
0002d0 12 73 31 be 8c 9e b0 be dd 44 35 3e 7e 95 a0 be
       -0.17329052 -0.34495962 0.1770205 -0.31364053
0002e0 d4 6e 67 3e 53 cd 17 3f 89 3e 5d 3e 0d 33 f0 3e
       0.22600871 0.59297675 0.21605887 0.4691395
0002f0 d3 4f 09 3e 0d 6f 02 3e cd 4e 57 be ce b4 0f 3e
       0.13409357 0.12737675 -0.21026154 0.14033815
000300 18 00 ec bd 27 af 29 bf f9 ff 9c be 72 24 a0 3c
       -0.115234554 -0.66282886 -0.30664042 0.019548628
000310 03 d5 84 bd 6d 38 0e bf 6e 14 94 3d d6 0e 6e be
       -0.06485941 -0.5555485 0.07230459 -0.23247847
000320 51 23 8d be ff 32 39 3d 42 ec b3 3b dc ff 76 3d
       -0.27566007 0.04521465 0.0054908106 0.0603026
000330 f6 59 51 3e ff 89 1c be 84 5a cf be 0b ce 09 3e
       0.20444474 -0.15287016 -0.40498745 0.13457505
000340 0a 31 65 be a7 0c cc bd 5d f8 a9 3d 0a 09 77 be
       -0.22381988 -0.09963351 0.08299325 -0.24124542
000350 9b 89 c6 3b ce da b2 3d 70 b1 52 be d1 df 96 3e
       0.0060588843 0.0873314 -0.205755 0.29467633
000360 50 a5 37 be 48 32 0a bd db 1b 2a bd 6f f1 03 be
       -0.17934155 -0.03373936 -0.04153047 -0.12885068
000370 ea 43 a5 bd 03 92 e0 3e e2 d0 de 3c bf 11 39 3e
       -0.08069594 0.43861398 0.027199212 0.18073176
000380 9f fc ae bd fc 9e 08 be 27 2e 34 be 90 a6 f7 bc
       -0.085442774 -0.13341898 -0.1759573 -0.03023079
000390 87 09 24 3f b9 62 f1 3e 63 b4 a0 be f6 10 0a 3e
       0.6407704 0.47145632 -0.31387624 0.13483033
0003a0 50 2b 79 bd e4 78 24 be 58 f9 2c be fd b5 85 3d
       -0.06083232 -0.16061741 -0.16891992 0.06528852
0003b0 12 0d ba 3d d7 c1 ad be ec 56 86 3e e8 14 00 3d
       0.09084524 -0.3393695 0.2623819 0.031269938
0003c0 33 a6 c7 3c 01 26 c7 3e 81 e4 1b 3e f0 02 be 3c
       0.024371242 0.38896182 0.15223886 0.02319476
0003d0 69 b4 3a 3e 77 b6 7a 3e 93 2d 81 b9 c8 a8 21 3e
       0.18232884 0.24483667 -0.00024638753 0.15787041
0003e0 42 1a 72 3e 22 c0 bf bc 18 4f 66 3a 49 43 9d be
       0.23642829 -0.023407046 0.00087855896 -0.30715397
0003f0 c9 eb 51 be 46 01 ce be 82 29 d6 be 0c b2 73 be
       -0.20500101 -0.40235347 -0.41828543 -0.23798388

discrete_action_output_shape f4 [1, 3]
000000 00 00 40 40 00 00 40 40 00 00 40 40
       3.0 3.0 3.0

network_body._body_endoder.seq_layers.0.bias f4 [128]
000000 ff 1b d5 3c 21 3a 3f be 30 2e b9 3d 5f 7b cf be
       0.026014326 -0.18674518 0.09042013 -0.40523812
000010 1f 32 35 3e 79 10 ce 3c 26 4a 45 be eb a7 ca bd
       0.17694901 0.02515434 -0.19266567 -0.09895309
000020 93 a8 68 3e a9 ae a9 3d de e7 1e bf 66 2d 27 bc
       0.22720556 0.08285267 -0.6207255 -0.010203695
000030 7d 42 72 be a8 4d 5a be 55 08 05 bf 2b 0f 1c be
       -0.23658176 -0.21318686 -0.5196584 -0.15240161
000040 b1 40 53 3d 4e be f5 bc ff 7b 22 3b 47 84 d3 bd
       0.051575366 -0.02999797 0.0024793146 -0.10327964
000050 1b c3 39 be 85 ed 1e be 73 0e 52 3e cc 1f e5 3c
       -0.18140833 -0.15520294 0.20513324 0.027969263
000060 8e ed 67 3e 85 a9 3b be 70 8a 50 3e 3f 8d 89 3e
       0.22649214 -0.18326385 0.2036531 0.26865575
000070 32 45 68 3d 58 6f 82 be d4 b5 62 bd df 0a 0d bc
       0.056706615 -0.25475574 -0.055349186 -0.008608549
000080 eb bf 3b bd 10 3d 30 3c df 49 79 3c b4 7c 55 bd
       -0.045837324 0.010756746 0.015215366 -0.05212088
000090 d3 66 db bd a6 16 33 3c 95 87 c2 3e 16 cf 21 3d
       -0.107129715 0.010930693 0.37994066 0.039504133
0000a0 16 96 58 be 44 b3 96 3c a4 30 53 3c 4f f7 1f be
       -0.21151003 0.018396027 0.012890015 -0.15621684
0000b0 ba e3 99 bd c7 2b fc bc 80 df 33 3e c3 fd 9f bd
       -0.075141385 -0.030782593 0.17565727 -0.07812073
0000c0 ae f8 8f 3d c1 48 95 bd 93 bf a0 bb f6 8f 5e be
       0.07029854 -0.07289267 -0.00490565 -0.21734604
0000d0 dd 34 a9 be c4 88 dd be 0f 0a 93 3d 2c 69 c0 3c
       -0.33048144 -0.43268406 0.07179653 0.02348765
0000e0 54 bb 48 be 50 9e b4 3b 3b 22 ba bd f7 07 e7 bc
       -0.1960271 0.0055120364 -0.0908856 -0.02820204
0000f0 28 70 2b bb ca d1 ee be 18 69 0a be b5 19 08 3e
       -0.002615938 -0.4664443 -0.13516653 0.13291056
000100 fc 2a 12 3e 9e e1 40 be be d6 4e be 3e ae 93 3c
       0.1427421 -0.18836066 -0.20199105 0.018027421
000110 02 c0 41 be d4 a5 24 be 96 0b 86 3d eb 97 8a be
       -0.18920901 -0.16078883 0.065451786 -0.2706903
000120 14 4a a3 3e 78 9d 5a bc 27 79 f2 3d 50 3f 89 be
       0.31892455 -0.013343208 0.11839514 -0.26806116
000130 43 4c ce 3d d7 6d fa 3d e4 d9 ca bd 77 b2 1f be
       0.100731395 0.122279815 -0.099048406 -0.15595423
000140 cc 1d 71 be d3 24 07 3e 2a 9c 5b be 2c e8 6f 3d
       -0.23546523 0.13197641 -0.2144629 0.058571026
000150 af ab 87 bc ba ba 86 be 65 73 34 bc cb 62 31 3e
       -0.016561357 -0.26314336 -0.01101384 0.17322843
000160 f9 8d 3c be 82 07 1a 3e b7 63 9b be a8 a9 36 3e
       -0.18413533 0.15041927 -0.30349514 0.17838156
000170 82 05 c7 be 8f e4 36 be 41 0b 6b 3e e9 eb 18 bd
       -0.3887139 -0.17860626 0.22953512 -0.037334356
000180 69 f5 a0 3e 47 57 41 3e 5b 08 9e 3e a8 cb 4a 3e
       0.31437233 0.1888095 0.3086575 0.19804251
000190 8d fa 07 be dc 43 08 3e 1d 5d 3d bb 72 16 a9 be
       -0.13279171 0.13307136 -0.0028894611 -0.33024937
0001a0 b5 6d 97 bd ec 49 e9 bd 24 31 8a bd 78 48 5f be
       -0.07393972 -0.113910526 -0.06747654 -0.21804988
0001b0 e3 da 0f bf 0f 30 c5 bd fd a1 fe bc 96 f3 90 be
       -0.5619337 -0.09628307 -0.031083101 -0.2831084
0001c0 26 9c d2 3d 2a 0a ac be 50 d7 52 3d ec c0 19 be
       0.10283689 -0.33601505 0.05147487 -0.15015
0001d0 d9 7e 66 3d d3 c5 02 3d 5e 40 74 3e 32 34 59 be
       0.056273315 0.03192694 0.23852679 -0.21211317
0001e0 d7 d1 9a bd 7b d0 68 be bd 22 c7 bd 69 1c 4e be
       -0.07559555 -0.22735779 -0.09723423 -0.20128025
0001f0 c8 a5 a2 bd 3a 07 81 3e 5d d2 c5 bc e0 bc a1 bc
       -0.079417765 0.25200826 -0.02414816 -0.019743383

network_body._body_endoder.seq_layers.0.weight f4 [128, 20]
000000 07 ff 85 3d 19 21 8e be 8c ac b5 3e 16 bf 05 bf
       0.06542783 -0.27759627 0.35483205 -0.522447
000010 46 0b 2f bf d2 1f 78 3b e2 87 dd be 94 a4 15 bd
       -0.68376577 0.0037860763 -0.43267733 -0.036533907
000020 39 eb 67 3f 07 e4 1b 3e 28 9f 06 3e 9b 62 46 3e
       0.90593296 0.15223704 0.13146651 0.19373553
000030 9f ab 39 3e da b6 06 be 3f 7f 06 3e ef 25 6c be
       0.18131875 -0.1315569 0.13134478 -0.23061346
000040 e0 2d b8 be 8d fe 89 3e 6d 55 8d be 3b 5f 49 be
       -0.359725 0.2695202 -0.27604237 -0.19665234
000050 85 15 fc 3d 27 57 18 be a7 f8 0f bf 82 48 c1 bb
       0.12308792 -0.14876996 -0.5623879 -0.005898536
000060 ab f7 b7 3b 43 2d d8 3d cf af 60 3e ca c9 57 3f
       0.005614241 0.10555508 0.21942066 0.8429228
000070 3c a1 0d bd 20 94 1f bd ce d7 ad 3e 00 a8 34 be
       -0.034577593 -0.038959622 0.33953708 -0.17642212
000080 5d aa 92 3d ba 2b 1f bd f5 3f 21 3e ea 1b 47 be
       0.071614005 -0.03886006 0.15747054 -0.19444242
000090 05 b9 81 3c 16 4c 85 3e 55 ee d8 3d 63 14 81 be
       0.015835294 0.2603461 0.10592333 -0.25210866
0000a0 3a dc 40 bd 0d 87 2e bd d5 ba e7 3b db b0 ed bd
       -0.047085024 -0.042609263 0.0070718327 -0.11605998
0000b0 17 38 57 3e aa 24 28 3d 2f 8a ee 3d 7d 0c 6b be
       0.2101749 0.04105059 0.1164745 -0.22953983
0000c0 9a bc df 3e 9e 9a 41 3e f3 88 07 3e de 5c 8c be
       0.4369858 0.18906638 0.13235836 -0.27414602
0000d0 67 1b 09 3f 79 4b 0f 3f de 0e 90 3e 0c 4c 00 3f
       0.5355744 0.5597454 0.28136343 0.5011604
0000e0 26 a3 f1 3d 9b 97 b7 be 58 bd 68 be 89 3b a5 3e
       0.11798696 -0.35857853 -0.22728479 0.32271984
0000f0 2e 9e 9e be 85 75 22 be 92 b2 04 be 03 f4 a4 3c
       -0.30980057 -0.15865143 -0.12958744 0.020135885
000100 5c 9b 23 3e e6 2f 21 3e 41 c1 ce 3e 6e 79 0d bc
       0.15977234 0.15740928 0.40381816 -0.008634908
000110 d9 4c 8e be 70 e2 e2 be 0b a3 e3 be b4 55 c1 3e
       -0.27793005 -0.44313383 -0.4446033 0.377607
000120 68 98 d8 3e 88 fa dc be 72 a3 c7 3d 68 de 46 be
       0.42303777 -0.4315989 0.097479716 -0.19420779
000130 a6 bf b0 3d 86 40 14 3d 63 8e 3f 3e 2d 02 c4 be
       0.08630304 0.036194347 0.1870666 -0.3828291
000140 9c 06 e8 3d 94 3c 29 3b d0 35 8d 3d 78 ab 57 be
       0.11329386 0.002582346 0.068950295 -0.21061504
000150 b9 7d 91 bd 1e 4f b2 bd ce 08 b6 be d4 0a 55 bf
       -0.07104058 -0.08706497 -0.35553592 -0.8321965
000160 a3 a3 39 3f 01 ca 3b 3e f3 98 44 bd a9 e3 91 3e
       0.72515315 0.18338777 -0.047997426 0.28494003
000170 63 ad b1 be 03 e3 1c 3f 9e 3a d7 3e 57 a1 9c 3e
       -0.34702596 0.6128389 0.4203691 0.30591843
000180 05 b2 63 3e e5 3f 9a be 7d 95 82 3d 1e fd 8b 3d
       0.22235878 -0.30126873 0.06376169 0.06835388
000190 63 d2 23 be e1 41 ce be 8b 72 19 3e f8 5f 18 3f
       -0.15998225 -0.40284637 0.14985101 0.59521437
0001a0 b4 77 ec 3d 14 31 e8 3e 92 4b d5 3e d5 60 2a 3e
       0.11546269 0.45349944 0.41659218 0.16638501
0001b0 6a a3 20 3d cc 5c ed be e1 b6 ce 3e 2d 05 08 bf
       0.039218344 -0.4635986 0.403739 -0.531329
0001c0 e6 a2 38 3e f2 9f 3c bb ea 21 97 3c fe 9e b1 be
       0.18030891 -0.0028781858 0.018448789 -0.34691614
0001d0 7d 5f 91 3d 29 59 70 bd fb 95 14 3e e6 20 a3 bc
       0.07098291 -0.05867878 0.14510338 -0.019913148
0001e0 31 ba e7 bd 97 eb 04 3e ff 89 28 3f 3f 7e aa be
       -0.1131481 0.12980495 0.65835565 -0.33299443
0001f0 61 fe a7 3e ec 66 ec be e2 d1 2e 3f 20 28 8f be
       0.32811263 -0.46172273 0.68289006 -0.279603
000200 23 a8 a4 3e d3 64 a8 3e 99 ee ad bc 52 c4 1f bf
       0.32159528 0.32889423 -0.021231936 -0.62408936
000210 02 7e be 3e 88 eb 45 bf 6a b9 14 3f 44 10 d7 bc
       0.3720551 -0.7731252 0.5809542 -0.026252873
000220 7b db 90 3a 9d 62 fe bd 6c 9b ee 3d c9 2b b8 be
       0.0011051738 -0.12421153 0.11650738 -0.35970905
000230 ab 4d 7b 3e 6c c9 ea bd e4 8d 0b 3e 38 35 2a 3f
       0.24541347 -0.114641994 0.13628346 0.66487455
000240 61 36 e3 bd 4a 31 af be c2 a2 e5 3b 7b a8 25 3f
       -0.11094356 -0.34217292 0.0070079276 0.64710206
000250 ea 90 3c bf 84 17 e2 be 7e 32 ae bd d0 46 bf 3c
       -0.7365862 -0.44158566 -0.08505724 0.023349196
000260 86 47 87 be e6 d4 76 bd 17 62 19 bf 1f ab e7 bc
       -0.26421756 -0.06026163 -0.599153 -0.02827984
000270 92 d4 4d be 89 82 68 3e d5 00 a6 be 6e 1c 5c 3e
       -0.2010062 0.22706045 -0.3242251 0.2149522
000280 0a a4 27 be 77 03 ea 3e 4b 52 c0 3c ce a7 d5 3e
       -0.1637117 0.45705768 0.02347674 0.41729587
000290 26 41 db be 7c 15 65 3e 21 be e6 3e 24 60 a8 3d
       -0.42823142 0.22371477 0.45066932 0.08221462
0002a0 1c cb 88 3e 4c db 81 3e a1 f2 b9 bd c2 fa 1d bf
       0.2671746 0.25362623 -0.09079481 -0.6171075
0002b0 62 b1 86 3e 2f bc ab 3e 12 bc a2 3e 8d bb 4f 3d
       0.26307207 0.3354201 0.3178411 0.05071597
0002c0 07 2b 9f bd 12 25 52 3e 18 f4 d7 be 55 32 b1 3e
       -0.07771879 0.20521954 -0.42178416 0.34608713
0002d0 f1 6a 6f be a4 6e 9b 3d b7 bc a3 3d db 73 08 3f
       -0.23380639 0.075894624 0.07994979 0.5330178
0002e0 33 25 a6 be 80 ca e9 bd 65 ff c4 3e 78 5f 79 be
       -0.32450256 -0.11415577 0.384761 -0.24352825
0002f0 85 17 41 be b0 97 d9 be 3a 44 bd be a0 8a 88 be
       -0.18856628 -0.4249854 -0.36966115 -0.26668262
000300 97 27 52 3e 5c 7d 30 3d 76 9b 68 be ed e3 62 bd
       0.20522915 0.043088302 -0.22715554 -0.05539315
000310 ba 08 15 be 98 be 50 3e af 67 3d be b9 dd 12 3e
       -0.1455411 0.20385206 -0.18496583 0.14342393
000320 f5 de 03 be 66 5a a9 be 81 07 b6 be 88 86 7d be
       -0.1287802 -0.3307678 -0.355526 -0.24758351
000330 e8 a5 c5 3e 99 ea 48 bf 1e 55 67 3f a1 30 03 3f
       0.3860314 -0.7848297 0.90364254 0.51246077
000340 5f 3a 19 3f 6c bf 17 3f a4 fb 01 bf 7f 65 a9 bf
       0.5985469 0.5927646 -0.507746 -1.3234099
000350 53 38 4b 3f 2e b4 d4 be 4b 1a c8 3e 30 ca 44 be
       0.7938282 -0.41543716 0.3908256 -0.19217753
000360 a0 3e a9 be b8 f9 dc 3e c8 41 81 3e 7c 6f 90 3d
       -0.33055592 0.4315927 0.252455 0.07052514
000370 be f0 85 be 54 6a 5f bc 27 47 d1 be 3f cd 6e 3e
       -0.26160234 -0.01363619 -0.40874597 0.23320483
000380 c6 24 37 be e1 ed c5 bd 17 ad 7e 3e 20 e0 01 be
       -0.17885122 -0.096645124 0.24870716 -0.12683153
000390 db 5c b7 be 12 3a 2e bf e2 f4 72 bc 0e 8f 33 bf
       -0.3581303 -0.6805736 -0.014828892 -0.7014016
0003a0 5f ad 8f 3d a8 dc 9d 3d a3 8e 9f be 4d 73 be 3d
       0.0701549 0.077081025 -0.3116351 0.09299336
0003b0 64 6d 6c 3d a6 9e b2 3c 2b 28 7a be 8f 27 c8 be
       0.05772151 0.021804165 -0.24429385 -0.3909268
0003c0 26 4d 1f 3c 36 51 5e 3e 3b 86 96 3e 3e b5 b2 be
       0.009722983 0.21710667 0.29399285 -0.34903902
0003d0 5f 83 0e be cc c7 29 be 75 95 c6 be bd 17 72 bf
       -0.13917302 -0.16580123 -0.38785902 -0.9456747
0003e0 14 7f 80 bd e9 c4 06 be 9f 44 5c be 95 c0 1b 3f
       -0.06274238 -0.13161053 -0.21510552 0.6084073
0003f0 ca ad 11 bf b0 96 3e be c1 6b b2 3c 6e ba 99 3e
       -0.56905806 -0.1861217 0.021779897 0.30025047

network_body._body_endoder.seq_layers.2.bias f4 [128]
000000 ba 4a 12 be 49 f9 34 bd 17 c1 25 bf d3 a2 ba 3e
       -0.14286318 -0.04418305 -0.64747757 0.3645235
000010 3b a4 90 bd 9c 89 aa 3d 86 5f 5f 3c 03 2f eb 3c
       -0.070625745 0.08327028 0.013633614 0.02870894
000020 33 cc a0 be 1f 18 ec be 48 24 09 bf 76 4c ba be
       -0.31405792 -0.46112153 -0.53570986 -0.3638646
000030 0d 75 9c bd fa ac 12 be 96 de 9f bd 65 e1 c3 be
       -0.07639513 -0.14323798 -0.07806127 -0.382579
000040 b7 b3 0e 3e 5a 52 cd 3d c7 fe 75 be 66 f6 4b be
       0.13935743 0.10025473 -0.24022971 -0.19918212
000050 6a 8f 9d 3e 59 a0 df bd 8e 21 d5 bd b5 50 5a be
       0.3077348 -0.10919256 -0.10406791 -0.2131985
000060 9d cf 7c 3e af e7 ab bd b1 83 5a be 7e 3a 0f be
       0.24688573 -0.083937995 -0.21339299 -0.13987157
000070 4b e8 0b be 8f ba 7c be 72 be cc be bf 84 a4 be
       -0.13662831 -0.24680541 -0.39989048 -0.32132527
000080 2a 50 4b 3c 9b d5 f4 be 7b 6d 66 be da 15 53 be
       0.012409249 -0.47819218 -0.22502701 -0.20613804
000090 9e cf 84 3d ef ce 89 be bf 98 9a bb 00 39 96 3e
       0.06484912 -0.2691569 -0.004717916 0.29340363
0000a0 0d 70 84 be be 5b 2f bd 8a 46 87 be e7 29 5c be
       -0.25866738 -0.0428121 -0.26421005 -0.2150036
0000b0 29 fe 76 be 08 8d ad be f4 a0 0d be ad 37 50 be
       -0.24120392 -0.3389666 -0.1383093 -0.20333739
0000c0 81 c1 77 3e ef 45 90 be af 89 bf be 00 44 35 be
       0.2419491 -0.28178355 -0.37409732 -0.17701721
0000d0 6a d1 c7 bd 3a 07 be bd 6c 1c e3 bd 89 1d 28 be
       -0.097567394 -0.09278722 -0.110894054 -0.16417517
0000e0 97 a6 85 bc 07 17 74 3e 1e 18 a9 3d 4c 2e 05 3e
       -0.016314788 0.23836909 0.08256553 0.13005942
0000f0 9d 4c 81 bc a7 a9 2b 3d 11 73 6b be 53 ba 16 3d
       -0.015783602 0.04190984 -0.22993113 0.036798786
000100 48 0c 89 be 32 d3 a9 bd 2c 82 b7 be 37 46 bc bc
       -0.26767182 -0.082922354 -0.358415 -0.0229827
000110 e1 44 89 be 68 6d d7 bb e6 1a 8d bd 15 fe 35 be
       -0.26810363 -0.0065743215 -0.06889896 -0.17772706
000120 11 f5 c4 be 1f 26 72 be 5c bc 65 be 39 0c 88 be
       -0.3846822 -0.23647355 -0.22435135 -0.26571825
000130 79 24 d4 3e 3f c0 ab bd 21 e9 fa bd 99 1d 82 be
       0.41434076 -0.083862774 -0.12251497 -0.25413206
000140 47 2e e0 be 64 89 ce be 7f 1a 48 be 62 ae 4f be
       -0.43785307 -0.40339196 -0.19541357 -0.20281366
000150 be f4 d7 be 12 c0 08 be 25 66 05 bf cf 9d bd bd
       -0.4217891 -0.13354519 -0.52108985 -0.09258615
000160 8d 50 af be 38 23 ca be af 6b 0e 3d 68 6b 99 bd
       -0.34241143 -0.39479995 0.034770664 -0.07491189
000170 0d 68 20 be 4e 60 11 be 1e e8 b0 3e 66 2c 45 3e
       -0.15664692 -0.14196894 0.3455209 0.19255218
000180 7b c5 5e 3e f1 68 b9 be 4b 33 de be f9 6d 96 be
       0.2175502 -0.36212876 -0.43398508 -0.29380777
000190 4c ca 06 be 9c 1c 74 be 04 82 92 be 3e 97 80 bb
       -0.13163108 -0.23839039 -0.2861482 -0.0039242795
0001a0 d0 b5 6a 3e 39 07 87 be a7 fb da be 9d 94 a7 be
       0.22920918 -0.26372698 -0.4277012 -0.3273057
0001b0 04 58 8b be 82 75 9d be 70 ce 5d 3e 51 82 fd be
       -0.27215588 -0.30753714 0.21660781 -0.49513486
0001c0 42 fa 93 be 09 49 27 bb 68 31 ca bd af 08 28 bf
       -0.2890187 -0.002552571 -0.09872705 -0.6563825
0001d0 3e d0 02 be f8 16 0f bd aa 8d 92 be a6 45 4d be
       -0.1277475 -0.034934014 -0.28623706 -0.200461
0001e0 24 8a 39 3e 4e 79 cf bd c0 34 3c 3d bc ba c8 3d
       0.18119103 -0.10130559 0.045948744 0.09801242
0001f0 c7 ef 91 be b1 e9 a8 bd 82 e1 e7 be ca 41 27 be
       -0.28503248 -0.08247698 -0.45289236 -0.1633369

network_body._body_endoder.seq_layers.2.weight f4 [128, 128]
000000 e3 cb d0 38 f4 63 31 be f4 9c 03 3f 15 ef 8b 3e
       9.95619e-05 -0.17323285 0.51411366 0.27330843
000010 86 fd 98 3e 72 ee 4c 3e 88 23 3d be 31 0a 36 bf
       0.29880923 0.20012835 -0.18470585 -0.711093
000020 53 45 48 3e 9a e6 6a 3d 1e c6 84 3e a5 47 ac be
       0.19557695 0.057348825 0.259324 -0.3364841
000030 65 f5 3a 3c 20 91 c8 bd 7e 6f b3 bc 5e e2 0c bf
       0.011411046 -0.097933054 -0.02190375 -0.5503291
000040 40 d5 63 be 22 18 95 bd 81 2d 6e be ae 45 aa bd
       -0.22249317 -0.072799936 -0.23259546 -0.083140716
000050 4b 2b 4f be 45 eb c4 be 9a d2 6b 3e 2c ce 37 bd
       -0.20231359 -0.38460746 0.23029557 -0.044874355
000060 61 89 5d be 6c c8 07 3d e5 11 fe 3d 03 22 e3 be
       -0.21634437 0.03315012 0.12405757 -0.44361886
000070 89 54 ae be fd f8 9b be ee 33 ed bd 20 d4 14 3e
       -0.3404887 -0.304634 -0.115821704 0.14534044
000080 c2 88 0c be 85 88 ac be 84 29 93 be 5a 3e f8 3d
       -0.13724044 -0.33697906 -0.2874261 0.121212676
000090 f1 fb e2 be 95 ef c2 3d 9a 0e 0d 3e 14 95 b6 be
       -0.4433284 0.09518353 0.13775101 -0.35660613
0000a0 aa 2d 57 3d dc 62 0b bf 2e 05 48 bf c4 01 56 bd
       0.052533783 -0.5444772 -0.78132904 -0.052247778
0000b0 9b de d1 3c 29 dd 4d be 76 2e 0c bd 51 7f 29 be
       0.025618842 -0.20103897 -0.034223996 -0.16552474
0000c0 6b 01 62 3e c3 9d dd 3c 84 06 02 be f6 1b e4 be
       0.22070853 0.027052766 -0.12697798 -0.44552583
0000d0 38 52 2e 3c ab 69 93 3e 18 b6 98 bd d0 0a 8f be
       0.01063972 0.28791556 -0.074566066 -0.27937937
0000e0 ff e9 40 be 9f 04 ba be d3 61 aa be db ec 2c be
       -0.18839262 -0.3633165 -0.3327776 -0.16887228
0000f0 b1 7b 69 bf f4 c9 ac 3c 5d 01 5e bd 75 bd 13 bc
       -0.91204363 0.021092393 -0.05420052 -0.009017338
000100 25 cc 07 be cf 56 4d 3d 60 e8 06 bd d0 4b ca bc
       -0.13261469 0.050131615 -0.032936454 -0.024694353
000110 a6 36 16 bd 63 cf 80 bd 17 8d 2e be 2a 17 ea 3d
       -0.03667321 -0.06289556 -0.17046009 0.114301994
000120 60 1e 88 3e dc 38 55 bd e7 85 8e 3e ec 2d d1 be
       0.26585674 -0.05205618 0.27836534 -0.40855348
000130 7f 7b 26 3e 37 a7 82 bd 25 98 93 be 02 62 83 be
       0.16258048 -0.0637955 -0.28827015 -0.25660712
000140 10 a3 5e be 9f 66 3f 3d 82 6b cf 3d 40 f3 af be
       -0.21741891 0.046728726 0.10127927 -0.34365273
000150 f3 ba 11 3e d2 51 6d be 20 2b 24 be be 1b 3c 3e
       0.14231472 -0.23175743 -0.16032076 0.18369958
000160 26 2f 1a be 41 5d 2d bf 10 43 b1 3d ec 6f 8e be
       -0.15057048 -0.6772042 0.08655369 -0.27819765
000170 bf 35 43 3d f9 a8 e5 be e1 66 22 3e 5b 25 36 3e
       0.04765868 -0.44855478 0.15859558 0.17787687
000180 64 dc 87 3e b8 e7 b0 3d 43 33 82 be 1c 88 f4 3d
       0.26535332 0.08637947 -0.25429735 0.11940023
000190 7e 42 34 3e 8a 5d cd bd c0 c1 59 be fe dc 4c bd
       0.1760349 -0.10027607 -0.21265316 -0.050015442
0001a0 f2 49 23 be 9f 6f 13 be e1 09 30 bf 0f 13 cb be
       -0.15946177 -0.14398049 -0.68765074 -0.39662978
0001b0 a3 93 86 3d f0 5f c6 bc 4b da d8 be ae 66 15 bf
       0.06571128 -0.024215668 -0.42354044 -0.583598
0001c0 b0 bc 27 3e f6 6c 54 3d 85 88 51 be 73 48 3a be
       0.16380572 0.051861726 -0.20462234 -0.181917
0001d0 10 97 11 bf a2 29 d3 be 6e 07 07 be 7e 26 00 3e
       -0.5687113 -0.412427 -0.13186428 0.12514684
0001e0 5f 93 db be 7a 60 39 bd 93 a1 1d 3e 7a 93 2d bf
       -0.42885873 -0.045258023 0.15393667 -0.67803156
0001f0 8e 31 95 be 63 16 4a 3e 61 b6 6d 3e 99 3d 95 bd
       -0.2913937 0.19735102 0.23214103 -0.072871394
000200 24 94 97 bd a4 9b b7 3d 96 45 8c 3e b5 9b f4 bd
       -0.074013025 0.08965233 0.2739684 -0.11943761
000210 fa a7 f7 3c af bd 5a be 13 91 3b be 12 91 26 be
       0.030231465 -0.21361421 -0.1831706 -0.16266277
000220 0e 0d 9d 3e ad c0 67 bd e6 3e f2 bd c6 5c 08 be
       0.30674022 -0.056580234 -0.11828403 -0.1331664
000230 66 26 ac bd 2a c0 5b bc 34 90 b2 bd 97 4d 89 be
       -0.084057614 -0.013412515 -0.08718911 -0.2681701
000240 cb 26 f5 3d b5 4a 4d be 47 f7 18 be bd cf 8d be
       0.1197029 -0.2004803 -0.14938079 -0.27697554
000250 c0 7c 3b be ee f7 ce 3d 40 c3 2c 3e bd 61 8b bd
       -0.18309307 0.101058826 0.16871357 -0.068057515
000260 7c 61 1f be e2 ac 03 be fe 5f 8e be 54 75 cf 3c
       -0.15564531 -0.12858918 -0.2780761 0.025324501
000270 92 a7 29 3e d3 86 8d be ce e5 90 be 01 80 b6 3e
       0.16567829 -0.27641925 -0.28300327 0.35644534
000280 e3 76 32 bd 02 fd e8 3c 38 71 c6 be f8 7a 47 bc
       -0.04357041 0.028440956 -0.38758254 -0.012175314
000290 99 5b 75 be ab 83 a6 be 19 a8 8e bc 26 34 5f be
       -0.23960723 -0.3252233 -0.01741414 -0.21797237
0002a0 19 5d b8 be d0 ce 74 3e 92 6d a6 be 00 2c 8d be
       -0.36008528 0.23907018 -0.3250547 -0.27572632
0002b0 94 d9 28 bd 69 0f fa 3d 11 26 44 3e da 24 c6 bd
       -0.041223124 0.122099705 0.19155146 -0.09674998
0002c0 de 95 29 be 0e 80 36 bc 89 a2 99 3d 5d ca 04 bf
       -0.16561076 -0.011138929 0.07501704 -0.5187128
0002d0 19 77 36 3d c7 05 3c be 84 3e 43 be d1 f3 c5 3c
       0.044547174 -0.18361579 -0.19066817 0.024164112
0002e0 bd 0a 9f be 17 ee 0a 3e 1a f2 c6 be 30 2f 8b be
       -0.3106288 0.13567387 -0.38856584 -0.2718444
0002f0 55 2f 59 be e4 b5 64 be f1 27 76 3e 0a 48 8a bd
       -0.21209462 -0.22335011 0.24038674 -0.067520216
000300 97 08 f2 be d5 93 9d be 72 69 56 be 06 8c ed be
       -0.4727218 -0.3077685 -0.20938662 -0.46395892
000310 8e db 81 be c1 a9 06 bd 7b 7f c6 3c 00 24 f9 bd
       -0.2536282 -0.032876734 0.02423071 -0.121650696
000320 a6 a8 f9 3d 45 e7 dd be 1b 95 9d 3e 62 e2 bb be
       0.1219037 -0.43340507 0.3077782 -0.36696154
000330 6c 5a 4e 3e 65 6f 82 bd a4 2f 6e be e2 79 ba bb
       0.2015168 -0.06368903 -0.23260361 -0.005690799
000340 30 b9 28 3e dd a6 3c 3e ae f3 9a 3e 88 74 ef 3d
       0.16476893 0.18423028 0.30264038 0.116921484
000350 bf c7 e5 be ca 9b 61 3e fe 00 ac be 25 4a fd bd
       -0.44878957 0.22032085 -0.33594507 -0.123676576
000360 80 c7 29 be 7e 7d ed 3c 83 04 00 be 5d 61 c2 3d
       -0.1658001 0.028990503 -0.12501721 0.09491227
000370 4c 8b 30 bc 05 14 66 be 55 10 8a bb f3 77 db be
       -0.010775398 -0.22468574 -0.0042133727 -0.42864951
000380 5d 31 0b bd 65 ef d4 bd 68 2b 25 3d f2 46 bd 3d
       -0.033982623 -0.103972234 0.0403246 0.09242047
000390 1c 67 f8 bc 77 c2 17 3e f9 06 95 be d6 b2 17 be
       -0.030322604 0.14820276 -0.29106882 -0.14814314
0003a0 8f 85 2a bf 0a 0b d2 3d 57 50 9c be c3 61 b8 3d
       -0.66610044 0.10256012 -0.30530044 0.090030216
0003b0 69 33 b8 3c 2b d7 aa be 27 2d 73 bc 73 22 9e 3d
       0.022485452 -0.33367285 -0.014842308 0.077214144
0003c0 58 3e 8d be 0e 9b bb be 27 e7 a5 be 62 ec ec 3d
       -0.27586627 -0.36641735 -0.32402918 0.11568524
0003d0 07 16 cd 3d 35 3b 03 bf 66 42 cc 3d 24 53 16 3b
       0.10013967 -0.5126222 0.09973602 0.002293774
0003e0 4e e1 a0 be 97 90 81 be 43 fc 54 3e 29 26 c4 be
       -0.31421894 -0.25305626 0.20799355 -0.38310364
0003f0 29 fe 50 3e 65 07 fb 3d 91 e4 ac bd 82 6a b7 bd
       0.20409454 0.1225727 -0.08442033 -0.08955862

network_body.observation_encoder.processors.0.normalizer.running_mean f4 [20]
000000 f6 a5 8c 41 11 7b 77 3e 2c 02 e7 40 f4 b6 76 bf
       17.581036 0.2416804 7.219015 -0.96372914
000010 d5 f2 df 3c 9e 25 54 bd 26 2d 69 3e bc e0 f3 3f
       0.027337471 -0.051793687 0.22771129 1.9052958
000020 26 af 92 3e 08 86 1d 3d b8 4e 9d bb 5b ca 93 bd
       0.28649253 0.0384579 -0.004800644 -0.072163306
000030 09 62 53 3d 9e b9 66 3f ab 98 f4 3c c3 fe 70 3f
       0.051607165 0.9012698 0.029857954 0.94138736
000040 00 00 00 00 00 00 00 00 00 00 00 00 eb 57 2f 3f
       0.0 0.0 0.0 0.6849353
