Assets/NNModels/SpherePilotAgent.onnx (onnx, 562502 bytes, 15 tensors)

82 f4 [21]
000000 9f 17 1f 41 83 bc e4 40 24 ba 2d 41 6b eb f2 40
       9.943267 7.1480117 10.8579445 7.5912375
000010 a0 0b 20 40 9f c7 90 40 22 15 2b 40 da de f4 3d
       2.5007095 4.524368 2.6731648 0.11956568
000020 6b 2c bd 3d 10 41 d7 3d b7 ab 4e 3e 66 c2 50 3e
       0.09236988 0.105104566 0.20182692 0.20386657
000030 ab 7e 55 3e a4 e9 d3 3c f0 bc 94 3e 03 79 8d 41
       0.20849101 0.025868244 0.29050398 17.684088
000040 fc 56 9a 3e f5 ee bb 40 0b 4d 2c 41 0e e6 dc 40
       0.3014449 5.8729196 10.768809 6.903083
000050 ff 2f ed 3e
       0.4632568

action_model._discrete_distribution.branches.0.bias f4 [3]
000000 0e 52 69 bc 3e 11 a8 3d ba dd ad bd
       -0.014240755 0.08206414 -0.084895566

action_model._discrete_distribution.branches.0.weight f4 [3, 256]
000000 1f 44 4d 3d 36 ae ef 3c e9 bc cb 3a 32 c8 35 3d
       0.050113793 0.029257875 0.001554397 0.044380374
000010 a1 4e 03 bd fb 0d 68 bd 16 a6 88 bc 0d 8d c1 bc
       -0.03205741 -0.056653958 -0.016680758 -0.023626829
000020 f1 b5 09 3b 50 f5 d9 39 54 9c 7b bc 75 6c 8e 3c
       0.0021012987 0.00041572237 -0.015357096 0.0173857
000030 5d 5d 46 bc 06 26 39 bc 71 e1 57 bc 82 aa b7 bc
       -0.0121072205 -0.011300569 -0.013176308 -0.022420172
000040 9e 92 4d bd 4b 16 00 be b0 a3 7e 3c e5 65 70 3d
       -0.050188653 -0.12508504 0.015541956 0.058690924
000050 66 6c ed bc 35 e7 97 bd df 63 9e bd 27 3c 15 bc
       -0.028982352 -0.07417146 -0.07733893 -0.00910858
000060 85 7f 92 3c fc 93 19 bd dc 85 d5 3a 3e 96 25 bc
       0.017883072 -0.037494645 0.0016290504 -0.010106621
000070 b0 17 97 3a eb aa 0f bd a7 9e 1a 3c e2 5e ad 3c
       0.0011527445 -0.03507511 0.00943724 0.021163408
000080 fa 8b 5a 3c 72 c0 2d 3c d4 41 1f bc ae ec 39 bd
       0.013339037 0.010604965 -0.0097202845 -0.04539173
000090 d2 3c 48 3c 7b 89 1d bc 18 22 7f 3c ea 7e 13 3d
       0.012221532 -0.009615297 0.015572093 0.036009707
0000a0 93 d1 32 3c 32 bb 2d 3c 5b 22 85 bd 43 33 8e bc
       0.010914224 0.010603713 -0.065006934 -0.017358428
0000b0 99 5c 0b bd a5 c1 8a bd 36 3f 3d bb bb f6 b9 bb
       -0.034023855 -0.06775216 -0.0028876788 -0.0056751645
0000c0 31 ff e2 3c bd 35 6a 3a a6 d5 37 bb 80 f6 a5 bd
       0.027709575 0.0008934399 -0.0028050928 -0.08103657
0000d0 8e d4 6c bb 02 de b3 3c a3 e9 27 bd dd 2e d7 bd
       -0.0036137435 0.021956448 -0.040994298 -0.10506985
0000e0 1a 19 56 bd 2a 8b 8b 3c 12 c8 5c 3d 0f d9 6f bc
       -0.052270032 0.017034132 0.05390174 -0.014639153
0000f0 59 44 32 3c 80 2f 89 3d e4 62 e6 3c be 75 0b 3d
       0.010880553 0.06698513 0.028123327 0.034047835
000100 7e 10 0a bd 76 83 63 3d b8 81 8e 3b ee 59 e4 bc
       -0.033707134 0.055545293 0.00434896 -0.027874913
000110 3e 00 da bc d1 02 cf bb bc 79 a7 bc 58 87 6a 3d
       -0.026611444 -0.0063174744 -0.02044379 0.05725798
000120 f3 7c 0d bc 06 d1 1b 3b 2c c9 dd 3c 76 1d ac bb
       -0.008635747 0.002377571 0.027073465 -0.0052525355
000130 61 48 e5 bb c3 e9 53 3c a1 3e b3 bd d0 aa b2 bc
       -0.0069971536 0.012934151 -0.0875218 -0.021809965
000140 d1 55 18 bd 5e 31 96 3c 99 f2 7b bd 61 3c d3 bd
       -0.037191216 0.018334087 -0.061510656 -0.10314251
000150 6b 6b e5 bc 76 34 33 3d 19 f0 52 bd 2d 25 8f 3c
       -0.028005322 0.043751203 -0.051498506 0.017473781
000160 a7 a5 0a 3d 72 e5 05 bd 76 67 87 bd 7c a6 08 3c
       0.033849385 -0.03268952 -0.066115305 0.008340474
000170 0d 1b de 3c 6f d3 96 3d 5b 42 3c bd f6 4e 01 bd
       0.027112508 0.073645465 -0.04596172 -0.031569444
000180 fd e0 d4 bc f1 ca 05 3d 13 f9 6f 3b 9b c4 c8 bd
       -0.025986189 0.032664243 0.0036616966 -0.098031245
000190 1d da 88 3d 9b d8 98 bc 0f 20 8a 3c 38 9b a0 bc
       0.06682227 -0.018657973 0.01686099 -0.019605264
0001a0 76 14 9a bc 6a a6 f0 bc d6 4d 94 bc 7a ec 0c 3d
       -0.018808585 -0.029376227 -0.018103521 0.03440521
0001b0 f2 8a ac bd 85 42 31 bc 8e 15 d8 bd 06 66 95 bc
       -0.08424939 -0.010819082 -0.10550986 -0.018237125
0001c0 95 46 a5 ba 30 e7 87 bd a5 29 80 bd 58 28 a8 3c
       -0.0012609536 -0.066358924 -0.06257943 0.02052705
0001d0 db aa 50 3c 74 a8 2f 3b c9 fc 49 3c cf 3f 79 bc
       0.012736048 0.0026803287 0.012328335 -0.015212967
0001e0 d3 1d 30 bc b7 b7 7c bc 9b 14 9c bb 2d cc 4e 3c
       -0.010749298 -0.01542466 -0.0047631986 0.0126219215
0001f0 6b e5 f2 3c 7b 61 81 3c 01 19 e4 3b 00 2c f2 bc
       0.02965041 0.015793553 0.0069609885 -0.029561996
000200 42 fc 47 3c 11 83 41 bd 89 e4 a1 bc 0f 6f 7a bc
       0.012206139 -0.047244135 -0.019762294 -0.0152852675
000210 ae c9 10 3d 91 a4 2d 3d d9 7d b0 bc 9c 04 71 3c
       0.035348587 0.04239327 -0.021544384 0.014710572
000220 96 df 44 3c 43 87 8c 3b a0 0b af bc ce 3a 35 3c
       0.012016198 0.0042885854 -0.021367848 0.011061383
000230 2e 82 02 bd 23 a8 8e bd 0f f0 10 bc 8b b6 e7 3c
       -0.03186243 -0.06965663 -0.008846297 0.028285285
000240 74 e1 c9 3c 5c a1 9b bd 5e 7a f0 bd ed 66 cc bc
       0.024643637 -0.07599136 -0.1174209 -0.024951423
000250 62 5e 04 3d 4d 02 5b bd 66 54 5a bb 23 36 a0 bd
       0.032316573 -0.05346899 -0.0033314466 -0.07822826
000260 92 e8 89 3b 27 e5 16 bc df 1b 8d 3c ef 1e 32 3c
       0.0042086327 -0.009209908 0.017225204 0.010871633
000270 93 72 99 bd 6a b5 7f bc df 08 86 3c 0d 6b ab bc
       -0.074925564 -0.015607217 0.016361652 -0.02092507
000280 dd 38 47 3d ff 04 98 bd 7d d1 c2 3c be 2a ae bd
       0.048638213 -0.07422828 0.023781532 -0.08504246
000290 cf 94 08 3c 59 64 72 3c 70 59 b7 3c c1 03 83 bc
       0.00833626 0.014794433 0.022381514 -0.015993001
0002a0 2d 7f 34 3d 2e 59 c6 bd 64 8e fc bc 4e 30 32 bd
       0.044066597 -0.096849784 -0.030829616 -0.0435031
0002b0 e8 3d 16 3d 6a 54 c7 3c b3 f4 a8 3a d1 5e 85 bc
       0.036680132 0.024332244 0.0012890309 -0.016280564
0002c0 5c e2 a1 bc af 99 79 3c e1 9b 14 3d 71 f0 1a 3d
       -0.019761257 0.015234395 0.03628147 0.03782696
0002d0 9d f8 50 3d d9 40 dc 3c 20 88 75 3c 79 2b a6 bc
       0.051018346 0.02688639 0.014986068 -0.020284401
0002e0 04 9e bb 3d cd e8 bd bc 59 e7 eb 3c 30 a3 a8 bd
       0.091609985 -0.023182297 0.028796839 -0.082342505
0002f0 85 2d 4f bd f5 75 b2 bd 3f c1 e7 3c 4a b3 1e 3d
       -0.05058052 -0.08713905 0.02829039 0.038745202
000300 cb f6 56 bb 5f de 52 3d 48 5f 2b bd b4 3d a7 3c
       -0.0032800909 0.0514816 -0.041838914 0.020415165
000310 54 a7 78 3c a7 4a 8a 3c fb 0b 14 3d dc e1 e4 bd
       0.015176613 0.0168813 0.036144238 -0.11175892
000320 b3 77 f0 bc 37 9c 29 bd 90 fc de 3c 14 19 85 bd
       -0.029353952 -0.041408744 0.02722004 -0.06498924
000330 8d 13 56 bd d3 63 0c 3d 55 bc 7b 3d c5 9c 16 bb
       -0.05226474 0.034274887 0.061458904 -0.0022981626
000340 ba bc ca bc 82 a3 24 3c a9 ba 0e bc 78 3d 2a bd
       -0.024748195 0.010048749 -0.008711495 -0.041562527
000350 dc 8c 97 3c 56 10 0e bd 3e 8c 9a 3c 02 78 88 bd
       0.018499784 -0.034683548 0.0188657 -0.06663515
000360 77 c6 b5 bc 2c 5c d6 3c 9f ee e1 3a 43 e7 c1 bc
       -0.022189362 0.026166998 0.0017237252 -0.023669844
000370 6b b2 93 bd 04 c6 f9 bc 6b 8c ab bd 1a 5b 60 bd
       -0.07211765 -0.030489929 -0.08376392 -0.05477438
000380 4d 96 1c bc eb 63 ac bb c8 89 92 bd 15 57 90 3c
       -0.009557319 -0.0052609346 -0.07155186 0.017619649
000390 7a 80 0d bd d2 4f 93 bb 33 76 a3 bb ce 06 67 bd
       -0.034546353 -0.0044955993 -0.0049884557 -0.056402974
0003a0 f4 cc bc bc f1 03 91 3c 0a b4 99 bd 78 71 98 bd
       -0.023046948 0.017702075 -0.07505043 -0.074435174
0003b0 3f 14 43 bd 60 cc fc bc 64 61 ee 3c 60 52 1a 3d
       -0.04762673 -0.030859172 0.029099174 0.037676215
0003c0 d4 03 ab bb ca 70 84 bc 01 25 1c bd 6f 84 9a ba
       -0.005218962 -0.016167063 -0.038121227 -0.0011788736
0003d0 b3 31 6e bd 70 e2 87 bd 00 c8 d6 3a e3 6b c7 3b
       -0.058152866 -0.066349864 0.0016386509 0.006085859
0003e0 44 7a d4 3b b7 39 ec 3c ce 3f 89 bc 5c 04 09 3d
       0.0064843018 0.028836114 -0.016754057 0.033451423
0003f0 66 34 b1 bd d1 17 08 3b 90 89 e4 3c 47 d5 29 bd
       -0.08652572 0.0020766149 0.027897626 -0.041463163

action_model._discrete_distribution.branches.1.bias f4 [3]
000000 99 35 d4 bc 80 89 07 3d 0b ce d6 bb
       -0.025904464 0.033090115 -0.006555324

action_model._discrete_distribution.branches.1.weight f4 [3, 256]
000000 79 ed 8e 3c ed 5f 1c 3d 69 92 24 bc 5d c9 00 3d
       0.01744722 0.03817742 -0.0100446725 0.031442035
000010 f1 32 43 3d f2 49 63 bd 02 3e a3 bc 32 a6 9d bd
       0.047656003 -0.05549044 -0.019927029 -0.07697715
000020 80 35 a2 3c 74 f7 cf ba ff 2b 08 bd df f4 e2 3c
       0.019800901 -0.0015866593 -0.033245083 0.027704654
000030 fb 0c 79 bd 4f 90 52 3c 0c ad b4 bc 9c 4b eb bb
       -0.060803395 0.012851789 -0.022055171 -0.007180644
000040 1a 6c cf ba 3a fd 73 bd 5b 40 87 ba 6c 2d 33 bd
       -0.0015825063 -0.059567668 -0.0010318862 -0.04374449
000050 10 0d 96 bb 02 3e 73 ba f0 4d 50 bd d4 3a 9e bc
       -0.004579194 -0.0009278954 -0.050855577 -0.01931516
000060 47 e9 cf 3c 99 a8 4a 3b 2d af 9e 3c e3 07 31 bd
       0.02537979 0.0030923246 0.01937064 -0.043220412
000070 bc b4 e2 3c d1 1b d5 bc ee 9c 73 3d 15 82 1a 3d
       0.027674071 -0.02601424 0.05947583 0.037721712
000080 10 b6 7d 3d a7 0c df 3b 03 28 32 bc 0c 7a 12 bb
       0.061941206 0.006806928 -0.010873797 -0.0022350578
000090 53 22 40 bb fc 49 85 bc a7 32 19 3d 86 dd c1 3c
       -0.0029317334 -0.01627063 0.03740182 0.0236652
0000a0 a3 4d ac 3c bb ff ab bb 58 54 f8 bc c3 ba c6 3a
       0.021033114 -0.0052489913 -0.030313656 0.001516186
0000b0 0e b1 51 bd f3 21 2b bd 96 ae 2c bc a6 3c 8c 3d
       -0.051194243 -0.041780423 -0.010539671 0.06847505
0000c0 9d f5 36 3b 29 fe 02 bd 6e f3 3e 3d 10 83 51 bd
       0.0027917393 -0.031980667 0.04661887 -0.05115038
0000d0 8a f1 ee bb 28 5b e0 3c b2 ec 29 bc 1d 21 4d bd
       -0.0072919773 0.027387217 -0.010371374 -0.050080407
0000e0 a1 8a 51 3b 4b 07 d8 3c d8 46 7a 3c 8f 23 f6 bc
       0.0031973498 0.026370665 0.0152756795 -0.030046253
0000f0 c4 c2 90 3d 84 3a 8c bc 9c 9e 4e 3b 97 d4 e5 bc
       0.070683986 -0.017117746 0.0031527644 -0.028055472
000100 da 86 2c bc 30 08 3f 3d 18 38 e8 bb 18 34 55 bc
       -0.010530198 0.046638668 -0.007086765 -0.013012908
000110 da 18 80 bd 56 c4 14 bc 23 7c 00 3d 3a be f2 bc
       -0.0625474 -0.009080013 0.031368386 -0.029631723
000120 9d 0a 84 3c 5e 03 a0 3c 0a 8d 14 bb 67 48 0f 3d
       0.016118342 0.019532856 -0.0022667074 0.034981158
000130 54 3a f9 3a 4a 8d 0c bc 1f c2 af bc ae 3a e9 3c
       0.0019014576 -0.008578608 -0.021454869 0.028470363
000140 94 b7 d9 3c 65 5d 83 bc f2 a3 8f bc 9a 5f a7 bd
       0.026576795 -0.016035745 -0.01753423 -0.081725314
000150 d4 c8 66 3d db 41 04 bd 5b a4 9a bc 25 f2 aa bd
       0.05634387 -0.032289367 -0.018877199 -0.08346967
000160 56 c4 e3 3b 61 5b 0c bc e1 ae 33 bd e4 44 ba 3a
       0.0069508953 -0.008566708 -0.04386795 0.0014211205
000170 09 a6 bf bb ff f4 90 3c fc 58 83 3d f0 a3 16 bb
       -0.0058486504 0.017694948 0.06413457 -0.0022985898
000180 67 2c fe b9 f3 7a 0b 3d eb c6 85 3d bb 58 30 3c
       -0.00048479738 0.0340528 0.06532081 0.0107633425
000190 b3 13 c3 3c 0a 88 cb 3c d2 69 87 3c 4a 99 a6 3b
       0.023813104 0.024845142 0.016529951 0.0050841914
0001a0 de 0c fc bc b7 e5 31 bc 18 27 0f 3d 8a eb 9b 3c
       -0.030767854 -0.010857991 0.034949392 0.019033212
0001b0 ec 2c cb bc c8 26 f5 3c df ab aa bd eb 0b 3d 3d
       -0.024801694 0.029925719 -0.08333563 0.046153944
0001c0 5a 96 a4 3c 81 03 8d bc fa 63 91 bc f5 90 00 3d
       0.020091224 -0.017213585 -0.017747868 0.03138824
0001d0 9b ce 0a bd 95 65 2d 3d 26 bc 2a 3c 09 3c 5c 3c
       -0.03388844 0.042333204 0.010420835 0.013442048
0001e0 5f 6c f3 3c b8 7b 15 bc 8c af 10 3c 1e c0 26 3d
       0.029714761 -0.009123735 0.008830916 0.04071056
0001f0 20 fa ff 3c eb ed 03 3d d1 e2 e3 3c 38 f9 01 3d
       0.031247199 0.032209318 0.027818115 0.031731814
000200 36 18 fb 3b 80 0a 15 bd 05 5b f3 3b 1a 31 1a bd
       0.0076627983 -0.036386967 0.007426622 -0.037644483
000210 54 6d 4b bc f1 31 ea 3c bc 7d c7 bd b2 92 50 3b
       -0.012416203 0.028588267 -0.09740779 0.0031825718
000220 a0 7d 74 3d 97 ba 12 3c 7f ff 39 3d e3 3b 66 bc
       0.059690118 0.008955619 0.045409676 -0.014052364
000230 31 50 95 bc f3 23 27 bd df 95 46 bd 83 d2 f5 bc
       -0.018226715 -0.04080577 -0.048482772 -0.030007606
000240 50 33 e0 3c 67 18 a5 bc 19 44 41 bd 2b a1 56 bd
       0.027368218 -0.020153238 -0.047184084 -0.052399796
000250 80 ea c6 3c 95 2d 0b be a6 07 3b ba e1 7a ab bd
       0.02428174 -0.13591607 -0.00071346236 -0.08373047
000260 59 58 41 3d c0 19 d3 ba 1e 10 08 bc 76 cd e4 3b
       0.047203396 -0.0016105697 -0.008304624 0.0069825007
000270 a2 00 44 bd 25 eb 9d 3c c2 f1 90 bc 8a ab 3e 3d
       -0.047852166 0.019277165 -0.017693404 0.04655031
000280 e5 14 35 3d 8e 52 64 bc 61 b9 0b 3d dc 3b 88 bd
       0.04420938 -0.013935698 0.034112338 -0.06652042
000290 45 60 00 3d 6a c3 14 3d 4d 52 28 3b 99 fe f6 3b
       0.03134181 0.036319174 0.002568382 0.0075376746
0002a0 0d 08 47 3d 6c 6c b1 bc 6a e6 86 bc 16 e6 2d bd
       0.048591662 -0.021658145 -0.016467292 -0.042455755
0002b0 ff 92 9e 3c 9c 11 46 bd b7 c9 e5 3b c8 cf ed 3a
       0.019357203 -0.048356637 0.0070125717 0.0018143589
0002c0 15 17 5a bd 1a 6a 8d 3b e4 be 22 3d 61 7f fc 3c
       -0.05324467 0.004315627 0.03973283 0.030822458
0002d0 a6 1c 29 3d d7 93 06 3c 3a 09 24 3d 5f ca 1f 3c
       0.041287087 0.008213959 0.04004786 0.009752839
0002e0 b3 59 bf bb 98 a0 9d bc 73 fa 98 3d bb 76 2d bd
       -0.0058395504 -0.019241616 0.074696444 -0.04234956
0002f0 5f 6f bf bc ee ca 47 bd 49 e0 4d 3d 01 cf 2b 3d
       -0.023368536 -0.048777513 0.050262723 0.04194546
000300 92 68 c6 3c d2 1b 3e 3c 56 9b 15 3c 4e 66 d7 3a
       0.024219785 0.011603313 0.009131273 0.0016433687
000310 aa 34 34 bd da 6f ef 3b a4 46 99 3c cd 91 87 bc
       -0.043995537 0.007307035 0.018710442 -0.016549015
000320 02 56 65 3d ed 03 2b bd a4 dd ea 3c 76 8d ad bd
       0.055990227 -0.04175179 0.02867014 -0.08474247
000330 31 42 bb 3c 4a 57 e5 3c 2b c4 f5 bc b7 74 4a bd
       0.022858711 0.027995724 -0.030000767 -0.049427714
000340 bf aa 4f bd c4 21 90 3d 3e 9b a2 3c 22 39 33 3d
       -0.050699946 0.0703769 0.019849416 0.043755658
000350 4d 82 34 3c 93 52 0c 3d ff 30 01 3d 50 95 c3 bd
       0.011017394 0.034258436 0.031540867 -0.095499635
000360 b2 b4 ed bc 44 bf 00 3c c2 f4 01 bd 4d 2c a8 3c
       -0.029016826 0.007858101 -0.03172756 0.020528937
000370 d9 69 23 bc d1 0d a3 bb ae 92 9c bc 18 22 17 bd
       -0.0099739665 -0.0049760123 -0.019112911 -0.03689775
000380 fb a8 55 3d 85 72 48 bd 39 4e 32 bd 02 2a e0 3a
       0.052163105 -0.04893734 -0.04353163 0.0017102363
000390 a3 3c b1 bb dd f3 ed bc c2 f5 10 3c db ba b8 bc
       -0.00540884 -0.029046947 0.008847656 -0.022550037
0003a0 c5 7b cc bb 47 64 93 bd f9 a5 0c be 5c fc bb bc
       -0.0062403404 -0.07196861 -0.13735189 -0.022947483
0003b0 9e 72 68 3c 66 e5 21 3d 40 0c 8b 3c 47 95 1c 3c
       0.014187483 0.039525412 0.016973615 0.009557075
0003c0 a4 78 99 bc 4d e2 de 3c 00 50 87 bb a5 cf 2d 3d
       -0.018734284 0.027207518 -0.00412941 0.042434353
0003d0 c7 81 95 bc e5 9f 9c 3c 03 88 16 be 66 dd d7 3c
       -0.01825036 0.019119212 -0.14700322 0.026350688
0003e0 a6 a6 74 3d a5 16 d1 3c a0 d3 98 bc 72 41 67 bc
       0.05972924 0.025523493 -0.018655598 -0.0141147245
0003f0 4a 33 04 be c8 5a 05 3d 11 fc f7 3c a1 94 4e bc
       -0.1291019 0.03255728 0.030271562 -0.012608678

action_model._discrete_distribution.branches.2.bias f4 [3]
000000 ba 49 13 3d 9f 2d 1c 3c 69 a4 51 bd
       0.035958983 0.009532361 -0.051182184

action_model._discrete_distribution.branches.2.weight f4 [3, 256]
000000 b3 cb 93 bc b1 2c 25 bd 2c fa 10 3d bc de 3b 3d
       -0.018041467 -0.040325824 0.035394832 0.045866713
000010 f1 69 7c 3b a9 0f 92 3c 64 79 04 bb 32 c1 5f bd
       0.0038515294 0.017829733 -0.0020213956 -0.054627605
000020 cd 21 2d 3d ff e5 e9 bc 61 92 0f 3d 55 5c bb 3c
       0.042268563 -0.028552053 0.035051707 0.022871176
000030 35 9a 2b bd 69 43 74 3d 2b 65 2b 3d 30 1f dd 3c
       -0.04189511 0.0596346 0.04184453 0.02699241
000040 b8 68 85 3c 98 9c ee 3c 31 0e 94 bc dd 69 21 bd
       0.016285285 0.029127404 -0.018073173 -0.0394076
000050 5e 0c 82 3c 17 f3 dd 3c 9d 73 ce b8 ec 10 45 3c
       0.015875038 0.027093453 -9.84438e-05 0.01202796
000060 f8 7f e6 bc aa 48 5a 3c 24 15 5f 3d 89 d7 07 3c
       -0.028137192 0.0133229885 0.05446352 0.008291134
000070 7b 3b 11 ba b7 ad e8 bc d2 99 3f 3b 53 86 67 3b
       -0.00055401743 -0.028403146 0.002923597 0.0035327866
000080 37 80 5f 3c d5 1d 45 3c e9 a4 2c 3d 6b d6 69 3c
       0.013641409 0.012031038 0.042149458 0.014272313
000090 b6 51 9e bc 31 3c 54 bb b9 48 12 bd 2a d5 3e 3d
       -0.019326072 -0.003238451 -0.035713885 0.046590008
0000a0 31 41 bd 3c ab 7f 29 3b 90 a6 36 3d e2 82 15 3d
       0.023102375 0.002586345 0.04459244 0.036501773
0000b0 92 b2 b5 bd cd 62 bf 3c 0f cb df bc b4 eb 0b 3d
       -0.0887195 0.023362542 -0.027318506 0.03416033
0000c0 e6 8b c0 3b c7 87 13 3c 70 7f 0f 3d 07 88 98 bd
       0.005876052 0.00900454 0.035033643 -0.0744782
0000d0 3f 71 30 bd 7a 4d 18 3d 20 15 0c 3d 20 50 cf 3c
       -0.04307675 0.037183262 0.034199834 0.025306761
0000e0 96 57 a9 bc 62 98 24 bc 8c f4 ff 3c 39 b8 31 bd
       -0.020671647 -0.0100460965 0.031244539 -0.04338858
0000f0 87 92 39 3d 23 31 b5 bc 9c af f9 3c ad 52 d6 3a
       0.045305755 -0.022118157 0.030479245 0.0016351544
000100 c5 11 d3 3b e3 9e 13 bd 28 47 60 3c 6f 42 36 bd
       0.0064413273 -0.036040198 0.01368884 -0.04449695
000110 20 e5 fa 3c 55 ec bc bc 05 cb 5a 3d d9 64 80 bc
       0.030626833 -0.02306191 0.05341627 -0.015673088
000120 06 00 67 3c 6f 4e 6b bc fd bf 7d bc e4 06 7b bd
       0.014099127 -0.014361962 -0.015487668 -0.06128587
000130 65 73 02 3d 6b 4e 1e 3d f9 d0 34 3d 6a 1b 92 bb
       0.03184833 0.038649004 0.044144604 -0.0044588344
000140 a3 34 39 bd 2a 58 5b bd 8c 3f 24 3c 3b ad 61 bd
       -0.045216214 -0.053550877 0.010024916 -0.055096846
000150 71 be df ba 55 76 f9 3b 22 19 11 3d 8d bf 08 3d
       -0.0017070306 0.007612983 0.03542436 0.033385802
000160 99 25 4d 3b b3 8a 50 bd e1 5b 36 3b 32 8d 0a bd
       0.0031302928 -0.050913524 0.002782576 -0.03382606
000170 bb a1 8a bc cc 88 41 3c 93 3b 8c bc 94 62 1d bc
       -0.016922822 0.0118124 -0.017118251 -0.009606022
000180 b5 2c 08 3d fc 47 7d 3d 77 d7 3a bd ab 30 25 bd
       0.03324576 0.061836228 -0.04561564 -0.040329617
000190 16 1e 32 bc 09 81 ce 3c c4 69 00 3d 25 aa d9 3c
       -0.010871431 0.025208013 0.031350866 0.026570389
0001a0 c5 d0 cb bc 2b 43 a1 3c 01 ce e9 bd d6 f6 e4 3c
       -0.024879823 0.019685348 -0.11416245 0.027949732
0001b0 88 95 72 3c a5 cc 94 3c fb 9d ad 3b 1b b9 ac 3c
       0.014806159 0.018163988 0.0052983738 0.021084359
0001c0 67 69 c6 bc 75 21 3f 3d ba 50 94 3c 08 5c fc 3b
       -0.024220182 0.046662766 0.0181049 0.0077014007
0001d0 f0 09 22 bc 13 23 98 bd ba b4 f7 3c ad 9d d1 bc
       -0.009890065 -0.07428565 0.030237544 -0.025587881
0001e0 a7 8b a8 3c 96 a7 57 bb 48 2e f4 3b 9f ae 47 3d
       0.020574404 -0.0032906285 0.007451806 0.048750516
0001f0 52 52 30 3d d3 13 23 3d b3 9b 6b 3d 75 5f 7b bd
       0.043047257 0.039813828 0.057521533 -0.06137033
000200 96 8c 85 3b 5d dd 11 3d a6 37 af bc 89 f5 7f bd
       0.004075597 0.0356115 -0.02138884 -0.06249002
000210 34 88 05 3d a2 5e 10 3c d9 6e 1c bd cb df d0 bc
       0.032600597 0.008811625 -0.03819165 -0.025497338
000220 78 dc 24 bc ec b9 28 3c 46 59 39 bb 78 ef 8a 3c
       -0.0100623295 0.0102982335 -0.002828197 0.01695989
000230 aa ec 81 3a 92 a8 d3 bc c6 64 ff 3c 31 cb 6b 3c
       0.000991245 -0.025837217 0.031175982 0.014391706
000240 32 95 91 3b 37 da 0e 3c bc d3 cf bc 0e 54 03 3d
       0.0044428343 0.008719019 -0.025369518 0.032062583
000250 f9 95 38 3d 19 1f 4e 3d 27 f5 5c bd 0e 23 94 3d
       0.0450649 0.050322626 -0.053944733 0.07233249
000260 cd 47 8e bd 1e a7 67 3d 1e 26 0e bc cd 55 b9 bc
       -0.06947289 0.05655586 -0.00867608 -0.02262392
000270 71 7b 42 bd 99 4b 32 3c 7e c0 60 3d 80 b4 97 3c
       -0.047481004 0.010882282 0.054871075 0.018518686
000280 bd 93 26 bc 66 24 28 bd 2d 70 ac 3c a8 08 f2 3c
       -0.0101670595 -0.041050337 0.021049583 0.029545143
000290 00 da 08 bd 17 69 e4 3c 1f c4 0e 3d b7 c0 f1 bc
       -0.033411026 0.027882142 0.034855004 -0.029510839
0002a0 ce f1 e4 3c 58 ef eb 3c 79 ac 62 3c c1 03 29 3d
       0.027947333 0.028800651 0.013835066 0.041263346
0002b0 60 fe b6 bc ce 32 d4 3b 49 67 32 bd 26 e0 cc 3c
       -0.022338092 0.006475783 -0.04355553 0.025009226
0002c0 a4 be 1f bd e6 0f f8 3c 72 41 29 bc 68 9b ea bc
       -0.03900017 0.030281018 -0.010330545 -0.028638557
0002d0 a2 c7 75 3c d7 03 a7 3c 31 02 cd bc 0b 3f c8 bd
       0.015001209 0.020387573 -0.025025459 -0.097776495
0002e0 c6 57 ef 3b 94 e7 9c 3c 80 be 87 b7 ff b6 18 3d
       0.0073041646 0.019153394 -1.6181963e-05 0.037283894
0002f0 09 3b 30 3d 2c 57 3b 3c 5f 80 f3 ba 38 5a 4b bc
       0.04302505 0.011434358 -0.0018577686 -0.012411647
000300 f0 0c fd 3b 44 2f c8 bb de 95 c0 bc 62 a2 21 3d
       0.0077224895 -0.00610915 -0.023508962 0.0394615
000310 81 47 5f 3c 13 f1 eb 3c 7e 2b 84 3c 8e 0c 25 bb
       0.013627888 0.028801477 0.01613402 -0.0025184485
000320 95 b5 36 3c 7f a8 ce bc 10 42 92 bc 1c 81 fa 3c
       0.011151691 -0.02522683 -0.017853767 0.030579142
000330 0e 0a 72 bd 19 81 68 bc 97 46 0a 3d eb 85 62 3c
       -0.05909162 -0.0141909355 0.033758726 0.013825874
000340 97 1b 22 3d c5 ea eb bd bf a9 7a 39 e1 78 7a 3b
       0.039577093 -0.11519388 0.00023905093 0.0038219022
000350 9e ec 84 3b 5b ec 91 3c d8 56 c6 3c 9e 78 28 3c
       0.0040565273 0.017812898 0.024211332 0.010282664
000360 3e 09 94 ba e8 8f 6d 3d b5 bb 9f 3d 7b 8b 87 3d
       -0.0011294258 0.057998568 0.07799474 0.06618401
000370 ca 44 24 3d c5 55 87 3c 1b 61 30 bc 13 a6 92 3c
       0.040104665 0.01652039 -0.010765339 0.017901456
000380 f7 8e e1 3b 78 02 41 bc 56 f5 31 3c ea a8 e7 3c
       0.006883498 -0.011780374 0.010861715 0.028278787
000390 cc 0d 39 3d e5 94 56 bc 74 86 0e 3d 6d 26 1c 3d
       0.045179173 -0.013097023 0.034796193 0.038122583
0003a0 b4 fd 8f 3d 2a bb 93 3c e7 9e 19 3d fe d2 36 bc
       0.07030812 0.018033583 0.037505057 -0.011158703
0003b0 d4 21 ca bd a3 91 50 3c 89 ba 17 3d 9e 22 99 3c
       -0.098697335 0.012730035 0.03704313 0.018693265
0003c0 cd b8 cc 3c 6b 6a 74 bc fa e4 b8 bc 94 f5 61 3a
       0.024990464 -0.01491795 -0.022570122 0.0008619663
0003d0 e8 4e 90 3c e5 06 d5 3c f3 2d 2a 3d 59 a4 db 3c
       0.01761575 0.026004264 0.041547727 0.026811766
0003e0 ba cd 23 bd f3 e5 ba 3c 2a e9 27 bc 2e 21 a2 3c
       -0.039991118 0.022814726 -0.010248462 0.019791212
0003f0 d9 5c a6 bb 6e 5c 21 bc 3b 1c 31 3c 4e f3 ef 3c
       -0.0050769863 -0.009848697 0.010809953 0.029290821

discrete_action_output_shape f4 [1, 3]
000000 00 00 40 40 00 00 40 40 00 00 40 40
       3.0 3.0 3.0

network_body._body_endoder.seq_layers.0.bias f4 [256]
000000 ea 83 ea bd 1a 69 04 3c 03 6c 00 3d e5 9b 42 3c
       -0.11450942 0.008081699 0.031353008 0.011877988
000010 86 90 ee bc 94 3f 65 bc d7 2d 17 bd e9 71 c5 3b
       -0.029121649 -0.013992209 -0.03690895 0.006025542
000020 b2 e3 52 3d cb a9 9e bd ab 3e 3d bd f1 ec 1d bd
       0.05148668 -0.07747229 -0.046202343 -0.038556043
000030 db 07 80 bd c5 f6 3c bd 21 97 bf bc 42 76 04 3d
       -0.06251498 -0.046133775 -0.023387494 0.032339342
000040 9c 4e e0 bd ae 56 c6 3d 70 70 f4 3c 1d 22 8d 3d
       -0.109524935 0.096845016 0.02983877 0.06891272
000050 95 27 58 3d 5a aa 77 3c b0 50 bb 3d c6 81 d9 3a
       0.052772123 0.015116299 0.09146249 0.0016594462
000060 f7 9a 3e bd 6c 9f b9 bd 4f 11 9d bd d9 8f 64 bd
       -0.046534505 -0.090636104 -0.07669317 -0.055801246
000070 6f 19 80 bd 17 c4 bd 3d 64 b5 e2 bc 0f 62 04 3d
       -0.06254851 0.09265917 -0.027674384 0.03232008
000080 96 f6 84 bd 1f 27 cd bd 06 1c 6f bc fd 5b 68 bd
       -0.06492345 -0.100172274 -0.014594084 -0.05672835
000090 5c c8 2a 3d ca 5e c2 3b ce 62 50 3b 71 f7 23 3c
       0.041694984 0.00593171 0.0031797173 0.010007725
0000a0 f3 25 c5 3c 7d ea 37 b9 ee ed 76 bd 4c 29 a3 bd
       0.024065947 -0.00017539594 -0.0602855 -0.07966861
0000b0 df 78 64 3d 13 12 7a 3c 23 c2 e3 bc a1 4b 8e bc
       0.055779334 0.015263098 -0.027802533 -0.017370047
0000c0 89 b0 ab bc d0 00 e7 bc 5f 38 d6 3c e2 4a b6 bb
       -0.020958202 -0.02819863 0.026149927 -0.005563126
0000d0 20 31 8c bc cf fd 8d bd 18 3a af bc f5 4e b0 3d
       -0.017113268 -0.06933176 -0.021390006 0.0860881
0000e0 52 16 6b 3d 3c f8 1e bb af c7 83 3c 28 e1 68 3c
       0.057394333 -0.0024256846 0.016086427 0.014213838
0000f0 db e3 68 bd 8c fc 82 3b 3e 7f 82 3c 74 cc 26 bd
       -0.056857925 0.003997391 0.015929814 -0.040722325
000100 3e 27 a2 3c 53 57 66 bd 30 a6 84 bd e3 29 b2 bd
       0.019794103 -0.056235623 -0.0647701 -0.086993955
000110 99 c5 44 3b e2 01 4d bd c8 ab 9b bc ed c0 24 3b
       0.0030025004 -0.050050624 -0.01900281 0.0025139407
000120 6f ea 46 3b d1 0d a4 3d 2b 78 b8 3d 40 c3 85 3d
       0.0030352136 0.08010448 0.09007295 0.065313816
000130 86 c3 85 bd 1f 41 aa 3d 00 b9 30 bd d4 dd 2b bc
       -0.06531434 0.08313202 -0.04314518 -0.0104899
000140 3c a5 6d bb 43 6b 47 3d a0 85 21 bc 78 e3 59 bd
       -0.0036261817 0.048686277 -0.009858519 -0.053195447
000150 97 18 35 3d 04 2e 46 bd 63 f3 90 bc 04 cf 7c bd
       0.044212904 -0.048383728 -0.01769418 -0.061720863
000160 c8 35 e7 3b f2 58 86 bd 49 31 e2 39 b1 2b ab 3c
       0.007055972 -0.06559934 0.000431428 0.020894857
000170 13 c0 18 bd 26 82 6b 3c ed 1a 9a 3c 27 1a 8e bd
       -0.03729255 0.0143742915 0.018811667 -0.06938582
000180 88 2a df 3c 85 80 ee bd 71 c4 8d bd e0 bf 70 3d
       0.02724196 -0.11645607 -0.06922234 0.058776736
000190 f6 66 96 bd ef 78 28 3d 5a c4 2a bd 34 ae 5e bd
       -0.07343857 0.041130956 -0.04169116 -0.05436535
0001a0 cd c1 4c 3c f5 11 c8 3c e6 30 01 3d 87 3a 15 3c
       0.012497378 0.024422625 0.031540774 0.009108192
0001b0 b6 b5 4b bd 48 7d 8c bc 78 57 c5 bc b0 54 7d 3d
       -0.04973384 -0.017149583 -0.02408956 0.061848342
0001c0 bd 81 12 be 97 0a b5 3d 74 6c 42 3d ad bf a1 bc
       -0.14307304 0.088399105 0.04746671 -0.019744718
0001d0 be ac 89 3c 50 5f bd bc 0a 5a 2b bd 47 a5 0b 3d
       0.016806003 -0.023116738 -0.041833915 0.034093168
0001e0 e9 7a 12 bd 5c 90 19 bc 2c 4b d3 3a 89 12 51 3d
       -0.035761748 -0.009372797 0.0016120425 0.051043067
0001f0 86 53 91 3d 72 a8 66 3c 4b bf 8c bc 16 99 59 3d
       0.07096009 0.014078246 -0.01718106 0.05312451
000200 93 de 04 bd 2c 7d 10 3d f5 60 ac 3d 77 fb 0f bd
       -0.032438826 0.035275623 0.084169306 -0.035151925
000210 28 53 99 bd 7d bc ed 3c 67 1d ae 3c c9 ea a3 3c
       -0.07486564 0.029020542 0.021254255 0.020009415
000220 c9 e4 c7 3c 39 8b a7 3c 44 45 e4 bc 01 99 9a 3c
       0.024401085 0.020452129 -0.02786506 0.018871786
000230 47 1d 0e 3d 71 79 d7 3c 8b a5 74 bd a7 77 77 bd
       0.03469589 0.026303025 -0.059728187 -0.060416844
000240 62 7e 37 bd c7 0a b0 bd 1c 98 6c 3d 2c d2 17 bd
       -0.044798262 -0.085958056 0.05776225 -0.03706567
000250 32 02 25 bd f4 7d 1c bd c4 be 15 bb 44 e1 59 bd
       -0.040285297 -0.038206056 -0.00228493 -0.053193346
000260 a2 f5 da bd 5d 71 35 3d fc ff 34 3d d2 ab 39 3b
       -0.10691382 0.044297565 0.04418944 0.0028331173
000270 77 87 69 3d 83 1f 1f bd 14 4f 0c 3d ca 11 4e 3c
       0.057013955 -0.03884841 0.034255102 0.012577483
000280 19 76 68 3c e2 da 01 3d 9c ad 3f bb 15 ed ae 3a
       0.014188313 0.031702884 -0.0029247766 0.0013345802
000290 48 96 ba 3c 83 6b bc bd 1c 21 a1 bc 87 16 45 bd
       0.022776738 -0.09200194 -0.019669108 -0.048117187
0002a0 b7 da 66 bc 32 c7 81 3d ad 4f b5 3c 3a 85 e8 3c
       -0.014090232 0.063368216 0.022132719 0.02838384
0002b0 9a eb 56 3c 96 9c c3 3b 12 fd 5c 3d 7c bc cc bd
       0.013117695 0.005969594 0.053952284 -0.09996888
0002c0 41 d6 25 3c b0 e6 8b bd 4e 2c 0f 3d 98 62 97 ba
       0.010121883 -0.068311095 0.03495436 -0.0011549769
0002d0 60 37 dd 3c d1 49 74 bd db 88 a0 bc 24 d0 3f bd
       0.027003944 -0.05964071 -0.019596508 -0.046829358
0002e0 3b 2f 65 bd 8e a4 b5 bd 60 b0 78 3b e4 38 82 3d
       -0.055953246 -0.08869277 0.0037946925 0.06358507
0002f0 b2 e4 9b bd 42 22 2a bc d9 0b 86 bc b0 b3 85 39
       -0.076119795 -0.010384144 -0.016363071 0.00025501614
000300 6d d6 c3 b9 cf 34 81 bd ec 9f 86 bb f9 de 87 bd
       -0.00037353058 -0.063089006 -0.0041084196 -0.066343255
000310 81 2f 43 3c d2 02 6a bd 29 f2 c5 3d 5a a3 2e 3d
       0.011913181 -0.057131596 0.09665329 0.042636253
000320 23 d2 8b bd ec 84 8d bd 6a 87 11 3d 13 c5 d3 bc
       -0.0682719 -0.069101185 0.03552953 -0.025850808
000330 63 59 fd 3b f0 1f 16 3c 5a 5c 97 bd da 92 e8 3d
       0.007731603 0.009162888 -0.073906615 0.11356135
000340 26 90 05 be f5 ca 15 3c 45 66 6d bc 62 57 4d bc
       -0.1304327 0.009142627 -0.014489715 -0.012533041
000350 6a fa 09 bc 50 5a d8 3d 3c 6e 54 bd ce 02 9d 3c
       -0.00842152 0.10564101 -0.05186294 0.019166376
000360 09 ba 4e 3d ab c2 cf bc d9 2a 80 bd 6e df 96 bd
       0.050470386 -0.02536138 -0.062581725 -0.073668346
000370 71 1b bf ba 30 ad d7 3d f3 7e 9e bd 5d af 96 3c
       -0.0014580322 0.1053108 -0.077390574 0.018394167
000380 e5 09 5e bd 0c 11 01 bc 89 07 18 3d 84 4d 2c 3d
       -0.054208655 -0.007877599 0.03711656 0.042066112
000390 c0 5e 26 bd 1a 8d 6b 3d fd c6 9c 3c 76 f6 b8 3b
       -0.040617704 0.05750761 0.019137854 0.005644615
0003a0 fa 63 87 bc 79 0d 79 bd a5 6e 8d bd 45 e8 9b 3d
       -0.016527165 -0.060803864 -0.069058694 0.07612661
0003b0 9d 8d c6 bc d5 89 e0 3b af f5 4e 3d 85 0c 93 3c
       -0.024237448 0.0068523684 0.05052727 0.017950306
0003c0 1b fd b8 3b 41 6b 9a 3c b5 58 c1 bc a9 49 36 3d
       0.005645407 0.01884997 -0.02360187 0.04450384
0003d0 6e 44 a3 ba 14 c5 18 bd ae a3 7e 3d 1c 07 0f bc
       -0.0012456307 -0.037297323 0.062167816 -0.008729722
0003e0 d0 18 8f 3d 7c 03 a6 3d fb 32 1d 3d f7 4b 90 bd
       0.069871545 0.08106133 0.038378697 -0.07045739
0003f0 ba a4 de 3c fe 25 88 bd bf 62 9d bd 15 a5 c9 3c
       0.027178157 -0.066478714 -0.0768485 0.02461485

network_body._body_endoder.seq_layers.0.weight f4 [256, 21]
000000 6b 74 62 be 09 b9 86 bd f2 68 5a bc 28 21 42 3e
       -0.22114722 -0.065782614 -0.013330685 0.1895796
000010 c7 88 00 bc 1b 5b d9 bd 94 09 4f be 23 7d e7 bc
       -0.00784511 -0.1061308 -0.20218498 -0.028257912
000020 07 a5 01 bf 70 b2 c4 be 5c d6 0c 3f 78 49 5f be
       -0.50642437 -0.38417387 0.55014586 -0.2180537
000030 48 97 58 bd 04 4b ed be cc 68 17 bd 5d 9b e7 be
       -0.052878648 -0.46346295 -0.036965176 -0.4523572
000040 16 3f bb 3e 5b 5e db be 4f 91 8f 3e 40 0d 7e be
       0.36571568 -0.42845425 0.2804055 -0.24809742
000050 9b 5d 36 3e 29 9c 8b 3e 13 74 c3 3e fa 6a f1 3d
       0.17809145 0.27267578 0.38174495 0.11787982
000060 94 b8 2b 3d 81 d7 eb 38 1b 09 e4 3e b4 74 07 3e
       0.041924074 0.00011245814 0.44538197 0.13228112
000070 5b 7c d6 be b5 18 68 3d ab 25 bf 3d 3f e3 ac bd
       -0.4189175 0.056664187 0.093333565 -0.08441781
000080 91 0b bf bd 41 d3 ba 3e ba 0b 47 bd 1d f0 b0 bb
       -0.09328378 0.364893 -0.048595168 -0.0053997175
000090 c3 9d 97 3e c4 ef a6 3e 9c 57 9f bc 77 8b 6b be
       0.2961255 0.32604802 -0.019450955 -0.2300242
0000a0 9f 27 ac be 2c 8b b0 3d 0e 62 da 3d 25 7b e8 3c
       -0.33623978 0.08620295 0.10663234 0.028379032
0000b0 af ce 6f 3d dd a5 52 be dd 15 f9 3d 30 d6 2b bd
       0.05854672 -0.20571084 0.12162373 -0.041952312
0000c0 f2 43 97 3d 78 18 37 3e 44 cd 98 3e 0f 81 b8 be
       0.073860064 0.17880428 0.29844105 -0.36035964
0000d0 9c 10 59 be 1c b0 3e 3e e9 b3 75 bc c8 ad 0a 3f
       -0.21197742 0.18621868 -0.014996507 0.5417142
0000e0 3a 83 d6 bd 14 53 76 be 9c cb e8 bd 93 1e 1d 3e
       -0.10474248 -0.2405513 -0.113669604 0.15343694
0000f0 a9 14 e2 3d a6 b5 07 3f 6d 81 8b bb 7a 70 94 bd
       0.11039097 0.5301155 -0.004257372 -0.07248016
000100 bc 41 30 bd b7 fe 08 be 03 a7 97 bc 99 2e 13 bd
       -0.04303144 -0.13378416 -0.018512255 -0.03593311
000110 6d a9 33 3e 3e 1b 4e be 52 07 19 3f d5 4d c3 be
       0.175451 -0.2012758 0.59776795 -0.3814532
000120 f3 7b ed 3e 9f bf e2 bd db 85 cc 3e f4 14 08 3e
       0.46383628 -0.11071705 0.39945874 0.13289243
000130 a8 22 67 bd a8 7f da 3e 9b c0 a2 3d 54 a8 ba 3e
       -0.056429535 0.4267552 0.07946893 0.3645655
000140 be fa 21 be 72 14 ba 3c 2a d3 00 bf 1e f2 ca bd
       -0.15818307 0.022714827 -0.5032221 -0.099094614
000150 e7 72 90 be 99 8f b0 3d 1c 9f 7a bc 09 9b 03 bd
       -0.28212664 0.08621139 -0.015296724 -0.032130275
000160 03 9b bf bc e1 c9 81 bd 05 f6 5a 3e bf 4b 1c 3f
       -0.023389345 -0.063373335 0.21382912 0.6105308
000170 60 3f 4c be f9 d0 f7 3b 1b 42 f0 bd ee 95 8d be
       -0.1994605 0.0075627533 -0.117313586 -0.2765345
000180 35 af c0 3d 37 71 d4 bd 42 e7 ea bc 06 39 18 bd
       0.09408418 -0.103731565 -0.028674725 -0.037163757
000190 d3 7c d0 3d 7f 56 08 be e0 68 3e bd 42 f6 c3 3e
       0.10180058 -0.13314246 -0.046486735 0.38273817
0001a0 77 fa bd 3e 70 97 89 be ad 39 02 be 56 26 cd 3e
       0.37105152 -0.2687335 -0.12717314 0.4006831
0001b0 0f 7a e2 3d 3a 81 ba 3d 14 66 a8 be 57 3f c5 3d
       0.11058437 0.09106679 -0.3289038 0.09631222
0001c0 7f 2d 8a be 9b f9 be bc be 86 98 3e 69 5c de 3e
       -0.26987836 -0.02331238 0.297903 0.43429878
0001d0 59 0c b7 3d 6b 62 94 3e c2 1d 7b be 34 d3 e1 3e
       0.08937902 0.28981337 -0.2452307 0.44106448
0001e0 81 9e 7f 3e dd 79 ab 3e 7a 5c 31 be 9b ae ee bc
       0.24962808 0.33491412 -0.17320433 -0.029135993
0001f0 67 49 14 be a1 a4 91 3d b9 9f b4 be c0 15 1a be
       -0.14481126 0.071114786 -0.3527811 -0.1504736
000200 d8 b3 81 3d 90 88 46 be 6b a8 25 be e4 9e e8 be
       0.063331306 -0.19388032 -0.16177528 -0.45433724
000210 ea 8d b1 3e 1e 3a 29 3f 4d 2c 59 bd 0a f8 b2 3e
       0.34678584 0.66104305 -0.053020764 0.34954864
000220 2a a3 74 3d 5b 89 f9 3d d6 d4 ec be 99 17 a7 3d
       0.059725918 0.121844016 -0.4625613 0.08158798
000230 3c 4f 48 3e af a2 31 bc dc 26 23 bd e7 50 a3 3e
       0.19561476 -0.010842009 -0.03983198 0.3189766
000240 16 3b 22 3d fa 78 cd 3e ac 12 5d 3d dd a7 de 3e
       0.03960713 0.4013136 0.053972885 0.43487445
000250 fd 79 cc 3e f4 b5 1b bc 5f e8 a6 bc 5a 13 09 bf
       0.3993682 -0.00950383 -0.020374475 -0.53545153
000260 61 53 a9 3d 9b b3 98 bd 1e 69 94 be bb b1 e6 3d
       0.082678564 -0.07456132 -0.28986448 0.11264368
000270 44 0b 4a bd af 2b 14 3f 1c 15 10 bd 20 c6 60 bc
       -0.04932715 0.57879156 -0.03517638 -0.013719112
000280 de cc c5 3e 44 90 75 3e 4b a4 11 3e 67 93 a8 3e
       0.38632864 0.23980814 0.14222829 0.3292496
000290 39 0d ae be 12 ee 7c 3e b4 fc 3c be 25 a9 87 bd
       -0.33994463 0.24700192 -0.18455774 -0.06624059
0002a0 8f 2c fe be 01 c9 3f 3d c7 55 94 be 92 ab 09 bd
       -0.4964337 0.04682255 -0.28971693 -0.033610888
0002b0 95 b2 4e 3e 97 64 1f be 6b 07 88 3f 35 7f 15 3e
       0.20185311 -0.15565716 1.0627264 0.14599307
0002c0 ec 9a f7 bb a3 dd 2f be ac 00 2f 3e 78 af 01 be
       -0.00755631 -0.17174391 0.170901 -0.12664592
0002d0 95 10 57 be b9 29 95 3d e1 a0 40 bd a4 03 20 3e
       -0.2100242 0.072833486 -0.047028426 0.15626389
0002e0 8c 5b 92 be 40 b3 10 3f 36 8a 2e 3d db 51 3c 3d
       -0.2858547 0.56523514 0.042612277 0.0459765
0002f0 67 2f 16 3e 20 3a af bd d3 43 c4 be d4 cd 5f be
       0.1466652 -0.08556008 -0.38332996 -0.21855861
000300 bf 11 a0 3c d5 d2 7e be 32 f4 9c 3d 5d 71 80 be
       0.019539712 -0.24885114 0.07663764 -0.2508649
000310 73 d1 50 3e 85 21 13 3d 51 e8 ca 3e 31 d2 87 bd
       0.20392399 0.03592064 0.39630368 -0.06631888
000320 69 9a db be 8f 96 4b 3d 6e 85 a0 be 0a 14 02 3e
       -0.42891243 0.04970413 -0.313518 0.12702957
000330 d4 45 ee bd c6 cb 32 be 52 cb 35 3e e1 16 5a 3e
       -0.116344124 -0.17460546 0.17753342 0.2129779
000340 34 4e ab bc 2f 26 42 be 20 51 de bd 20 49 56 bd
       -0.020911314 -0.18959878 -0.10855317 -0.05231583
000350 52 03 ff bd 63 9f b6 3e d5 93 dd be dc 97 7e be
       -0.12451805 0.35668477 -0.4327685 -0.24862617
000360 28 2c 00 3e f5 7d 61 be 6a bc c9 3d 25 3b 5f 3e
       0.12516844 -0.22020705 0.0985039 0.21799906
000370 f9 70 ed bd df 90 d0 be 13 7f 3a be fb 1a c5 3d
       -0.115938134 -0.40735528 -0.18212537 0.09624287
000380 46 4f 40 bd 4d e8 05 be 4b 72 99 3e 06 e7 e1 be
       -0.0469506 -0.13076897 0.2997001 -0.4412157
000390 d4 62 e4 3a b5 98 b3 bd 8c d5 82 3c 12 ad 67 3c
       0.0017424473 -0.08769361 0.015970968 0.014140384
0003a0 1f 00 53 be c6 b9 85 3e 5b de f2 bd b7 20 d6 3d
       -0.20605515 0.26118296 -0.11858817 0.104554586
0003b0 92 18 1f 3d e6 9d a9 3e cd 8e 68 3e 2c 02 a5 3e
       0.03884179 0.3312828 0.22710724 0.3222822
0003c0 16 71 42 bb 4d 79 e1 3d a7 65 c6 3d 10 b3 13 bf
       -0.0029669455 0.110094644 0.096873574 -0.576951
0003d0 7e 93 9a bd 91 20 93 be cf 27 91 3e 7f 41 ce 3d
       -0.07547663 -0.28735784 0.28350684 0.10071086
0003e0 f6 57 84 3e a7 4f f1 3d 74 5a d6 3e 7e 7f d9 3e
       0.2584836 0.117827706 0.41865885 0.4248008
0003f0 e2 67 5d bd 77 25 36 be 81 43 33 3e 1e 43 35 be
       -0.05405415 -0.17787729 0.1750622 -0.17701384

network_body._body_endoder.seq_layers.2.bias f4 [256]
000000 31 b8 8c 3c 58 b8 c4 bb dc de fd 3c 94 3e a9 3c
       0.017177673 -0.006003421 0.030990057 0.020659722
000010 ad 7e 9f bc fe a5 35 3d ea b8 c8 bc b0 ea aa bd
       -0.019469583 0.044347756 -0.024502236 -0.08345544
000020 ee b8 35 3d fc 39 e7 3a 52 4c d7 3c ef a2 a3 bd
       0.044365816 0.0017641182 0.02628151 -0.079900615
000030 a3 95 9c 3c 2c 4d a9 bd 7f 95 a2 bc 7f a6 dd bd
       0.019114321 -0.082666725 -0.019846676 -0.10822772
000040 73 2a 04 bd 1e 24 1f bd 43 02 18 bd 72 f8 a3 3c
       -0.032267045 -0.038852803 -0.037111532 0.020015929
000050 77 5e 17 3d 50 53 05 bd 10 11 7b bd 4b bc 4b 3a
       0.036955323 -0.032550156 -0.06129557 0.0007771893
000060 ad 93 ff 3a fd 74 f3 bc 2b a5 94 3d 0f 29 5a bd
       0.0019498967 -0.02971887 0.07258066 -0.053261813
000070 db 1c 9c 3c a6 7c af bc c7 b9 c4 bd 13 79 1c 3d
       0.019056728 -0.021421742 -0.09605747 0.038201403
000080 8f 68 16 3d 59 fe 57 bd 41 32 c6 bc 9b 91 40 bd
       0.03672081 -0.0527328 -0.024193885 -0.04701386
000090 b9 84 c0 bd 8e 52 85 bd a6 9c ae bd f1 a6 91 bd
       -0.09400315 -0.06509887 -0.08525972 -0.0711192
0000a0 21 d7 53 3c ca de eb bc 8d 47 8f bd d5 9f 04 be
       0.012929709 -0.028792758 -0.06996069 -0.12951596
0000b0 84 65 33 bb 78 3a 75 3d 79 67 91 3d 40 88 6d bd
       -0.002737374 0.059870213 0.07099814 -0.057991266
0000c0 e5 ee 6a 3c 27 4e 84 3d 52 49 4d bd a4 f2 47 bc
       0.014339183 0.06460219 -0.05011875 -0.012203846
0000d0 14 01 40 bd ab c8 f5 bc 33 e4 de 3c 71 d4 d1 bd
       -0.04687603 -0.030002913 0.027208423 -0.10245598
0000e0 aa b6 7c 3d 00 af 9f bd 00 62 0c bd 5e 9b 85 3c
       0.06169764 -0.077970505 -0.034273148 0.016309436
0000f0 04 af eb 3c 7a a9 f1 bd 05 59 f0 bd 2b 52 31 bd
       0.028769977 -0.11799903 -0.11735729 -0.043291252
000100 a9 f2 9c bd 6e c9 4b 3d cc 73 9f bd 13 3f ae bd
       -0.07663471 0.049752645 -0.077857584 -0.08508124
000110 e1 92 17 3d 64 82 4f bc 08 51 d5 bd 12 82 2d bd
       0.03700531 -0.012665365 -0.10415846 -0.042360373
000120 92 4e 8a 3d 0b 7b 38 bc 13 19 58 bd df b0 d7 bd
       0.06753267 -0.0112598045 -0.052758288 -0.10531782
000130 bf 36 87 bd 0f e2 b1 3d e1 34 c4 bc b2 15 81 3d
       -0.06602239 0.086856954 -0.023950996 0.06302966
000140 6f 41 2a 3d 08 b6 9b bd 64 dc 3b bb 98 4c b4 bd
       0.04156631 -0.07603079 -0.0028665299 -0.088036716
000150 73 65 97 bd dc 01 89 3d 09 35 8b bd f3 d2 42 bd
       -0.07392397 0.06689808 -0.06797225 -0.047564458
000160 63 a4 82 3d 00 b6 62 3d 1e 8d 74 bd c5 b6 ef bc
       0.063790105 0.05534935 -0.059704892 -0.029261956
000170 c2 a7 47 bc 61 28 d7 3c 87 da 62 3d 36 cd db bc
       -0.012185993 0.026264371 0.055384185 -0.02683125
000180 5d 88 15 bc 0e 40 12 3d d6 5f ff bd cd 50 06 3d
       -0.00912675 0.03570562 -0.12469451 0.0327919
000190 cc 5d a6 3d a1 80 6e 3d 0a 60 74 3b a6 bb 51 3c
       0.08123359 0.05822814 0.003728869 0.0128010865
0001a0 f0 4c 36 3c b2 37 79 bc f6 6f 9d 3d 2a ba 84 bb
       0.011126742 -0.015211033 0.076873705 -0.004050513
0001b0 55 9e 8e bd 25 05 17 3d af 41 42 bd ab 61 c9 bd
       -0.06963793 0.03687014 -0.047425922 -0.09833082
0001c0 2f ca 0f bd 9e 07 33 bd 88 4e bd 3d 41 64 a9 3c
       -0.035104927 -0.043708436 0.09243494 0.020677688
0001d0 82 8d 40 bc 52 00 55 3d 9f 8b cb bd 35 a1 9d bd
       -0.011752488 0.05200226 -0.0993874 -0.076967634
0001e0 e2 85 75 3d b1 50 48 3d f8 4d 57 bd b7 66 63 bd
       0.059942134 0.04890508 -0.05256459 -0.05551788
0001f0 66 2f 06 3e 69 72 cd 3d e8 0b dc 3d cd a3 3d bc
       0.13104019 0.10031588 0.107444584 -0.011574698
000200 b0 15 c7 3d b2 69 c9 ba 11 9c f1 bc 84 a8 44 3b
       0.097209334 -0.0015366583 -0.029493364 0.003000767
000210 68 21 1c 3d 7e 26 08 bd ce bc f0 bc f3 5f 5d bc
       0.038117796 -0.033239834 -0.029386904 -0.013511646
000220 48 ed a2 bd ee 8c 8a bd 93 24 b9 3d 93 67 93 bd
       -0.07955414 -0.067651615 0.09040179 -0.071974896
000230 c3 97 ef 3c b9 aa 72 3d ee 04 ba b7 0b 1b f8 bc
       0.02924717 0.059244845 -2.2175223e-05 -0.030286333
000240 bb d4 cf bd 23 76 3c 3d e8 a0 28 3d 55 dc fd 3c
       -0.10147997 0.0460111 0.041169077 0.030988852
000250 ca 2c 82 bd c4 2f fd bb d0 85 8f bb c7 60 e1 3c
       -0.06356199 -0.0077266414 -0.0043799654 0.027511967
000260 73 34 cb bd e1 dc 52 3d 15 73 47 bc db e3 18 3d
       -0.09922113 0.051480178 -0.012173434 0.037326675
000270 9d f0 37 3d 13 34 d6 bb 73 5f 65 3d e7 37 90 3d
       0.0449072 -0.0065369694 0.05599923 0.070419125
000280 60 50 c5 bd ff 9c 2e 3c c5 64 7f bd 7f d4 0e bd
       -0.09634471 0.010657548 -0.06235196 -0.03487062
000290 54 45 c7 bd 53 2e 5c bd 03 ab ac 3c 9c 2a c9 3d
       -0.0973002 -0.053755116 0.021077638 0.0982258
0002a0 92 79 c7 bc ff 34 c3 bd 3b e3 32 bd db 55 ba 3c
       -0.024349961 -0.095315926 -0.043673735 0.022746017
0002b0 6a 2f c6 3c ea 9b 95 3d eb cc 75 3d 7f ad a1 3d
       0.02419253 0.07305129 0.060009878 0.0789442
0002c0 9f 6d 55 bd ac 4c 98 3c 40 05 91 3b bc 0b c2 bc
       -0.052106496 0.018591247 0.0044256747 -0.023687236
0002d0 29 21 bb bd 14 5d 4c bd ef ad 16 bd 17 18 e2 3b
       -0.09137184 -0.049893454 -0.03678697 0.0068998444
0002e0 58 51 65 bc 39 f1 5b bd a0 e6 8e 3d d7 b9 58 3d
       -0.013996445 -0.053696845 0.06977582 0.052911606
0002f0 cc 52 d7 3d 31 ae e5 bc 90 56 11 3d 3a 00 66 bc
       0.10513839 -0.028037162 0.035482943 -0.01403814
000300 98 71 86 bd 4c 1e 86 3d 42 17 d8 3c 97 26 42 bc
       -0.06564635 0.065487474 0.026378278 -0.011850021
000310 78 7b 0f 3d 34 6e 89 bd e7 d3 bd 3b 5e 60 59 3d
       0.03502986 -0.06710473 0.005793083 0.05307042
000320 13 93 f6 3c 0d 82 a8 3d 6f 97 15 bc 9e a6 0e 3d
       0.030099427 0.0822793 -0.009130343 0.034826867
000330 8b c7 94 bd 25 2a 87 bc 23 2a a3 bb 96 92 c4 bd
       -0.07264622 -0.016499588 -0.0049793883 -0.095982715
000340 98 99 b6 3d fd 11 d9 bd a0 a8 8d 3d 21 84 94 bd
       0.089160144 -0.10599134 0.06916928 -0.07251764
000350 8d f0 1c 3d ae 6b cf bc 5c a3 17 bd 1b a6 e4 bd
       0.038315345 -0.0253199 -0.037021026 -0.111644946
000360 b5 92 e5 3c 2b 93 c9 3c ba e1 9b bc 84 09 ee bd
       0.028024057 0.024606308 -0.019028533 -0.11622909
000370 51 01 f5 bd b4 c6 bd bd 94 48 c5 3d e8 dd 9a bd
       -0.11963142 -0.09266415 0.09632984 -0.075618565
000380 f2 f5 bf 3c 4a f8 01 be 53 fb 64 bd da d3 53 3d
       0.023432706 -0.12692371 -0.055903744 0.05171571
000390 16 30 bd bd 73 b4 fb bc ef 67 19 3d 66 f9 87 bb
       -0.09237687 -0.030725693 0.037452634 -0.0041496037
0003a0 80 d5 ed bc 29 be 43 bd 6c 53 e6 3c c9 87 da ba
       -0.029032469 -0.047788773 0.02811595 -0.0016672547
0003b0 42 5a e1 bd 3f 01 7b 3d 82 0d a0 bd 8a 7d 7f bd
       -0.110035434 0.061280485 -0.078150764 -0.062375583
0003c0 8a 36 70 bb 58 d4 73 3c 54 83 2d 3d 1a 6b 0f be
       -0.0036653602 0.01488217 0.042361572 -0.140057
0003d0 22 8b 4c bb 02 2e 9d 3b 32 a5 91 bd 52 b6 9d bd
       -0.003121086 0.0047967443 -0.07111587 -0.077007905
0003e0 2c 9f 8c 3c 3e e0 bb 3d fe 05 3a 3d 07 a1 ad 3c
       0.017165743 0.0917363 0.04541587 0.021194948
0003f0 23 3a 6d bd bb ff d7 bd 97 01 7b 3d 0b 43 e1 bc
       -0.05791677 -0.105468236 0.061280813 -0.027497789
