Assets/NNModels/SpherePilotAgent.onnx (onnx, 562502 bytes, 15 tensors)

82 f4 [21]
00000000: 8c72 1b41 9398 e440 cb71 2c41 3f1c f640
00000010: 4c10 1f40 264b 8e40 66f5 3040 54e7 fc3d
00000020: 20ab bd3d 6625 e93d bcd2 563e 8709 593e
00000030: 4e02 5a3e fa4c 113d a772 9c3e 49d2 8441
00000040: 56b2 9f3e 2dba c240 e591 3141 dd06 dd40
00000050: b8bf e43e
9.715466 7.143625 10.7777815 7.690948 2.4853697 4.4466734 2.764978 0.1234881
0.09261155 0.11384086 0.20978826 0.2119504 0.21289942 0.0354738 0.30556223 16.602678
0.31190747 6.0852265 11.098119 6.907088 0.4467752

action_model._discrete_distribution.branches.0.bias f4 [3]
00000000: ae0f 433c bdd2 233d 21e8 85bd
0.011905594 0.039995898 -0.06538416

action_model._discrete_distribution.branches.0.weight f4 [3, 256]
00000000: e0f3 82bb 41c2 a93d a4a0 87bc 6459 35bd
00000010: 3402 bcbb 9bd4 053c fc24 c33c f940 4a3d
00000020: 8ab0 433c c104 0cbe 7dd0 3ebc 04c7 8bbc
00000030: 3eb5 983c 91df d6bd fcd7 803b b0e9 8d3b
00000040: fc61 fc3c d1a6 013d 0ede 05be 067e 053c
00000050: a0de bfbd 4545 413d 82e3 c5bd caca e93c
00000060: fb46 15bc 87d7 73bc eb32 be3b 817f 3cbd
00000070: 79b3 e4bd 5fca 993c a2ab b93d d34f 77bd
00000080: 1886 833d 7bfa c3bd a296 7f3c 2742 0c3d
00000090: f283 adbd fe0c c23a e6a7 173d afc8 60bd
000000a0: 3d02 903b f8e7 89bd 4628 a83c c0c6 05bd
000000b0: 22e2 a1bd 0cef 5ebd 1aa2 87bb 19ba 88bc
000000c0: 56f4 d13c bdbb c0bc e806 293c fe0b f3bd
000000d0: 0acf 42bd beaf 023d 0209 233d 13cb 21bc
000000e0: b29a 1bbc a4a1 b5bd 2447 2abb 5f03 193d
000000f0: f415 a33c 5f0d 12bd 1130 323d 8df3 2dbd
00000100: 8d45 5b3d d12a 76bc 6686 0f3d 78e8 5a3d
00000110: d5e7 d73b da35 9ebc 6107 913c 3763 19bd
00000120: d226 9f3b 6a29 853b 2cd1 823c da12 783d
00000130: 9969 873c 90b6 6dbc 8076 bd3b 4cfa 963c
00000140: f133 5bbd 46c7 493c d544 d43c 8f9a d0bd
00000150: 3b17 5d3d d8aa 753d 881c 213d b035 dd3a
00000160: 9ef6 a83a b823 25be 2a4f 833d d94a 0bba
00000170: 1546 49bd 4627 803d 3db1 6fbd 6cce 1fbb
00000180: fbcf 9abb e475 6e3d 1bc1 8cbd 9f56 af3d
00000190: 6f4f 033d 14b1 f03c 970a 5bbe a30a 54bd
000001a0: 6f66 bc3b 3d98 20bd 964a f4bc 45d6 fcbc
000001b0: 20cb 133c 3369 843c 87c3 0f3c 3208 e6bd
000001c0: d424 94bc c08b 3a3b e712 4b3b 96b7 b6bc
000001d0: 7748 6bbb 860d 753d 66e6 593d 7e65 6cbc
000001e0: 66d0 253c 66b9 71bc 58e6 023e 081e d93c
000001f0: 03a5 b8bd 8d31 95bd a37a c33c 863a 523c
00000200: bace 64bd f46b 013d 5294 df3c 1569 ec3c
00000210: f524 343d 0ea1 adbd b2e7 53bb 3733 69bd
00000220: 587c b63b fda8 9e3b e220 a63b 6840 34bd
00000230: fd8b 7dbc 8f03 05bd 8dfc 63bc 4195 35bd
00000240: 5193 0cbb d321 843d ef52 f43c 17f0 21bd
00000250: 1a4d 13bc ab27 a8bb 8a65 a7bd f796 043d
00000260: 0b01 85bc 53fe c8bd 998b 823c beca 9b3c
00000270: 9cf6 a73b aed1 10bd 244e b93d befb 823c
00000280: 7e8f 313c 8c15 17bc 79ef 63bd 3280 4a3d
00000290: a1d8 2e3c d4fe a7bd 693f 033d c326 b53c
000002a0: 521a 57bd 8fe6 bd3c 0b26 f53a 3ece 76bd
000002b0: 9068 afbc 0e42 e2bc 3155 8a3b a0c7 383d
000002c0: 8d00 0e3d c389 36bd e98f 1cbb b45e 333c
000002d0: 34bf 94bd 1b32 d4bc f052 4cbe 9a48 953d
000002e0: ed9e 1cbd aa9c b83c 3f0c 843b f8c7 91bc
000002f0: 804c 6ebc b1b1 563c 9ffb c53b b30f 9ebd
00000300: 3df6 4b3d ec50 123d 6485 933c 9051 993c
00000310: de6a 213c 2a9a 6c3d dff9 95bc 9370 17bd
00000320: b5c7 21bd 94d2 af3c 3eeb 68bc 2cc1 853c
00000330: 8ac0 383c d23f 50bd 6265 bdbc aacf 6cbd
00000340: c210 5cbd ab18 45bd 4173 d23c fa3e 4a3d
00000350: 547a 0abc 4c40 403d 3469 abbb 8646 b93c
00000360: ea85 37bd 9eec 40bd 20b2 56bc 5bcf 033c
00000370: dbe2 28bd 2fd3 c03c 5ce1 cebb 8280 12bd
00000380: a9f0 903c 2a11 95bc 3a71 4d3c bee7 e03d
00000390: 86fa a7bd b392 41bd f72e debc 7b26 203c
000003a0: 3267 c9bc 396a 29bd 435c f73c e512 09bd
000003b0: 34d9 b23c d031 8bbb 9fc9 c93d 8c3c 983c
000003c0: fa49 5a3d 73f8 f8bc 488a 313c 4f49 f63c
000003d0: e059 42bc a69d d6bc 0c89 da3c aa91 9f3b
000003e0: bb96 723c 46c8 aabc 956b f8bc 53c0 623c
000003f0: 9529 09bc 487d 923d c361 1e3c c5db 953d
-0.0039963573 0.08289004 -0.016556092 -0.044274703 -0.0057375673 0.008168365 0.023821346 0.04937837
0.011943946 -0.13673688 -0.011646387 -0.017062671 0.01864111 -0.10491861 0.0039319973 0.0043308362
0.030808441 0.03165323 -0.13072988 0.008147722 -0.09368634 0.0471852 -0.09662534 0.02853908
-0.009111161 -0.014882929 0.0058044097 -0.046020035 -0.11167044 0.018773256 0.090659395 -0.06037886
0.06422061 -0.0956926 0.0155998785 0.034242775 -0.08472432 0.0014804897 0.037025355 -0.054878887
0.004394798 -0.06733698 0.020527016 -0.032660246 -0.079044595 -0.05442719 -0.004139197 -0.0166903
0.025629204 -0.02352702 0.010316588 -0.11867522 -0.04756073 0.031905882 0.039803512 -0.009875077
-0.009497331 -0.08868721 -0.0025982345 0.03735673 0.019907929 -0.035657283 0.04350287 -0.042468596
0.053533126 -0.015024857 0.03504028 0.053444356 0.006588916 -0.019312788 0.017703714 -0.037448134
0.0048569227 0.004063775 0.015968882 0.060564853 0.016529845 -0.014508858 0.0057819486 0.018429898
-0.053516332 0.012315577 0.025911728 -0.1018573 0.053977232 0.059977382 0.03933385 0.0016876962
0.001289088 -0.16126907 0.06411584 -0.00053135824 -0.0491391 0.06257491 -0.058518637 -0.0024384512
-0.0047245002 0.058217898 -0.068727694 0.085614435 0.032058176 0.029381312 -0.21390758 -0.051767956
0.0057495157 -0.039207686 -0.029820722 -0.03086389 0.009020597 0.016163444 0.008774645 -0.11232032
-0.018083967 0.0028464645 0.0030986608 -0.022304337 -0.0035901347 0.05982735 0.05319824 -0.0144284945
0.010120487 -0.014753675 0.12783182 0.026503578 -0.090158485 -0.07284842 0.023862189 0.012831336
-0.055861212 0.031597093 0.027292404 0.0288587 0.043980557 -0.08477984 -0.0032334146 -0.056933608
0.005569022 0.0048419223 0.005069838 -0.044006735 -0.01547527 -0.032474097 -0.013915193 -0.044331793
-0.0021450112 0.06451764 0.029824702 -0.03953561 -0.00899055 -0.005131682 -0.08173664 0.032370534
-0.016235849 -0.098141335 0.015935706 0.019017573 0.0051258337 -0.035356216 0.09048107 0.01598918
0.010837434 -0.009221446 -0.0556483 0.049438663 0.010671766 -0.082029015 0.032042895 0.02211321
-0.052515335 0.023181228 0.0018703354 -0.06025528 -0.021412164 -0.027619388 0.0042215814 0.045112252
0.034668494 -0.044564974 -0.0023889488 0.010947872 -0.072630316 -0.025902798 -0.19953513 0.07289238
-0.0382375 0.02253564 0.00402978 -0.017795548 -0.014544606 0.013103888 0.0060419585 -0.07717838
0.049795378 0.035721704 0.018007942 0.01871565 0.009852139 0.05776421 -0.018307624 -0.036972594
-0.039497096 0.021462716 -0.014216242 0.016327463 0.011276374 -0.050842114 -0.023119632 -0.05781523
-0.05372692 -0.04811923 0.025689723 0.049376465 -0.008452017 0.04693632 -0.005231047 0.022616636
-0.044805445 -0.047100656 -0.013103992 0.008045043 -0.04123197 0.0235382 -0.006313486 -0.035767086
0.01769288 -0.018196661 0.012539202 0.10981701 -0.082020804 -0.047259044 -0.027122004 0.009774799
-0.02458534 -0.041361067 0.030195361 -0.033465285 0.021832086 -0.0042478815 0.09852909 0.018583558
0.053293206 -0.030391907 0.0108361915 0.030064253 -0.011862248 -0.02619822 0.026676677 0.0048696594
0.014806445 -0.020847451 -0.030324737 0.013839799 -0.00837173 0.07152802 0.009666863 0.07317308

action_model._discrete_distribution.branches.1.bias f4 [3]
00000000: 6f10 92bd 9d13 903c 5639 4c3d
-0.07132041 0.017587477 0.049859367

action_model._discrete_distribution.branches.1.weight f4 [3, 256]
00000000: 2d6a 9a3c 06cd 083d 7a17 40bd 9ddb 8fbd
00000010: 694d bebc 248e 7cba 62cc 3c3d 863b a83d
00000020: 27c2 103d 1976 b3bc f850 90bd 0c10 883d
00000030: e870 7cbc 5104 34bc 2771 0e3d 642a 0ebd
00000040: 1bc6 8d3c bd51 693d 00d7 303c 9eb5 353d
00000050: 88a2 8d3c c353 403c c914 e0bb b143 db3c
00000060: ac7f 0e3c f3a7 dc3c a1f0 253d 35e4 c0bc
00000070: 8372 8abd 7819 3f3d b44b b13d 8cb4 b5bc
00000080: 088c 093d 5c5a 18bc 0fc4 073d 1b0d 753c
00000090: c76d 47bd 3631 213d 4ffb 48bc a314 bf3c
000000a0: 115e 833c 584e d5bc c464 583d 4bd7 3ebd
000000b0: 3ade 2cbd 3d64 373d 1272 e53c f888 bdbb
000000c0: 8155 39bd c239 db3c 068b 923d 27e0 9f3c
000000d0: dd93 053d 9486 cdbb f48e 683c 6688 ac3d
000000e0: 1c7c 40bb 5009 d13a 7885 5ebb bd52 13bb
000000f0: 9bd0 8c3d 858a aebc 214e f73c dc61 9c3c
00000100: 85cf a9bc 8a21 523c 6e03 203d 232c f2bc
00000110: 1e41 c53c 947b 833c 6ac7 283d 55f1 cabb
00000120: 2aa1 ed3b b320 54bb ecc2 1f3d 1201 873d
00000130: 2c4b 403d 8cae c1ba 47d5 643d 441c e9ba
00000140: 1557 efbc 6b1a 8bbc 7400 f03b ebc1 903c
00000150: 544a 79bc 989a 363c 0350 b9bc 9f1b a5bc
00000160: 8b26 c9bc a7f6 2ebd a294 3abd ab2e 9b3c
00000170: c145 0c3b 735b 15bd dfbc 553d bc15 603c
00000180: 3107 273d 0d8b 943c ee13 d13c 6b42 0e3d
00000190: ac06 79bb 0124 4b3c b9ad 0ebd ef88 b9bc
000001a0: 479f a53c e57e e6bb b434 2e3d ade8 54bd
000001b0: 8fb4 c83c 29c2 543d 845e d63c 9ed8 8c3a
000001c0: 9578 013d b499 833c 54f2 003d a8f0 623d
000001d0: 73cd 0c3d 55cd c43b f470 0c3d 3380 0abd
000001e0: 5e32 7abc efce 87bd fbee 8cbc ef08 2a3d
000001f0: 5576 b23b a7fc 9cbd 2d4c 36bd b68b f63c
00000200: 076f 83ba 82b1 f43c 052c 10bc 0260 133c
00000210: 3d38 d63b 62f1 e1bc 3c45 0c3b fd6d c83c
00000220: c9cb 803d 55c1 e63c 8cde 903d 5aa0 0e3d
00000230: 8b9c 90bc 6eab cb3c 8b83 0e3b 0ca9 80bd
00000240: 5978 6c3d 37d0 cd3c 89c8 e33c a11f 8e3c
00000250: e04e 0c3d c8da 093d d579 5e3c c0d8 d83c
00000260: 6d6e 863d b7e5 a33c c4da ae3c d63f 46bd
00000270: 6d58 923c d8e0 da3b d42c 9a3d a319 f03c
00000280: b8dc cd3c 4bf4 ed3b ea6b 883c 4029 7c3d
00000290: dc07 9abc 885d 93bd be37 06be aadc 1d3d
000002a0: 495a dabb df51 69bc 5d9d 9b3d 2cab 793c
000002b0: d272 643c b0ef f83c c781 ab3c 1eef 333d
000002c0: e8a4 8f3c a992 a53c a79d 8d3c 626e 473d
000002d0: 178e c93c cdfa 7d3c b390 00bd c224 f63b
000002e0: d3d4 4f3c b7d5 3cbb f861 583b b79d f33b
000002f0: 4a49 573c 365b ef3b aefe 8bbc 6cc8 a9bd
00000300: d7da 3c3d d3d3 0d3d cb82 753d 4a26 3ebc
00000310: 8b42 1f3d 8ef1 7fbb eed4 5fbd 4b48 ca3c
00000320: 747b 0a3d 1734 8c3c 9423 523c a788 c83c
00000330: cbcc 213c 64b3 723d bb80 2d3d 5971 12bd
00000340: ddfb 313c 91ce bdbc 6af3 493b 0494 d73c
00000350: 0e12 66bc 09b2 673d d74d 403c dd0a 4a3d
00000360: 9804 6fbd 677d 8c3c 6786 743a 895c 1e3d
00000370: 5646 6f3c 3898 073c f9c9 483d 9e28 083d
00000380: 76a2 283d 9c10 2c3c ee67 933d 8cc2 793d
00000390: 6ea2 133d 5122 f6bc 7db5 2cbd db00 45ba
000003a0: 0f79 7e3c cc5c 3c3d 878c 383d d5fd 60bd
000003b0: 75aa b93c a4b8 0d3c b50b 723d e173 353d
000003c0: b616 1ebc 3fd9 e4bc 73fa 4fbd b7ef 4c3d
000003d0: 6df4 50bd ca1d d9bc af93 0c3d 2be5 42bd
000003e0: 69f1 d33b 0aff f7bc 9f23 bebc 834b 523c
000003f0: 4c48 e6bb f114 043d 0d82 153d 1bed 973c
0.018849457 0.03339865 -0.04689739 -0.0702431 -0.023230271 -0.0009634218 0.046093352 0.08214478
0.035341408 -0.0219069 -0.070466936 0.06643686 -0.015407778 -0.010987357 0.03477588 -0.034708396
0.017306378 0.056962717 0.0107934475 0.044362657 0.017289415 0.01173872 -0.0068384153 0.026765676
0.008697432 0.026935553 0.040512685 -0.023546318 -0.067601226 0.04665515 0.08657017 -0.022180818
0.03358081 -0.009298887 0.03314596 0.014956738 -0.048688676 0.03935357 -0.012266948 0.02332527
0.016036065 -0.026038334 0.052830473 -0.046592038 -0.04220412 0.04477333 0.028008495 -0.00578415
-0.04524756 0.02676094 0.07155423 0.019516064 0.032611717 -0.0062721465 0.014194239 0.084244534
-0.002937085 0.001594821 -0.0033954065 -0.0022479736 0.06875726 -0.021306286 0.030188622 0.019089632
-0.020728836 0.012825379 0.03906577 -0.029562062 0.024078902 0.016050138 0.0412058 -0.00619332
0.0072518783 -0.0032368123 0.03900425 0.06592001 0.04694669 -0.001477675 0.05586746 -0.0017784913
-0.029216329 -0.01698037 0.0073242728 0.017670592 -0.015215475 0.011145256 -0.02262116 -0.020154772
-0.024554512 -0.042715695 -0.045551904 0.018943151 0.0021403881 -0.036464166 0.052182075 0.013677057
0.040778343 0.01813271 0.025522199 0.03473131 -0.0037998362 0.012398721 -0.034833644 -0.022648303
0.02021755 -0.00703417 0.04253073 -0.05197971 0.02450016 0.051942978 0.026168115 0.0010745709
0.031609137 0.016064502 0.031481102 0.05540529 0.03437562 0.006005923 0.034287408 -0.033813667
-0.015270798 -0.06631266 -0.017203799 0.041512426 0.005446235 -0.07665377 -0.04450624 0.030095916
-0.0010027596 0.029869799 -0.008799558 0.008995058 0.006537466 -0.02758092 0.0021403572 0.024466509
0.06288869 0.02816836 0.070736974 0.034820892 -0.01765277 0.024862017 0.0021745886 -0.06282243
0.05773196 0.025123699 0.027805584 0.017349066 0.03425491 0.03365591 0.013578852 0.026470542
0.06564031 0.020006998 0.02134455 -0.048400722 0.01786443 0.0066796355 0.075280815 0.0293091
0.025129661 0.007261788 0.01665302 0.061562777 -0.018802576 -0.07195574 -0.13107201 0.03854052
-0.006663595 -0.014240711 0.07598374 0.015238564 0.013943391 0.03038773 0.020935906 0.04392921
0.017534688 0.020211535 0.017287089 0.048689254 0.024603887 0.01550169 -0.031387996 0.007511706
0.012685019 -0.0028813907 0.0033017378 0.0074345726 0.013140032 0.0073045744 -0.017089214 -0.082901806
0.04610714 0.03462584 0.059939187 -0.0116058085 0.03888182 -0.003905389 -0.054646425 0.024692675
0.03380914 0.017114682 0.012825865 0.024479223 0.009875487 0.05925311 0.042359095 -0.035752628
0.010863272 -0.023169788 0.0030815252 0.026315697 -0.0140423905 0.056566272 0.011737308 0.049326766
-0.05835399 0.01714964 0.0009327889 0.038662467 0.014604172 0.008276038 0.04902074 0.03324186
0.04117056 0.010502007 0.071975574 0.06097655 0.036043577 -0.03004566 -0.04216527 -0.0007515081
0.015531792 0.045986935 0.045055892 -0.054929573 0.022664288 0.008649979 0.059093196 0.044299964
-0.009648969 -0.027935622 -0.050775956 0.050033297 -0.051014353 -0.026503462 0.03432053 -0.047581833
0.0064679873 -0.03027298 -0.023210345 0.012835386 -0.0070276614 0.032246534 0.03650098 0.018545678

action_model._discrete_distribution.branches.2.bias f4 [3]
00000000: 519b a63d 5c04 53bc 060a 9ebd
0.08135093 -0.012879457 -0.077167556

action_model._discrete_distribution.branches.2.weight f4 [3, 256]
00000000: 4dbb 04bd 3904 c6bc 2f3a 17bc 2c94 37be
00000010: 1326 b6bc cceb 273d 7d2a 4b3a 009d 823d
00000020: 3d5e 65bd 66fd 1c3d 38fa bc3c b839 9c38
00000030: 79c7 b03c 783d acbd d958 28bd 3955 67bd
00000040: 183b 66bc fe7b 963d 9607 653b 0de7 753c
00000050: 4919 ca3a 5e64 6e3c 6bb4 39be c75a ad3c
00000060: f587 ad3c 1192 9a3b 9a64 2d3c 6b7e 1cbc
00000070: dc9e 8ebd eefe d9bc e3c7 393d f741 f53c
00000080: 3b46 7e3d 6d87 20be 35f3 0cbd 1256 093d
00000090: ee60 6ebe 7411 cf3c c6d6 483d dbb7 3b3d
000000a0: 341a 8f3c 2d63 eebd 6792 0b3d b88b 07bc
000000b0: 766b 89bb f6d4 afbd ac11 533d 5432 12bc
000000c0: ce11 a6bd ae54 87bb 2857 023d eecd d53b
000000d0: c79c 44bd 35bb af3c 9542 013c 636c bf3d
000000e0: f74b ddbd c6d9 e93c e8cc c9bc bee2 c2bc
000000f0: 91ab fb3d fdb0 d6bd 2110 a03c 96ff 1b3d
00000100: 2db7 453d 8f20 693c 7ef7 88bc cb3f 3d3d
00000110: b8d2 8aba 679f 753c 8337 a13c f0ee 80bd
00000120: bc45 613b b668 443a b72b 75bb 124f e4bd
00000130: 2888 303d 0549 c2bc 5a4c eb3d 3733 1fbb
00000140: fe46 1f3c 9100 f23c 4dc1 763b 3a12 b53c
00000150: f464 69bb 4754 dc3c 082a 163b 01f6 0dbc
00000160: 542a bfbc 9e07 c13b 11c8 9e3b 10a3 5a3d
00000170: 2afe 133d 5dd8 a5bc 6bc6 833d 0d3d 78bd
00000180: 5181 47bd 5622 163d 6c6d 223d bc66 143d
00000190: e9f7 b23d f023 fb3c 1dc3 52bd 5d4a 16bd
000001a0: 98af 19ba bb72 ea3c 4ab0 4dbd e6f7 253d
000001b0: f1c4 b2bc cd6c cfbb d03c 17bd 00f1 cd3c
000001c0: 6b8f 953c 8337 c93c 5dee 793c 8272 1e3c
000001d0: f828 a9bd 024f f53c a6c2 3e3d a114 e23c
000001e0: ffea 063d 4770 47bd babf 923d 64e8 02bd
000001f0: dba7 013c 4bfc 00be fa01 773b be3a 07bd
00000200: 396e 8e3a e642 b23c bcfe 4f3d f8a6 febc
00000210: f06d 6ebc dee3 30be 1c73 4e3c 358d f63b
00000220: 3e5f d73b e2f8 6fbc 3d70 743c 99a5 923d
00000230: a64b ad3b dbbb bdbd ef5e 8fbd 91a2 3cbc
00000240: 3b90 cb3d 13d3 05bd 93e1 ca3c fe50 7d3c
00000250: 621f ae3c 3f2d f9bc b97b b5bd ff22 08bd
00000260: 7b05 3d3d 9463 09bd 40d6 dd3c 6c99 08bc
00000270: 21ce 1e3d 7413 383a 63ee 043d 30e9 3cbc
00000280: 9e85 b1bc 58d5 bf3b 503f 113b 9a20 173d
00000290: becc b33c a358 89be ec2f 45bd d959 803c
000002a0: 0682 21be 09e5 cc3c ea20 ca3d bbf5 b5bc
000002b0: ca97 153d 44ec 72bd a902 2cbd ca11 86bb
000002c0: 25ae 8bbb 124f 803c faad 193d b4c7 1fbd
000002d0: d756 22bb 90e4 163d 3980 7abc bbc0 51ba
000002e0: 3b66 b9bc 9295 44bc 9034 923c f23d 323c
000002f0: 5ffa 0c3d 3368 913c 2765 033d 670f 63be
00000300: 8888 273d eb4e 823d 67b8 713d d63d 583d
00000310: 5cd9 933c a906 653d 938d c3ba adee 923c
00000320: 1a3d 1cbe 66b1 2c3c d37f 7dbd 7498 2f3d
00000330: 9520 2d3d 4156 c43d e6d2 a8bc b0ca a23b
00000340: 5b14 cc3c 4ceb 1f3d ce34 c43c ad4c ca3d
00000350: 3a3a 9e3c bc2b 36bc 9eef 6f3b c726 d1bc
00000360: 4d75 0abe 380b e43c e4c4 c23b 54eb 5a3b
00000370: 1fb3 4ebc 362e 41bd f6bf 2cbd aac3 81bd
00000380: abd1 a3bb e6c4 7c3c 886e aa3d cf1f 133d
00000390: c31c 4ebd d326 823c fa64 36bd 1871 a8bb
000003a0: d876 393c f151 753d bcd7 963d 06b3 1fbe
000003b0: 2636 00bd 2330 523d 9b22 433d bb8b 0b3c
000003c0: 5a9f 323d 4005 f43c e096 ffbd 3713 053d
000003d0: 5522 b2bb 6c0f 1abe d8ea 373d 3a7e 493b
000003e0: cf1b a43c 1950 45be 50b7 9c3c f38f 6bbc
000003f0: 6d36 fbbb 5a31 193d b0e6 13bc 0c95 c8bc
-0.032405186 -0.024171935 -0.009230181 -0.17927617 -0.022234952 0.040996358 0.00077501667 0.063776016
-0.055998076 0.038327597 0.023068532 7.4494106e-05 0.021579491 -0.08410162 -0.041100357 -0.05647776
-0.014052175 0.073478684 0.0034947149 0.0150087 0.0015418913 0.014550297 -0.1813523 0.02116145
0.021182993 0.0047171195 0.010583067 -0.009551625 -0.06963894 -0.026610818 0.045356642 0.029938681
0.062078696 -0.15676661 -0.034411628 0.03352935 -0.23279163 0.025276877 0.04903295 0.045829635
0.01746855 -0.1164001 0.034075167 -0.008273058 -0.0041937185 -0.08585541 0.051530525 -0.008923132
-0.08108865 -0.0041299677 0.0318214 0.006524793 -0.048001077 0.021451572 0.00788941 0.09346845
-0.10805505 0.028546225 -0.02463384 -0.02378976 0.12288583 -0.104829766 0.01953894 0.038085543
0.048270393 0.014228954 -0.016719576 0.046203416 -0.0010591364 0.014991618 0.01967979 -0.06295574
0.003437384 0.000749241 -0.003741009 -0.11147894 0.0430986 -0.023716459 0.11489172 -0.0024292
0.009721516 0.029541286 0.0037651837 0.022103418 -0.0035613151 0.026895655 0.0022913236 -0.008664609
-0.023335613 0.0058908006 0.004845627 0.053378165 0.03613106 -0.020244772 0.064343296 -0.060605098
-0.04870731 0.03665384 0.039655134 0.036230788 0.08738691 0.030656785 -0.051455606 -0.036692012
-0.00058626523 0.02861916 -0.05021695 0.040519617 -0.021822425 -0.0063301087 -0.03692323 0.025139332
0.018256864 0.024562603 0.015254584 0.0096708555 -0.08259767 0.0299449 0.04657235 0.027597727
0.032938953 -0.04869106 0.07165475 -0.031959906 0.007913555 -0.12596242 0.0037690387 -0.033015005
0.0010866589 0.021760415 0.050780043 -0.031085476 -0.014552578 -0.17274424 0.012600686 0.0075241574
0.006572633 -0.014646741 0.014919338 0.071604915 0.005288559 -0.09264346 -0.07000529 -0.011513368
0.09939619 -0.032672 0.024765765 0.015461205 0.021255199 -0.030417083 -0.08861489 -0.0332365
0.046147805 -0.03354223 0.027079701 -0.00833736 0.0387708 0.0007021942 0.032453906 -0.011530206
-0.021670159 0.00585429 0.0022162981 0.036896326 0.021948215 -0.26825437 -0.048141405 0.015667843
-0.15772256 0.025011556 0.09869559 -0.0222119 0.03652171 -0.05930735 -0.041994724 -0.004091476
-0.004262703 0.015662704 0.037519433 -0.03900881 -0.0024771 0.036839068 -0.01528936 -0.00080014364
-0.022631755 -0.011998551 0.01784733 0.010879027 0.03441846 0.017749881 0.03207889 -0.22173844
0.04090169 0.06362709 0.05901375 0.052793346 0.018047981 0.055914555 -0.0014919512 0.017936075
-0.15257683 0.010540342 -0.06188948 0.04287 0.0422674 0.09586764 -0.020608377 0.00496801
0.02491205 0.039042756 0.02395096 0.09877906 0.019314874 -0.0111188255 0.0036611329 -0.025531186
-0.13521309 0.02783738 0.0059438813 0.0033404427 -0.012615948 -0.04716321 -0.042175256 -0.06336148
-0.0049993596 0.015427804 0.083218634 0.035919007 -0.050320398 0.015887653 -0.044529893 -0.005140435
0.011319838 0.0598926 0.07365367 -0.15595636 -0.03130164 0.051315438 0.047640424 0.008517201
0.043609 0.02978766 -0.12479949 0.032489028 -0.0054362216 -0.15044945 0.0449017 0.0030745403
0.020032791 -0.19268836 0.019130379 -0.014377582 -0.0076664 0.03740058 -0.009027168 -0.024485134

discrete_action_output_shape f4 [1, 3]
00000000: 0000 4040 0000 4040 0000 4040
3.0 3.0 3.0

network_body._body_endoder.seq_layers.0.bias f4 [256]
00000000: cf54 e1bd 3d13 a1bd 7d72 22be 881c fcbc
00000010: d561 01bc f512 9dbd 541c c5bb 6dfa 81bd
00000020: 6410 19bd 371d 08bd 7e09 b53c e393 19bd
00000030: ac44 febc a2e4 dcbd bfc4 0dbd 34cf e1bd
00000040: efdd ebbc 4d31 c8bd 245b 00bb 4e46 bd3d
00000050: 5afb c7bc b4f0 62bd d0c7 123c d2d0 edbc
00000060: 668c 6ebd 17bd 23bd dce0 b63c cc63 bfbd
00000070: 735e 90bd ce34 02bb ab80 a73d 76c0 fabb
00000080: 6ad5 953c 08c1 4fbc f7b8 c63d 5e67 5e3d
00000090: 6da9 9a3c 6320 78bd 6592 11be e238 28bd
000000a0: 278e 85bd a50e 6e3d cc1e bfbb 315c fabc
000000b0: 3771 e8bd 2819 10be cd45 2fbd cdbb e1bd
000000c0: bbfb 983d 1aff e33d 8085 d13c 10a8 263d
000000d0: 1c70 e73c 417f 473d 0292 9bbd 7fb8 17bd
000000e0: d003 d1ba 8f82 163d d8f6 ca3c fa0b 0dbd
000000f0: 91cf c4bc 0882 4f3d 8679 79bd 303b 9cbd
00000100: cdfd b63d 4608 193d 6363 b03d 24b6 ee3d
00000110: 464d 53bc e3f0 dd3d da6b 19be c2ea 17bc
00000120: 2d97 f6bd e526 003a 6a2d 34bd 7b93 eabd
00000130: 5f66 f9bc 4433 cbbd e6a9 17bd 8cfe b33d
00000140: c854 89bc 987a 95bd 6d2f acbd e99f 623d
00000150: f0ac 0abe a0c0 483e fdbd 9d3c a130 493d
00000160: 433e 8cbc 9130 af3d 5c3a db3d 1b89 bcbc
00000170: a637 0f3c 37a8 f8bc 220e 30bd 7468 0abe
00000180: 3da1 a9bc 96f9 8c3d cff0 843c 506f ffbc
00000190: 98b7 ef3b c49b e5bb 8bd9 12be 672e ccbd
000001a0: 9cc2 8cbd 6a09 5fbd 788e 05bd 755b ffbb
000001b0: c9f3 f4bc a3ea e23c b919 383d 40fa 7c3c
000001c0: 0705 b6bc a5a2 dabd f65c e7bd 3015 26bd
000001d0: 6c3f 6ebc 5c34 6a3b c71d 31bd 59fc 4abb
000001e0: 4b82 d73d 2617 113d 38ff 89bc 34e7 d1bd
000001f0: f387 9dbd a80c d6bd 3d98 d7bd 5bf3 d03c
00000200: 13d3 f73c 96ba 8cbd 0848 b93d 9115 953d
00000210: 2814 97bc 3a5e f53c 1ee5 c7bd efdd b1bd
00000220: a6fe 39bd c124 aebd e474 d53d 5472 283d
00000230: 5f58 c4bd e469 55bc 4632 fabd 8849 0dbe
00000240: ba85 cfbc 6cec eabd eaef f53c 074e a8bd
00000250: a70c fc3c 4809 b3bc fa75 e13d 8312 bfbd
00000260: 2436 033d 7a63 b5bd c9a3 c33c 7fed f03c
00000270: 703b 0cbe 8d38 843b a26e 1dbd c377 78bd
00000280: 5a72 64bd 5417 863d 5a06 a8bd a2db 883c
00000290: fd60 b7bd efff 81bd 2569 48bd 37d3 c03c
000002a0: c7a2 a53c 9e40 1abd 9c91 88bd d463 69bd
000002b0: c62c c4bc af78 a03d 872b 8bbc cc97 763c
000002c0: 4176 533d 7104 5e3d 890c 82bd 010c 02bd
000002d0: 5525 e43d 4f4e 1d3b cc0f 68bd bc56 d0bd
000002e0: f682 36bc 84bf 00be 68fc e93c f942 b23c
000002f0: a4b2 d73d c8aa 0bbc efb5 283c 05f8 8fbd
00000300: 21e8 a2bd e920 34bd c650 4bbc 23c2 753d
00000310: fc4a 4a3a 24cd bf3d 9d31 433d a5a4 bfbd
00000320: fca4 59bc b4b7 3fbd 26f1 6ebd 0e5a 9ebd
00000330: 23ac 843c 02aa 6c3d 9b50 09bb 9d8c 68bd
00000340: 6867 593d b0ba f9bc fc3f 8cbd 1df3 613d
00000350: ba4e 66bd a66d 0abe d574 02bd 59f2 10bc
00000360: b94e f9bd cea4 96bb ca21 0abe b075 813d
00000370: 1f19 c43c f824 22bd e8ad f3bd bc2c a73d
00000380: b326 19bc e5d1 083e fad6 223d 1eed b93d
00000390: 3155 cebb 558c cdbb 0dfc 163b 1e1d 053e
000003a0: 250e 2ebd 8500 01be 42be 65bd c75a f5bd
000003b0: 1fa7 f53d abfa 2fbd 0f07 b23c 6b69 d6bd
000003c0: ab59 17bd b886 02bd 6162 fabc f9a7 88bd
000003d0: b680 85bc 96f0 e7bc a1a5 003e 24ef 04bd
000003e0: 39e4 883d e603 c6bd 8c8f cebd 8874 6c3c
000003f0: 5619 80bd df0b 8fbd cd9b b63c 7e5d a73d
-0.11002504 -0.078649975 -0.15863986 -0.030775324 -0.00789686 -0.076696314 -0.00601534 -0.06346593
-0.037369147 -0.033230986 0.022099253 -0.03749455 -0.031038605 -0.10785796 -0.03461146 -0.11025849
-0.02879235 -0.097750284 -0.0019585574 0.09241925 -0.024411846 -0.055405334 0.008958772 -0.029030237
-0.058239363 -0.039975252 0.022324018 -0.093452066 -0.07049265 -0.00198679 0.08178838 -0.0076523377
0.01829024 -0.0126803 0.09703248 0.054297797 0.018879617 -0.06057776 -0.14216001 -0.041069873
-0.06521254 0.058119435 -0.0058325287 -0.030561538 -0.11349719 -0.14072096 -0.042791177 -0.11022148
0.07469889 0.11132641 0.025576353 0.04068762 0.0282517 0.048705343 -0.07596208 -0.037041184
-0.0015946571 0.036745604 0.024775907 -0.03443525 -0.024024757 0.050661117 -0.06090691 -0.076284766
0.089351274 0.037361406 0.086127065 0.11655834 -0.012896841 0.10836961 -0.14982548 -0.009272279
-0.12040553 0.0004888608 -0.043988623 -0.11453911 -0.030444322 -0.099218875 -0.037027262 0.08788785
-0.01676406 -0.072987735 -0.08407483 0.055328283 -0.13542533 0.1960473 0.019255633 0.04911864
-0.017119532 0.08554185 0.107044905 -0.023014596 0.008741295 -0.030353649 -0.042982228 -0.13516408
-0.020706767 0.06883542 0.016228108 -0.031181008 0.0073155873 -0.007007094 -0.14340799 -0.09969788
-0.06873056 -0.054452337 -0.032606572 -0.007792885 -0.029901402 0.027699774 0.044946406 0.015440524
-0.022219194 -0.10675553 -0.11297028 -0.04054755 -0.014541488 0.0035736775 -0.04324129 -0.0030973165
0.10522898 0.035422467 -0.01684533 -0.102491766 -0.07691946 -0.10451633 -0.10527084 0.025506666
0.030252015 -0.06871526 0.09046942 0.07279504 -0.018442228 0.029952157 -0.097604975 -0.086849086
-0.045408867 -0.08503104 0.10422686 0.041124657 -0.09587168 -0.013025735 -0.1221662 -0.13797581
-0.02533232 -0.11470875 0.030021627 -0.082180075 0.030767752 -0.021855012 0.1100883 -0.09329703
0.032034054 -0.08856864 0.02388181 0.029410122 -0.13694549 0.0040350617 -0.038435586 -0.06066109
-0.055773117 0.06547418 -0.082043365 0.016706292 -0.08954046 -0.063476436 -0.0489284 0.023538215
0.02021922 -0.03765928 -0.06668398 -0.05697997 -0.02394713 0.078355186 -0.016988529 0.01505084
0.051626448 0.054203454 -0.06350047 -0.03174973 0.11139933 0.0024002974 -0.05665569 -0.10172793
-0.011139622 -0.12573057 0.02856274 0.02176045 0.1053212 -0.008524604 0.010297283 -0.07029728
-0.07954431 -0.043976698 -0.012409395 0.059999596 0.0007716862 0.09365299 0.047654737 -0.09357575
-0.013283964 -0.046806052 -0.058335446 -0.0773202 0.016195362 0.05777932 -0.0020952586 -0.056774724
0.05307713 -0.030484527 -0.068481416 0.05516349 -0.056227423 -0.1351839 -0.0318497 -0.008846843
-0.12173218 -0.004597283 -0.13489452 0.06321275 0.02393776 -0.039586037 -0.11898404 0.08162829
-0.0093476055 0.13361318 0.0397558 0.0907843 -0.0062967767 -0.0062728324 0.0023038418 0.12999389
-0.042493958 -0.12597854 -0.056089647 -0.11980205 0.119947664 -0.042963665 0.021731881 -0.10469326
-0.03695075 -0.03186676 -0.030564489 -0.06672663 -0.016296726 -0.028312963 0.12563182 -0.032454625
0.06684155 -0.09668712 -0.10085973 0.01443208 -0.062548324 -0.06984686 0.022291088 0.08172129

network_body._body_endoder.seq_layers.0.weight f4 [256, 21]
00000000: 185f e5bd bf7e 003f 93cb b4be e500 023f
00000010: 03fb da3e 1fab 51be 1e4e 14be c0c1 09be
00000020: 8d76 083e 181a 543e 65b2 8bbe 5b3c abbe
00000030: 9e6a 7fbe 1f0a b8bc adc6 cc3e 4c1b 63be
00000040: c681 f73d 62f4 0b3e 57ee 0dbf 41b0 a3bd
00000050: 331c efbd 88b4 a83e e9ab 713e a00a 623e
00000060: 2e11 16bc 5e73 40bf a852 97bd 6f04 dc3d
00000070: 0a6b 39be 65e5 c2bd a5e1 fbbd 5dc7 513e
00000080: 26d9 8a3e 23c5 d9be ce12 3c3d 7c02 293e
00000090: 78e1 4f3e 0b54 70be 6507 97bd a046 c5bd
000000a0: 17ce 2bbe 9fc1 5a3e 4f53 7e3c 16c2 1ebe
000000b0: 498a cf3d 7bee da3e 6d69 19be 00a9 07bf
000000c0: 48a1 3ebe 1435 b8be de32 7b3c 3655 fbbd
000000d0: d501 f1be 2080 84be 1977 2fbe 310c 3abe
000000e0: 315f c5bd 599c b5bd fa1a f8bd 7563 dabc
000000f0: 0669 8d3d ea67 a8bd 1c46 76be 8506 673d
00000100: a6a7 aebd 8817 3fbe 12a4 873e d128 803c
00000110: 569e 59be e41e e93d 0f95 b33e 74d6 c0be
00000120: 458c 773e ecbc 69be 157c a8be 69ec 893e
00000130: 4bf8 b8bd 2274 b63e 2fdb a93e 89cf e13d
00000140: 8954 5fbe e7d9 a63e b76d ae3d 5165 c6bd
00000150: 7728 ffbc 6232 693e b6bf a53e 8825 d2bc
00000160: b678 0fbe 8163 bfbe e945 b0be 8a68 ce3d
00000170: fd51 67bc 9145 aabd 2ab1 24bd 132b cf3e
00000180: eabc 1dbe a959 273d 2ce3 623e 4366 43be
00000190: a643 07bd 797b 9a3e dcb7 943c 8096 853e
000001a0: 500a a7bd bd1a 09be b598 b3be 2302 17be
000001b0: aa78 a0bb 0967 d2bc fe91 053e 5f20 ba3e
000001c0: b5f8 d03d 917c a43e c2fc fbbd 7cb1 b23d
000001d0: 18f3 4b3e a3eb 14bd c48a 6cbe b730 c03c
000001e0: 1abc f93c 288e a83b e81a bf3c 4e10 6a3d
000001f0: 91e1 ec3e 486c 833e e3a5 ba3e d9b6 793e
00000200: b57e b5bc 6ea9 613d 5f56 05be 192a 3a3e
00000210: 4c64 be3c 0410 063e 95d1 febe be52 e6bd
00000220: ebe4 39be d828 08be 3605 63be 3854 66bd
00000230: c41d 253d dfed c53b c63c edbe 613f 4abe
00000240: 986e 6d3e 17d2 063e 48df 623e 1a50 e7bd
00000250: de16 363e 754f a4be 1b19 a93d 81a2 88bd
00000260: d2c4 d93d 2f53 6f3d cf20 56be be9a 3d3e
00000270: c03f 5e3e 278c 3b3e 5de1 8f3e 2e9c 6fbe
00000280: 7e45 18bd 7e5d 03bf a25e 37bd 2dd5 313c
00000290: 4e51 25be 28de e93e 9607 a93e 0a24 bd3d
000002a0: 3b55 543c c7a8 07be 351e 933e 8132 3cbe
000002b0: 2690 7f3e 247f 45be c4ed 7ebe 5c21 0f3e
000002c0: 64d3 9e3e fe68 893e 3a41 6ebe 9154 933e
000002d0: 7bc3 8a3e 8809 51bd 0ca2 04bf 6a63 8bbe
000002e0: 00d3 d33c fc2d 8fbc c093 8ebe 303e 823e
000002f0: 6707 afbe e328 febd 9179 0f3e 8392 98bc
00000300: 39ce 9e3e bcbc cebe 56f9 043f 551a 143d
00000310: aff7 a0be beca d1bc e30b b6be f0a7 cabe
00000320: 6cd3 493e c687 8cbe b939 4d3e 5ae6 ac3d
00000330: 2ec3 8ebe f802 f03c f6ce e3bd 3503 06bf
00000340: 31d2 fe3d 1ef5 f1bd 40d1 b13e 81f9 1dbd
00000350: 0cc0 49be f2dc a3bc 47e8 dcbe 184a 313e
00000360: 5f55 19be 4288 a13d 915e aa3e 1ea1 953e
00000370: 36a3 083e 92ae 503c 6073 07be bd36 93bd
00000380: 250b 76bd 9efe ac3d 9148 f8bd e3dc 87be
00000390: 14f1 183e 0bb9 913e fd38 e03d 6ea4 9c3e
000003a0: 88e6 e33d 82eb 6bbe e829 fdbd 01ab 4fbe
000003b0: 174d 463d f636 eb3d f225 0b3e 9fdb 89be
000003c0: 8813 0f3f 696a c8be 4e2d 623e 9264 e6bd
000003d0: 2040 08be d1ea 5e3e a11a cd3d cc8d 863e
000003e0: afbb c0be 1f55 c23e 4326 e7bd d292 6c3d
000003f0: ecfb 553e c04a 90be 15d9 b8bc 13e6 9f3e
-0.11199778 0.501934 -0.35311565 0.50782615 0.42769632 -0.20475434 -0.14482924 -0.13452816
0.13326474 0.20713079 -0.27284542 -0.33444485 -0.24943015 -0.022465764 0.39995328 -0.22178382
0.12085299 0.13667443 -0.554418 -0.07992602 -0.116753004 0.32950234 0.23600735 0.22074366
-0.009159369 -0.75176036 -0.07388812 0.10743033 -0.18107238 -0.0951641 -0.12298898 0.20486207
0.27118796 -0.42533216 0.04591637 0.16504854 0.20300853 -0.2346956 -0.07374457 -0.09632611
-0.16777836 0.21362923 0.015522792 -0.15503725 0.10133798 0.4276007 -0.14981623 -0.5299225
-0.18616211 -0.35977995 0.015331952 -0.12272112 -0.4707171 -0.25879002 -0.17135276 -0.18168713
-0.09637297 -0.088677116 -0.1211452 -0.026658753 0.06904797 -0.08222945 -0.24050182 0.056402702
-0.0852807 -0.1866132 0.26492363 0.015644463 -0.21251807 0.11382845 0.3507466 -0.37663615
0.24174602 -0.22825974 -0.32907167 0.2693818 -0.09031733 0.35635477 0.33175036 0.11025912
-0.21809591 0.3258812 0.0851702 -0.09687293 -0.031147225 0.22773126 0.32372826 -0.025652662
-0.14010891 -0.37380603 -0.34428337 0.10078533 -0.014118669 -0.0831405 -0.04020802 0.4046255
-0.15404096 0.04085699 0.22156972 -0.19081978 -0.0330235 0.30172327 0.018154077 0.26091385
-0.08156264 -0.13389106 -0.35077444 -0.14746909 -0.004897197 -0.025683897 0.13043973 0.36352822
0.10203687 0.32126287 -0.12304069 0.08725259 0.19916952 -0.036357533 -0.2309981 0.023460729
0.030485202 0.0051438995 0.02332826 0.057144456 0.46265844 0.2566855 0.36454687 0.24386157
-0.022155145 0.05509322 -0.13021229 0.18180121 0.023241185 0.13092047 -0.49769273 -0.112462506
-0.18153732 -0.1329683 -0.22169957 -0.05623266 0.04031159 0.0060403193 -0.4633543 -0.1975074
0.2318672 0.1316608 0.22155488 -0.11294575 0.1778216 -0.3209187 0.082567416 -0.0667162
0.106332436 0.05842894 -0.20910953 0.1851606 0.21704006 0.18315183 0.28101626 -0.23399422
-0.037175648 -0.5131453 -0.044767983 0.010854048 -0.16144297 0.45677304 0.330136 0.092353895
0.012959774 -0.13247977 0.28733984 -0.1837864 0.24957332 -0.19286782 -0.24895388 0.1397757
0.31020653 0.26837915 -0.2326707 0.28775457 0.27102265 -0.05103448 -0.51809764 -0.27224284
0.025857449 -0.017477982 -0.278471 0.2543807 -0.34185335 -0.12410142 0.14011218 -0.01862455
0.3101671 -0.40378368 0.51942956 0.036157925 -0.31438968 -0.02560937 -0.35555944 -0.3958125
0.19709557 -0.27447337 0.2004155 0.084423736 -0.27883285 0.02929829 -0.11123459 -0.52348644
0.124424346 -0.118143305 0.34729958 -0.038568024 -0.19702166 -0.020002816 -0.43145964 0.17313421
-0.14973973 0.07887317 0.33275273 0.29224485 0.1334351 0.012736933 -0.13227606 -0.07188175
-0.060069222 0.08447002 -0.12123216 -0.2653571 0.14935714 0.2846149 0.1094837 0.305942
0.11127955 -0.23039058 -0.123615086 -0.20280077 0.048413362 0.11485092 0.13588694 -0.2692537
0.5588918 -0.39143685 0.22087595 -0.11249651 -0.13305712 0.21769263 0.10014845 0.26280057
-0.3764319 0.37955567 -0.11286595 0.057757206 0.20896882 -0.2818203 -0.02256445 0.3123022

network_body._body_endoder.seq_layers.2.bias f4 [256]
00000000: d9bf bcbd 95dd 1abd 4abd 493d 8211 9a3c
00000010: 1346 713d 6db5 0abc e278 81bd fb35 57bd
00000020: 16bf a5bd 0403 37bd d614 9b3c c771 673c
00000030: 67c4 453d d85e afbd df6e eb3c cff8 8abd
00000040: 82ff 77bd a95b 9dbd f46b b1bd 9325 bfbd
00000050: 7bee 32bc 82fd a93d 8e6f adbd febf 973c
00000060: 057c 0ebe bc6e 58bc d616 f73c 9361 dbbd
00000070: 1db1 da3d 09c7 f1bc bf66 64ba 8823 e7bd
00000080: 560b 9abb 0f6f 92bd 6fe4 1bbd 31bb cabd
00000090: 9db0 d9bd de4c 9cbd b381 01bd b5ce e2bc
000000a0: 836d 4dbd 9163 173d 9ff7 ac3d eb0f 25bc
000000b0: a4ad 24bd 6d95 4bbd 092c 44bd dad3 943c
000000c0: 08a0 c6bd 07ae 8cbd 449b dabd 93d1 a1bd
000000d0: 4da5 17bd a5ce ba3d 1d7f c4bd fd34 3ebc
000000e0: 350c 65bd 591e 1fbe 53b6 0d3c c65b c3bb
000000f0: 517f 24bd 35b1 aa3c 2242 e2bd 45fa 5f3c
00000100: d9c9 0bbe e87b 033e c61d 3bbd 179d 06be
00000110: 0b13 b5bd 9ad2 a4bc b55c 913c 26fb adbd
00000120: c8d6 b2bd 75bc 38ba 2027 883c 7c88 c4bd
00000130: eb18 e33c 6409 d93d 9240 c9bb 0f7d 973d
00000140: dde2 03be a026 8a3d 42bb e2bd adbf 90bb
00000150: 1e88 cc39 03a7 51bd 7d40 dfbd 3de5 3abc
00000160: b41d df3c 5bb1 173d 2b6d 9a3d 21a8 5a3d
00000170: 8b40 653d 13f4 0d3c 27f4 9cbd e964 b5bd
00000180: d13b dcbd 227b 83bd 7a91 753d 9f92 cabd
00000190: 9ac6 2b3d b78e 19bb 3413 58bd a58d 28bd
000001a0: 5ba0 3f3d d605 6c3d 26aa 5e3d bb6b 36bd
000001b0: 6ca1 cc3d dd21 793d 6b63 b2bd 6323 12be
000001c0: 4b55 61bd 7427 b6bc 8af6 27bd f765 363d
000001d0: cfaa 49bc 5a9c 0a3d 9e74 ac3c 0c30 eb3d
000001e0: c6ca 6fbc 41f9 da3d 7b20 0ebe 8eb3 32bd
000001f0: dbc7 2dbd 8d7e 973d d32b 5a3c 4bcb a6bd
00000200: a6ea 8ebc feac 6f3d 2026 c03c 412c 09bd
00000210: 52b2 063b c583 4dbc f1d5 58ba 5f85 b53c
00000220: 59df fcbc 9053 dcbd 12e0 44bd 68dd 163d
00000230: dddf 84bd 0520 abbd 0391 ad3d b6a5 093c
00000240: ccab f4bc c0db f6bb 6dc6 97bd b772 cf3d
00000250: 3ceb b4bb 6e0b 97bd 962d d2bd 3503 253d
00000260: deb6 88bd 8fb6 ef3d dda0 73bd fcd2 a2bd
00000270: d93a 78bd dd40 81bd a230 4fbd 060e d6bc
00000280: 3f47 5fbd cd51 be3d 65e4 96bd 03c6 12be
00000290: 8f0c 13bd 3c00 cbbd a80e bdbd 0db5 7dbd
000002a0: 2a56 b0bd 644c 4bbb 4a4b 7cbd 5e76 22be
000002b0: 60b8 19be da32 c73c a64f 363c 121e a5bd
000002c0: 01f4 a0bd c289 9fbd 5659 9d3d 0ca4 5dbd
000002d0: 89a4 6c3d 7000 d03c 26e3 18be 7686 6b3d
000002e0: 67b7 5ebc e7b1 ab3d 3289 d7bd 8217 013e
000002f0: 1d50 383d c66c 30bc 5b87 143d 3559 33bd
00000300: 1358 67bd f219 e93b 2685 94bd 9bf4 a9bd
00000310: 8fb6 03bd 4c54 663d a05a 5ebc 75ca 4fbd
00000320: a2a8 a1bd 1be0 983d 71a7 f73c a941 4c3d
00000330: 6567 0abe e9b2 a03d 1760 fb3b ef58 f63c
00000340: df43 a2bd faaf 2c3d 273c efbc 2934 e0bd
00000350: 5f77 743c faf8 d9bc a445 87bc e328 1a3d
00000360: af2d ab3d 60f4 83bd 6155 e13d b052 dbbc
00000370: e01c dabd 62e0 843d f6e2 11be 2f86 013e
00000380: 8978 80bd 4e2d 243d d745 f6bb 0b72 ebbd
00000390: 236b 0cbd 079e 9ebd 8c06 903d e103 acbc
000003a0: 442f 79bd 7cac b3bd a88e 003e 09cd d73b
000003b0: 35bb d1ba 0d7e 8bbd 997e edbc b956 04bc
000003c0: facb de3c 078a 283d 40e0 ea3c 994f 02bd
000003d0: a5ff 0ebd 98f1 82bd 8157 50bc 13a5 153d
000003e0: 883d acbd c8cb ff3d 7a62 aebd 6be5 9f3d
000003f0: e921 6b3c 4ca6 79bd 9644 423d 8c64 85bd
-0.092162795 -0.037808973 0.049252786 0.018807177 0.05890472 -0.008466107 -0.06321885 -0.052541714
-0.080930874 -0.04468061 0.018930834 0.014126248 0.048283007 -0.08563012 0.02873939 -0.06785738
-0.060546406 -0.076834984 -0.086631685 -0.093333386 -0.010921116 0.08300306 -0.08468543 0.018524166
-0.13914497 -0.013209995 0.030162256 -0.1071197 0.10678313 -0.029513853 -0.000871282 -0.11286074
-0.0047010584 -0.07150089 -0.038059648 -0.09898985 -0.106293894 -0.07631849 -0.03161783 -0.027686456
-0.050153267 0.03696019 0.084456675 -0.010074596 -0.04020466 -0.04970305 -0.047893558 0.018167425
-0.09698492 -0.068691306 -0.10674146 -0.07901301 -0.037022877 0.091214456 -0.095945574 -0.011609313
-0.055919845 -0.1553892 0.0086494265 -0.005961868 -0.04016048 0.020836452 -0.1104777 0.013670509
-0.13651218 0.12840235 -0.04568269 -0.13145863 -0.08841523 -0.020119954 0.017744401 -0.084951684
-0.087323725 -0.0007047125 0.016620219 -0.09596345 0.027721843 0.10597494 -0.0061417306 0.073969
-0.1287951 0.067456484 -0.11070873 -0.004417381 0.00039011327 -0.051184665 -0.10900972 -0.011407194
0.027235843 0.037034374 0.075403534 0.053382996 0.055969756 0.008664149 -0.07663756 -0.08857138
-0.107535966 -0.0641997 0.05995319 -0.09891247 0.041937448 -0.0023431012 -0.05275269 -0.041150708
0.046783786 0.057622753 0.054361485 -0.044536334 0.09991726 0.06082331 -0.08710369 -0.14271311
-0.055012982 -0.02223561 -0.041006602 0.044530835 -0.01230879 0.033840515 0.021051701 0.114837736
-0.014635747 0.10692073 -0.13879578 -0.043628268 -0.042426925 0.073971845 0.013316113 -0.08144244
-0.017445873 0.058514588 0.02345568 -0.03348947 0.0020553065 -0.012543623 -0.0008271626 0.022158323
-0.03086822 -0.10758126 -0.048065253 0.036832243 -0.06488011 -0.083557166 0.084749244 0.008401325
-0.029867075 -0.0075335205 -0.074108936 0.10129302 -0.005521206 -0.07375227 -0.10262601 0.04028626
-0.06675504 0.11704742 -0.059479583 -0.07950398 -0.060602996 -0.063112 -0.05058349 -0.026129734
-0.054511305 0.09292946 -0.073677815 -0.14333348 -0.03590065 -0.09912154 -0.09231311 -0.06194024
-0.086101845 -0.0031020874 -0.06159524 -0.15865466 -0.1501174 0.02431624 0.011127388 -0.08062376
-0.0785904 -0.07789947 0.07683055 -0.054111525 0.0577741 0.025390834 -0.149304 0.05750128
-0.013593531 0.083835416 -0.10524215 0.12606624 0.044998277 -0.010768121 0.036261898 -0.043786246
-0.05648048 0.0071136886 -0.072519585 -0.08298608 -0.032156523 0.056232736 -0.013571411 -0.050730187
-0.07893492 0.0746462 0.03023121 0.049867306 -0.13516004 0.078466244 0.007671367 0.030071704
-0.07923102 0.04216001 -0.029203488 -0.10947449 0.014921038 -0.02660798 -0.0165127 0.03763665
0.08358323 -0.06443095 0.11002613 -0.026772827 -0.10650039 0.0648811 -0.14246735 0.12648843
-0.0627299 0.04008227 -0.00751565 -0.11496361 -0.03428186 -0.07744985 0.07032499 -0.020997943
-0.06083609 -0.08773133 0.12554419 0.0065857214 -0.0016001227 -0.06811152 -0.02899103 -0.008077317
0.027196873 0.041147258 0.028671384 -0.03181419 -0.03491177 -0.063937366 -0.012716175 0.03653438
-0.08410174 0.1249004 -0.08514877 0.0780743 0.0143513465 -0.06094961 0.04742869 -0.065133184

network_body._body_endoder.seq_layers.2.weight f4 [256, 256]
00000000: c862 53bb b59c e83c dce0 a53d e0fd 393d
00000010: 0b7b 2abc e212 733d de04 0b3e a604 a43d
00000020: 8328 14be ba29 5cbd 8764 0b3e ad06 57bc
00000030: e6b4 2dbd 551c debd 0c24 a63c 4c77 05be
00000040: 732b ab3c 8cfc 05be c059 3cbd 5150 953c
00000050: a47a 1cbe 8741 1f3d 4016 cebd cf8c 253c
00000060: c8c8 1ebe 6732 9abc 14d5 f73b 6827 16bc
00000070: 90bc 9e3d 4913 95bd 94a0 d4ba cffb 92bd
00000080: 5cb5 2bbd 89aa ef3d d110 a93e 144e 113d
00000090: 6c3c ee3d 68c6 22bd af00 973d ba8c 803d
000000a0: ce96 403d 8132 84be 552e 893c 0019 c33d
000000b0: 77e5 7abd 3177 1f3d 5cda c33d 62e2 913c
000000c0: 1f67 1f3e decd 80bb 5926 89bc f352 513d
000000d0: d174 9f3d 894a dc3d c799 1c3c b754 66bd
000000e0: 67b4 4abc 515d 503e 197b 063e e362 97bc
000000f0: 85d0 4cbe b423 0a3e 795a 043e c56f df3c
00000100: 04ac 6cbd ff53 993e 6232 813d ea9a ce3d
00000110: b578 0cbe 4c62 b839 c66a 783d 3a77 db3d
00000120: d2ef 23bd 9f8e 243e de17 24bd 6f6b 1d3d
00000130: efcc 103e 6d53 bfbc 8026 7c3d 28b6 ba3d
00000140: ebf2 35bd e151 193d 61fa 0cbe f158 98bc
00000150: bc27 d9bd e1a9 a63d cc73 65bd 463b ac3d
00000160: e30d 8c3c bc63 2dbd 4aed 8fbc ad47 9ebb
00000170: 4592 ecbd db20 923c ea7e bdbd 4e1b 3abc
00000180: 0715 433d a748 203e 1fce 523e ef6d 60bd
00000190: 47f0 b73d 4b7b c8bd 6689 c4bd 444e c83b
000001a0: 7547 993d c616 0f3e d062 abbd 89e4 003d
000001b0: 7ea0 a43d 362f ff3c d3a8 b7bc a85f cc3c
000001c0: fbb0 293e 081e d3bd 20ca 603c c1bc 7f3d
000001d0: 2af1 313c af43 d5bd cb63 273d 1291 dcbb
000001e0: 2e54 da3d f23e cc3c 696a c33d 2a50 cfbd
000001f0: 982f 0abe f671 92bd 1c2e 03bd 4f25 a2bd
00000200: efab a03d 0dec 833d 253f 2b3e 9180 c3bd
00000210: f3d4 64bd 6f0a 0d3e ea5d 8a3d abe1 b23c
00000220: 206a 95bd c00c 05be 8852 123e 0180 65bd
00000230: fa0a 553b 811f cebc f598 debc 3415 d63d
00000240: d7a3 20bd b7c6 a13d 46a1 3c3c 9d9a a5bd
00000250: cc47 98bd 3882 a7bd 1f3f d5bb 9da8 493d
00000260: 9c97 39bd 0298 b5bd 777f 42bb df37 fdbd
00000270: 74c2 a43b e181 40bc 8544 303e 9fda ebbc
00000280: 708e a0bb b619 273d e57c b03d 6711 05bd
00000290: f957 07be 4659 ebbb 6a92 903d 10d6 d5bd
000002a0: 4839 923d acdd 033e 410a e53b d142 43bd
000002b0: 982a f0bb bae5 823d adee 3a3d 6d48 483c
000002c0: 981e 523e 34d6 1d3e 9270 d63b ced0 5cbd
000002d0: 5bc0 4b3d bcdb 68bd 3c5f b3bd 6991 293c
000002e0: 5d04 2d3e c253 febc d210 7a3d 96b5 d63d
000002f0: 64da 163d 2360 353d ddc5 9a3d ac3f b63c
00000300: 2f91 9abd 7536 df3b 8aa8 02be f63e f93d
00000310: b99f bb3d 57fe be3c e44e 0f3e ace9 363d
00000320: ae64 9cbd d430 7bbd 66bb 27bd 4f1f 3cbd
00000330: 925c f9bd 0f23 b63d 767c 0c3c 59ae 9dbd
00000340: feee 293d f3fc 4f3d 7c58 9e3d adcf 3dbd
00000350: 3138 56bd e8c1 a0bd 9bb8 5a3d 7b49 77bc
00000360: 0425 253d a98e 06be b50c 9a3d 3fcf 31bd
00000370: 1a9f 0dbe cdb6 9f3d b97e 21bd 4ba7 8c3c
00000380: 1cb9 8cbc b2f4 ef3d 0adc 903c f0f0 9b3d
00000390: faef 9ebd dce8 b23d cf25 31be cde5 bcbd
000003a0: 75b1 43bb 48ac 9a3d 2b6c eabc 84b9 133d
000003b0: 1595 963d c1a6 febc 887e 8cbd 2a5f c8bb
000003c0: 17f6 67bc 188e 453b f5a1 073e b1d5 9bbc
000003d0: f356 643e 4f78 de3d 8f41 513d cb75 de3c
000003e0: 4967 713d bebf b0bd 4d51 1fbe 8b84 07bd
000003f0: 8f45 0a3d 61e0 d53c 52d0 04be 32c6 77bd
-0.0032254923 0.028395036 0.08099529 0.04540813 -0.010405312 0.05934418 0.13576075 0.08008699
-0.14468579 -0.05375073 0.13612567 -0.01312415 -0.042408846 -0.10845248 0.02028086 -0.1303379
0.020894742 -0.1308462 -0.04598403 0.018226774 -0.15281159 0.03888085 -0.100628376 0.010104372
-0.1550628 -0.018822862 0.0075632427 -0.009164669 0.07750809 -0.07279069 -0.0016222172 -0.07176935
-0.041921005 0.11702449 0.33020642 0.03547485 0.11632618 -0.039739996 0.07373177 0.062768415
0.04701882 -0.2581978 0.016745726 0.09526253 -0.06125399 0.03893203 0.09563133 0.017808143
0.15566681 -0.0039307913 -0.016741918 0.051104497 0.07785953 0.10756404 0.009558148 -0.056233134
-0.012372113 0.20348097 0.13132896 -0.01847977 -0.20001419 0.13490182 0.12925138 0.027274976
-0.057781234 0.29946896 0.06308438 0.10088141 -0.13717921 0.00035168452 0.060648702 0.107161
-0.040023632 0.1607003 -0.040061824 0.038432535 0.14140676 -0.02335521 0.061560154 0.09116775
-0.044421118 0.0374316 -0.13767387 -0.018597098 -0.10603282 0.081378706 -0.056018636 0.08409743
0.017096465 -0.042331442 -0.017569203 -0.0048303218 -0.11551336 0.017837932 -0.092527226 -0.011359049
0.047627475 0.15652715 0.20586441 -0.05479234 0.08981376 -0.09789141 -0.09596519 0.0061128456
0.074843325 0.13973531 -0.08368456 0.031467948 0.08038424 0.031150442 -0.022419369 0.024947956
0.16571419 -0.103084624 0.013720065 0.06243587 0.010860721 -0.104133 0.040866654 -0.006731161
0.10660587 0.024932358 0.095417805 -0.10122712 -0.13494718 -0.071506426 -0.032026395 -0.07917272
0.07845294 0.064415075 0.16723306 -0.095460065 -0.055867147 0.13773511 0.06756194 0.021836122
-0.07295632 -0.12993145 0.14289296 -0.056030277 0.0032507763 -0.025161507 -0.027172545 0.10453263
-0.03921875 0.0789923 0.01151306 -0.08086131 -0.07435569 -0.08179134 -0.0065077688 0.049233068
-0.0453106 -0.08866884 -0.0029678026 -0.12364172 0.0050280634 -0.011749716 0.17213638 -0.02879077
-0.0048997924 0.040796004 0.08617572 -0.0324873 -0.13217153 -0.007182273 0.07059176 -0.1044122
0.07139832 0.1287753 0.0069897478 -0.047671143 -0.0073292963 0.06391473 0.045637775 0.012224299
0.20519483 0.15413743 0.006544181 -0.05391007 0.04974399 -0.05685018 -0.08758399 0.01034961
0.16896196 -0.031045798 0.061051197 0.104838535 0.036829367 0.044281136 0.07557271 0.022247158
-0.07547223 0.0068119117 -0.12759605 0.12170212 0.09161324 0.023314638 0.13994938 0.04465644
-0.076363906 -0.061325863 -0.0409502 -0.045928296 -0.121758595 0.08893406 0.008574596 -0.0769927
0.041487686 0.05077834 0.07731721 -0.046340633 -0.052299682 -0.07849485 0.05339871 -0.015093203
0.040318504 -0.13140358 0.07521955 -0.043410536 -0.13830224 0.07798538 -0.039427493 0.017169615
-0.01717811 0.11716594 0.017683048 0.076143146 -0.07760616 0.08735821 -0.17299579 -0.092235185
-0.0029860411 0.07552391 -0.028616032 0.036065593 0.07352654 -0.031085374 -0.068600714 -0.00611486
-0.0141577935 0.003014451 0.13245375 -0.019022794 0.22298793 0.10862791 0.051087912 0.027155777
0.05893639 -0.08630322 -0.15558358 -0.033085387 0.033757742 0.026107969 -0.12970093 -0.06049175
