Assets/NNModels/SphereLandingAgent.onnx (onnx, 85993 bytes, 13 tensors)

77 f4 [21]
8.76464 2.5856044 8.842598 2.8196406 0.7874697 2.9072955 0.83267117 0.05707731
0.08156034 0.05461614 0.051660724 0.051610157 0.05316821 0.0043026023 0.12234336 15.633489
0.13582586 2.6261914 6.0811253 2.7917569 0.43117967
00000000: f73b 0c41 8b7a 2540 487b 0d41 fe74 3440
00000010: 9d97 493f 2111 3a40 f029 553f e6c9 693d
00000020: 1c09 a73d 2cb5 5f3d 329a 533d 2c65 533d
00000030: e9c6 593d d8fc 8c3b 288f fa3d c522 7a41
00000040: ef15 0b3e 8513 2840 9498 c240 25ac 3240
00000050: 95c3 dc3e

action_model._discrete_distribution.branches.0.bias f4 [3]
0.02298746 -0.02329377 0.014890894
00000000: 3350 bc3c 94d2 bebc f0f8 733c

action_model._discrete_distribution.branches.0.weight f4 [3, 128]
-0.064889126 -0.1281349 -0.08604109 -0.20008333 -0.23326854 0.12741087 0.15458736 0.21997187
0.0075403457 0.16065758 -0.34125453 0.12648955 0.039288335 0.03941724 0.108705655 0.010404323
0.01694604 -0.05832674 0.08227672 0.035404485 0.08615122 -0.26946807 -0.49316183 0.26016355
0.009496145 -0.05593452 -0.061079055 -0.09415641 0.07993989 0.04360388 -0.21555771 0.12222702
0.1761213 0.08014149 0.12882861 0.017910501 0.09505606 -0.009008437 -0.14787555 0.095532484
0.030816618 -0.0071387407 0.0029425314 -0.07471944 -0.06321287 -0.16490503 -0.22181442 -0.12692405
-0.17127381 -0.10156306 -0.34091705 0.047052618 -0.030319504 -0.101405464 0.08533254 0.09702715
-0.14161621 0.1572371 0.21424913 0.124603674 -0.013026951 0.06453142 -0.30958733 0.1670123
0.18236545 -0.005175847 -0.010630462 0.20383044 -0.025376426 0.11284658 0.03663484 0.1346472
-0.060998376 0.01211061 -0.1363962 0.12007919 -0.023370588 0.12144242 -0.15588836 -0.25564882
0.14837797 0.05276245 -0.17089748 0.0042170254 -0.080907926 0.15875754 -0.041987672 0.14535579
-0.10705282 -0.14845209 -0.10336957 0.0052855965 -0.19146407 -0.18204539 -0.07441181 -0.17924261
-0.04415798 -0.030266253 -0.08954008 0.100206845 0.2005411 0.2243116 -0.06493504 0.11214625
0.15547849 0.040487293 -0.11885261 -0.01608637 0.17614524 0.076931745 0.022302499 0.05845675
-0.11552969 -0.15371561 0.07148364 -0.07553478 0.046090838 0.09413988 0.0006237393 0.14588538
0.059979685 0.20814049 -0.2012583 -0.12355969 -0.008945131 0.0060427585 0.22453372 0.26836497
0.010169945 -0.022186214 0.18597446 -0.017512131 0.37135112 -0.009281275 -0.080676205 -0.14779067
0.08765811 0.14272447 0.2453535 0.022071855 -0.18491764 0.29600894 0.058966197 0.16646105
-0.0027297363 -0.15861806 0.18852475 -0.015631648 -0.10806334 -0.22893949 0.17937209 -0.2140244
0.3456678 0.11939364 0.017459037 0.03826902 -0.052512284 -0.10329262 0.40715876 0.035714805
-0.18421106 0.029441716 -0.2654394 -0.29358283 -0.007790096 0.061665345 0.032355644 0.08240839
-0.05494727 -0.026404738 -0.04776023 0.1101588 0.17449366 0.010327697 -0.15508965 0.013430169
0.22254018 0.2078018 0.21684784 -0.09634696 0.04600084 -0.1563982 -0.043519963 -0.16262613
-0.022228755 -0.046913058 -0.026606128 0.17134131 0.1468376 -0.033018097 0.11613363 0.1894623
0.1421674 0.10738124 -0.1384813 -0.2684778 -0.1395418 0.0907861 0.026892208 -0.31074935
-0.106854245 0.14532365 -0.05317201 0.08505437 0.091000706 -0.06307227 0.094426274 0.27469614
-0.05608735 0.14510183 0.2613014 0.016589817 -0.18018326 -0.15043622 0.28051794 -0.233382
-0.24514203 -0.07731583 -0.13688366 -0.030664856 0.07150233 0.11060916 0.34276465 0.43997723
-0.018233646 -0.24471349 -0.12142108 0.23928319 -0.40073878 -0.15142798 0.25328448 0.07676936
-0.35614294 -0.26196003 -0.018916637 0.024581341 -0.11092372 -0.021632297 0.06983055 -0.014072005
0.2764043 0.032597635 -0.3115082 0.08884118 0.014083268 0.011185691 -0.027868366 0.00874945
-0.30377096 0.28805768 0.26464635 -0.07735033 0.093137756 -0.0026564437 -0.035725825 -0.043460086
00000000: 97e4 84bd cc35 03be 5036 b0bd a5e2 4cbe
00000010: f3dd 6ebe ff77 023e 264c 1e3e 4e40 613e
00000020: 0115 f73b 6c83 243e eab8 aebe 7a86 013e
00000030: ceec 203d f973 213d 12a1 de3d e576 2a3c
00000040: 6cd2 8a3c 05e8 6ebd b280 a83d 4b04 113d
00000050: 0d70 b03d b8f7 89be b57f fcbe 2834 853e
00000060: b895 1b3c 981b 65bd 082e 7abd 13d5 c0bd
00000070: 86b7 a33d fb99 323d 29bb 5cbe 2952 fa3d
00000080: 2459 343e 3921 a43d a6eb 033e 0bb9 923c
00000090: c0ac c23d 2098 13bc b06c 17be 89a6 c33d
000000a0: 2273 fc3c 19ec e9bb 7cd7 403b 8106 99bd
000000b0: c075 81bd dddc 28be 5223 63be 61f8 01be
000000c0: 6762 2fbe 4b00 d0bd ae8c aebe 3fba 403d
000000d0: 9c60 f8bc abad cfbd d4c2 ae3d 2cb6 c63d
000000e0: d703 11be c302 213e 2064 5b3e 3630 ff3d
000000f0: fe6e 55bc 0d29 843d 3b82 9ebe 4605 2b3e
00000100: 02be 3a3e 279a a9bb 642b 2ebc edb8 503e
00000110: 39e2 cfbc 1c1c e73d 6a0e 163d f5e0 093e
00000120: 6fd9 79bd 946b 463c 72ab 0bbe 14ec f53d
00000130: ad73 bfbc ceb6 f83d 33a1 1fbe 67e4 82be
00000140: 65f0 173e 701d 583d c0ff 2ebe f92e 8a3b
00000150: 0eb3 a5bd 5691 223e 44fb 2bbd 26d8 143e
00000160: 823e dbbd d303 18be 6db3 d3bd cc32 ad3b
00000170: 280f 44be 1b6a 3abe 3865 98bd 608b 37be
00000180: ffde 34bd eff0 f7bc ca60 b7bd 3f39 cd3d
00000190: a55a 4d3e f1b1 653e aafc 84bd efac e53d
000001a0: c135 1f3e 01d6 253d ff68 f3bd 90c7 83bc
000001b0: 6b5f 343e 648e 9d3d bbb3 b63c 5870 6f3d
000001c0: d59a ecbd a067 1dbe 0466 923d fbb1 9abd
000001d0: bfc9 3c3d 69cc c03d 7082 233a fa62 153e
000001e0: 42ad 753d c822 553e a816 4ebe dd0c fdbd
000001f0: 998e 12bc 5502 c63b 2bec 653e 2267 893e
00000200: d79f 263c ddbf b5bc 1770 3e3e 9a75 8fbc
00000210: bc21 be3e 7d10 18bc 9139 a5bd 7056 17be
00000220: 1886 b33d 5d26 123e f33d 7b3e 09d0 b43c
00000230: 0d5b 3dbe 7c8e 973e 8a86 713d c474 2a3e
00000240: 60e5 32bb c66c 22be a20c 413e f10d 80bc
00000250: 5050 ddbd 1d6f 6abe 51ad 373e 3629 5bbe
00000260: 5ffb b03e a784 f43d 4106 8f3c fabf 1c3d
00000270: 1f17 57bd 158b d3bd 1d77 d03e b049 123d
00000280: d3a1 3cbe c12f f13c ace7 87be 7d50 96be
00000290: 1044 ffbb cd94 7c3d 5a87 043d bbc5 a83d
000002a0: 6310 61bd c04e d8bc 3ba0 43bd f09a e13d
000002b0: 77ae 323e 8035 293c d2cf 1ebe 360a 5c3c
000002c0: 93e1 633e ffc9 543e 5c0d 5e3e 8e51 c5bd
000002d0: 606b 3c3d da26 20be fd41 32bd 7787 26be
000002e0: 1419 b6bc e827 40bd 18f5 d9bc 1974 2f3e
000002f0: 995c 163e fc3d 07bd 78d7 ed3d 6802 423e
00000300: 5594 113e b2ea db3d 0bce 0dbe ec75 89be
00000310: 0ce4 0ebe 10ee b93d 0c4d dc3c 8a1a 9fbe
00000320: 66d6 dabd b9cf 143e e5ca 59bd fc30 ae3d
00000330: 945e ba3d 092c 81bd 9062 c13d f9a4 8c3e
00000340: d9bb 65bd 9395 143e 4cc9 853e 5ee7 873c
00000350: f681 38be f40b 1abe 0ca0 8f3e b1fb 6ebe
00000360: 8306 7bbe c357 9ebd 3b2b 0cbe dd34 fbbc
00000370: d06f 923d 0e87 e23d d97e af3e b244 e13e
00000380: ba5e 95bc 2c96 7abe 9dab f8bd a706 753e
00000390: a22d cdbe f00f 1bbe 81ae 813e 4139 9d3d
000003a0: 5e58 b6be a01f 86be 10f7 9abc cf5e c93c
000003b0: fa2b e3bd 3736 b1bc 5203 8f3d 448e 66bc
000003c0: dd84 8d3e 1985 053d 017e 9fbe 5df2 b53d
000003d0: 82bd 663c 3044 373c 334c e4bc da59 0f3c
000003e0: de87 9bbe 4c7c 933e ba7f 873e da69 9ebd
000003f0: 02bf be3d bb17 2ebb 3e55 12bd 3403 32bd

action_model._discrete_distribution.branches.1.bias f4 [3]
0.11358513 -0.080929965 -0.02358695
00000000: 529f e83d 9cbe a5bd 6b39 c1bc

action_model._discrete_distribution.branches.1.weight f4 [3, 128]
0.08747601 -0.12758581 0.049083397 -0.010892355 0.016316464 -0.21908714 -0.02247925 0.122427344
0.11613177 -0.09745895 -0.008084715 0.15335563 0.22678098 0.11687491 0.071910076 -0.01752386
0.13959654 0.096735336 0.16560966 -0.09204648 0.04421253 -0.014057405 0.029511975 0.024282666
0.015370339 0.058715466 0.02648753 -0.05213738 -0.07000318 -0.14183517 0.02258561 -0.012575111
0.12432239 -0.33134946 0.03626354 -0.35160866 -0.015816128 0.057458125 0.18309662 -0.20289691
0.10912615 -0.032266814 0.1467424 0.07436915 -0.03161665 -0.006391331 0.1538456 0.017315866
-0.16938867 0.0052341134 -0.023996148 -0.4894593 -0.052050773 0.01708353 -0.20511088 0.21320975
0.20519572 0.1389011 0.18309775 0.074337706 0.11398295 0.010928455 -0.23736219 -0.008047145
0.12073862 -0.23553441 -0.20401512 -0.13924994 -0.04594706 0.22498883 -0.113354094 -0.045171052
0.2642527 -0.23657097 -0.10470748 -0.121261984 0.03253806 -0.07085667 -0.20926715 0.1374062
0.4017521 0.009950899 -0.102770634 0.15072599 -0.05911741 0.100734316 0.13643679 -0.063715294
0.086620614 0.001953673 0.20886803 -0.017722627 -0.10382762 -0.10268776 0.011675519 0.076898545
-0.21954297 0.177278 0.15649737 -0.04638962 0.018125903 0.0032297792 -0.008765183 0.23136306
0.04205619 0.12455293 0.0721307 -0.03336804 0.11394595 0.042874098 0.06556858 -0.2763047
-0.050884895 -0.026936168 0.052043606 0.11931394 -0.38138756 0.14807461 -0.076011546 0.039871514
0.082814164 -0.027631696 0.039027724 0.15037173 0.15673104 -0.0049410313 0.15863897 0.23409112
0.104505405 0.10815595 0.1893994 -0.096664555 -0.026753198 0.32787436 -0.15608001 -0.51877606
-0.13875808 0.17090201 0.1755283 -0.0054833777 -0.008426676 0.09789395 0.018981602 -0.107053705
-0.10096507 -0.061524883 0.04471347 0.0706179 -0.11656626 0.039932035 0.1683081 -0.077100046
0.037464075 0.24664755 0.1080654 -0.070976324 0.149656 0.06220167 0.0038434924 0.025926288
-0.036549717 0.31685826 -0.1473831 0.16730696 0.14809532 0.07442453 -0.052985433 0.1351781
0.19268362 -0.038891964 -0.04262222 0.02875208 -0.27408978 0.086097606 0.2436691 0.1453256
0.17880689 -0.33004072 -0.052939482 0.23111519 0.29454535 -0.01294283 0.3351811 -0.20421116
-0.09001952 -0.40045983 -0.062156003 0.021007517 -0.104341485 0.14348443 0.25327957 0.06933705
0.107006 0.302702 0.123240374 0.2813486 0.33441085 0.01317786 -0.12281088 -0.17877387
0.13167296 0.3369669 0.0663942 0.16009493 -0.13920411 0.003231604 0.33298376 -0.18527173
-0.119966686 0.1805357 0.36755267 0.1625872 -0.026426882 0.0034578023 -0.00066540093 -0.03589965
-0.040655416 0.08704142 0.07266436 0.0787575 -0.019185457 0.058870878 0.092565104 0.16805711
0.092868894 -0.018932752 -0.010171706 0.14797966 0.101124935 0.2727791 0.19695197 0.16693202
0.033433042 -0.0709002 0.07945649 0.1974728 0.15802203 0.13856204 0.17400725 0.2643794
-0.2703796 0.011695444 0.051750004 0.042684354 0.16205914 -0.04286863 -0.11820648 0.14079393
0.02908867 0.07523134 0.025597474 0.0939727 0.1639617 0.12150328 -0.1577313 0.01957967
00000000: 9f26 b33d dba5 02be ac0b 493d d975 32bc
00000010: 1baa 853c 6158 60be 6726 b8bc 30bb fa3d
00000020: 7ed6 ed3d 8f98 c7bd c175 04bc 4209 1d3e
00000030: 4639 683e 1d5c ef3d 9745 933d 338e 8fbc
00000040: 65f2 0e3e 2d1d c63d 9495 293e dd82 bcbd
00000050: 3318 353d 0851 66bc 19c3 f13c 71ec c63c
00000060: e0d3 7b3c a17f 703d 60fc d83c 018e 55bd
00000070: d45d 8fbd 3d3d 11be 7505 b93c d707 4ebc
00000080: bd9c fe3d a3a6 a9be 1489 143d 0d06 b4be
00000090: d390 81bc 3659 6b3d ae7d 3b3e 35c4 4fbe
000000a0: 887d df3d 352a 04bd a443 163e da4e 983d
000000b0: 7680 01bd 5f6e d1bb b389 1d3e 01da 8d3c
000000c0: 3974 2dbe ed82 ab3b 9293 c4bc 699a fabe
000000d0: 3133 55bd c2f2 8b3c 9608 52be a853 5a3e
000000e0: d41e 523e 173c 0e3e fa7d 3b3e 5e3e 983d
000000f0: e56f e93d 430d 333c 130f 73be 2cd8 03bc
00000100: cf45 f73d ef2f 71be 57e9 50be 8997 0ebe
00000110: fc32 3cbd 7963 663e 3126 e8bd 4805 39bd
00000120: 214c 873e a93f 72be e070 d6bd 3458 f8bd
00000130: a146 053d 4d1d 91bd 214a 56be 36b4 0c3e
00000140: 74b2 cd3e 1809 233c 6979 d2bd ea57 1a3e
00000150: 1925 72bd cb4d ce3d 16b6 0b3e 2a7d 82bd
00000160: 2666 b13d 3209 003b 80e1 553e 0b2f 91bc
00000170: 93a3 d4bd f64d d2bd ad4a 3f3c fc7c 9d3d
00000180: dfcf 60be 5d88 353e d940 203e 0b03 3ebd
00000190: c67c 943c b4aa 533b d89b 0fbc 70ea 6c3e
000001a0: 1d43 2c3d 9b15 ff3d 43b9 933d edac 08bd
000001b0: 7f5c e93d c09c 2f3d d248 863d cf77 8dbe
000001c0: ae6c 50bd 3da9 dcbc ad2b 553d de5a f43d
000001d0: 3b45 c3be dfa0 173e f1ab 9bbd 5050 233d
000001e0: 799a a93d de5b e2bc 89db 1f3d 0cfb 193e
000001f0: 1a7e 203e 60e8 a1bb 4172 223e 95b5 6f3e
00000200: ee06 d63d de80 dd3d ebf1 413e 11f8 c5bd
00000210: 8629 dbbc 26df a73e 70d3 1fbe 82ce 04bf
00000220: 9916 0ebe f000 2f3e b1bd 333e e8ad b3bb
00000230: 0a10 0abc a07c c83d 4e7f 9b3c f93e dbbd
00000240: c6c6 cebd 8401 7cbd 7925 373d 1ea0 903d
00000250: 4bba eebd c68f 233d f558 2c3e a1e6 9dbd
00000260: ee73 193d 2d91 7c3e 6451 dd3d 095c 91bd
00000270: 6c3f 193e 2ec7 7e3d 1ae3 7b3b 5e63 d43c
00000280: 28b5 15bd 3f3b a23e 98eb 16be 8452 2b3e
00000290: 4da6 173e e36b 983d 4107 59bd 216c 0a3e
000002a0: db4e 453e 2e4d 1fbd a394 2ebd 7b89 eb3c
000002b0: 7f55 8cbe f153 b03d 6484 793e 3cd0 143e
000002c0: 2719 373e 19fb a8be 12d7 58bd 76a9 6c3e
000002d0: a6ce 963e 2a0e 54bc db9c ab3e bb1c 51be
000002e0: 275c b8bd 1209 cdbe 4b97 7ebd f517 ac3c
000002f0: fdb0 d5bd 95ed 123e dcad 813e 9500 8e3d
00000300: f625 db3d c2fb 9a3e 7365 fc3d ec0c 903e
00000310: e637 ab3e f3e7 573c 4584 fbbd 7f10 37be
00000320: 47d5 063e ed86 ac3e aff9 873d edef 233e
00000330: 868b 0ebe 51c9 533b d97c aa3e dfb7 3dbe
00000340: 18b1 f5bd 5ade 383e dd2f bc3e 427d 263e
00000350: 307d d8bc 4c9c 623b 4d6e 2eba 830b 13bd
00000360: 4b86 26bd c642 b23d 0dd1 943d 9d4b a13d
00000370: d22a 9dbc 9722 713d c692 bd3d 2a17 2c3e
00000380: 0c32 be3d dc18 9bbc 3aa7 26bc fb87 173e
00000390: 971a cf3d b4a9 8b3e c7ad 493e 3af0 2a3e
000003a0: 16f1 083d 2034 91bd 16ba a23d 4f36 4a3e
000003b0: 87d0 213e 35e3 0d3e f52e 323e bd5c 873e
000003c0: 326f 8abe 3f9e 3f3c d0f7 533d cad5 2e3d
000003d0: d5f2 253e 0497 2fbd 3d16 f2bd 492c 103e
000003e0: 5d4b ee3c e412 9a3d cbb1 d13c c274 c03d
000003f0: 93e5 273e b6d6 f83d 5084 21be 8b65 a03c

action_model._discrete_distribution.branches.2.bias f4 [3]
-0.10393253 0.098943464 0.032713585
00000000: 94da d4bd dfa2 ca3d aefe 053d

action_model._discrete_distribution.branches.2.weight f4 [3, 128]
0.059627313 0.10503569 -0.17258494 0.10729728 0.14933968 0.18146724 -0.010045265 0.004220012
0.16740482 -0.06449874 -0.22602019 -0.05161718 0.08858117 0.14114092 -0.27084208 0.11841615
-0.042956665 0.04478015 0.016057946 0.30555895 0.04764656 -0.014232343 0.07858549 0.27809566
-0.13210724 0.104278356 0.063671365 0.27805775 -0.025831645 0.07542703 -0.10663013 -0.043445636
-0.13108401 0.26650003 -0.070428535 0.12257446 0.16740225 0.022720234 0.15341754 -0.22671577
-0.017668827 0.053678695 0.07276181 -0.071739 0.1394768 -0.12457785 -0.11157816 -0.14114119
0.16318864 -0.018449238 0.10339318 0.029977065 -0.099335335 0.04141416 0.12009021 0.18937124
-0.05638804 0.097886465 0.10248294 0.06335984 0.00043877383 0.15511467 -0.07858772 0.07753369
0.1737046 -0.024477193 0.1587267 -0.07497624 -0.12985471 0.2391277 0.3095292 -0.0499749
0.16957492 0.022269532 0.15939753 0.24584138 0.047075115 0.21833524 0.082970455 -0.01958797
0.030325506 0.2412656 0.24960676 -0.09466016 0.097659 0.13477553 -0.049601972 0.117274195
0.22632498 0.14351507 0.12589586 0.3762609 0.1088961 -0.2856764 0.09803324 0.046227653
-0.027386673 0.05114038 -0.16392948 -0.049404915 0.0059034484 0.06265297 0.08214369 -0.13204724
-0.08407361 0.12133169 0.14389785 -0.013928185 -0.19845064 0.057265583 -0.2857108 0.2044894
0.05446694 0.38157305 0.17548887 0.11550095 0.079888664 0.12394189 0.15270096 0.14970303
0.008630727 -0.07011928 0.114817925 -0.002711614 -0.22049242 0.10303975 -0.34308383 0.06882889
0.24872935 -0.10156155 0.045044173 0.1995103 0.08154313 -0.14841767 0.207877 -0.03926287
-0.2859667 0.18814579 0.22536317 0.14159924 0.050155636 -0.024508305 0.13760377 -0.03946174
-0.02352898 0.21187809 0.022474661 -0.14612232 0.1440245 -0.016775742 -0.050886694 -0.029119886
0.15838227 -0.13453798 -0.030434959 -0.08203405 0.28987277 0.018809121 0.0678516 -0.09103411
-0.1414155 0.025059259 0.16807686 0.018827278 -0.28632623 0.024427531 -0.062627606 0.17900477
0.2785202 -0.25105426 0.024335565 0.013912201 -0.10351201 0.085496806 0.07455387 0.02465682
0.012684431 -0.026494404 0.08469103 0.13799822 0.08076732 0.15496989 -0.157274 0.11465415
0.005632502 -0.03159006 -0.26597214 -0.1132068 0.034322653 -0.36316282 -0.037122298 -0.03928518
-0.2214022 0.008255984 0.25359097 0.015915262 0.2854356 0.10178196 0.10164294 0.18712564
0.07838504 0.2400767 -0.21604621 -0.05703683 -0.28164014 -0.17193954 -0.12216104 0.07397561
-0.21840903 -0.2536076 0.019938022 0.14673531 -0.011456767 0.055199467 0.01966325 0.10091578
0.006485667 -0.03555149 0.10753941 -0.18654633 -0.16637471 0.1132193 0.034300737 0.2097713
-0.082371995 -0.05471117 0.37003964 -0.10851448 0.017098159 -0.093946144 -0.08962753 0.21958031
-0.028896946 0.20703942 0.015365845 -0.35788068 0.24192235 -0.3997318 0.1719888 -0.18825825
-0.016540324 -0.12937239 -0.15641584 -0.22700503 -0.07785405 0.15071768 0.14394881 -0.14296527
-0.078707546 0.028031833 0.1377622 0.15628895 0.06796107 -0.4100353 0.10603178 0.1515071
00000000: c53b 743d f41c d73d 1bba 30be adbe db3d
00000010: 80ec 183e 8cd2 393e e594 24bc 0748 8a3b
00000020: 2b6c 2b3e ea17 84bd d671 67be 896c 53bd
00000030: 0b6a b53d 3f87 103e d0ab 8abe 2b84 f23d
00000040: 54f3 2fbd 646b 373d f48b 833c 3972 9c3e
00000050: 0a29 433d c62e 69bc 6ef1 a03d 8e62 8e3e
00000060: 1f47 07be e48f d53d 2266 823d 965d 8e3e
00000070: e39c d3bc 7d79 9a3d e660 dabd 0df4 31bd
00000080: e33a 06be b172 883e d63c 90bd 5208 fb3d
00000090: 7f6b 2b3e c91f ba3c 7d19 1d3e 2e28 68be
000000a0: 37be 90bc 31de 5b3d 2504 953d e6eb 92bd
000000b0: 02d3 0e3e ac22 ffbd 1783 e4bd 5187 10be
000000c0: ec1a 273e db22 97bc cebf d33d 7692 f53c
000000d0: 5370 cbbd e5a1 293d dbf1 f53d 89ea 413e
000000e0: 25f7 66bd b378 c83d 93e2 d13d cec2 813d
000000f0: 3a0b e639 61d6 1e3e 99f2 a0bd fcc9 9e3d
00000100: 9edf 313e 6584 c8bc 4189 223e 258d 99bd
00000110: a2f8 04be e4dd 743e 9c7a 9e3e 7bb2 4cbd
00000120: 0ca5 2d3e 986e b63c 1b39 233e d8bd 7b3e
00000130: d6d1 403d 4693 5f3e 6aec a93d f376 a0bc
00000140: 326d f83c 540e 773e ea98 7f3e 30dd c1bd
00000150: 7101 c83d 9902 0a3e 702b 4bbd 742d f03d
00000160: bcc1 673e 9df5 123e d8ea 003e 45a5 c03e
00000170: eb04 df3d 2d44 92be a7c5 c83d 3559 3d3d
00000180: 045a e0bc 9378 513d 21dd 27be cf5c 4abd
00000190: b771 c13b 3350 803d f33a a83d 6437 07be
000001a0: c92e acbd c07c f83d f559 133e 0b33 64bc
000001b0: a536 4bbe 518f 6a3d b048 92be ab65 513e
000001c0: ba18 5f3d 8b5d c33e 5bb3 333e c38b ec3d
000001d0: ab9c a33d 3fd5 fd3d a45d 1c3e c04b 193e
000001e0: e567 0d3c b29a 8fbd a925 eb3d 55b5 31bb
000001f0: c4c8 61be 8106 d33d afa8 afbe 29f6 8c3d
00000200: e8b2 7e3e 80ff cfbd 3d80 383d 6e4c 4c3e
00000210: 1600 a73d cdfa 17be b5dd 543e 1ad2 20bd
00000220: 3a6a 92be 4aa9 403e 9ac5 663e 64ff 103e
00000230: ff6f 4d3d a4c5 c8bc 01e8 0c3e a2a2 21bd
00000240: d9bf c0bc 92f6 583e c81c b83c 17a1 15be
00000250: 297b 133e 486d 89bc 916e 50bd d48c eebc
00000260: f62e 223e 53c4 09be bc52 f9bc 7801 a8bd
00000270: 346a 943e 9615 9a3c c8f5 8a3d 1770 babd
00000280: 3acf 10be 1349 cd3c 571c 2c3e aa3b 9a3c
00000290: 5a99 92be 3f1c c83c e742 80bd 074d 373e
000002a0: 339a 8e3e 2f8a 80be 615b c73c 00f0 633c
000002b0: 1bfe d3bd f318 af3d b3af 983d 19fd c93c
000002c0: 5cd2 4f3c cb0a d9bc 7e72 ad3d 684f 0d3e
000002d0: 5669 a53d 6db0 1e3e 6f0c 21be cccf ea3d
000002e0: da90 b83b 9464 01bd 802d 88be f7d8 e7bd
000002f0: e995 0c3d 7af0 b9be 8d0d 18bd 7fe9 20bd
00000300: 42b7 62be 1b44 073c add6 813e b960 823c
00000310: 9d24 923e 0f73 d03d 2c2a d03d dd9d 3f3e
00000320: 5688 a03d abd6 753e 383b 5dbe 739f 69bd
00000330: 2333 90be eb10 30be 912f fabd 8680 973d
00000340: 9ea6 5fbe dbd8 81be 1055 a33c c841 163e
00000350: 2ab5 3bbc d618 623d d314 a13c efac ce3d
00000360: b885 d43b 709e 11bd 9f3d dc3d 0006 3fbe
00000370: 225e 2abe 85df e73d ee7e 0c3d 4ace 563e
00000380: a6b2 a8bd d218 60bd d675 bd3e d73c debd
00000390: 7011 8c3c d666 c0bd a38e b7bd a9d9 603e
000003a0: 4ab9 ecbc 2402 543e 06c1 7b3c 233c b7be
000003b0: 7eba 773e a6a9 ccbe d51d 303e c5c6 40be
000003c0: 937f 87bc 327a 04be 792b 20be 0274 68be
000003d0: f271 9fbd bc55 1a3e 5167 133e 7d65 12be
000003e0: 6c31 a1bd 04a3 e53c 8911 0d3e 360a 203e
000003f0: 2c2f 8b3d 26f0 d1be 3127 d93d ad24 1b3e

discrete_action_output_shape f4 [1, 3]
3.0 3.0 3.0
00000000: 0000 4040 0000 4040 0000 4040

network_body._body_endoder.seq_layers.0.bias f4 [128]
0.12267521 0.01456406 -0.09398107 0.019281149 -0.04898803 0.032995015 0.050890528 -0.044198547
0.21030225 0.009463369 0.15267564 0.14552438 0.22571376 -0.029254066 -0.17716645 0.10000856
0.013377172 -0.028328355 -0.18881468 0.12534979 -0.00050462864 -0.18783577 -0.18015659 -0.019142631
-0.31577516 -0.15443271 -0.12442967 0.061499547 -0.038757462 0.07284351 0.038665093 0.5042843
0.12372794 0.023344042 -0.12184433 -0.1767659 -0.13936064 -0.14004368 -0.05180105 -0.008276985
0.03579651 -0.10269032 0.19442382 -0.062725335 -0.07945547 -0.1601935 0.0828829 -0.025821887
0.25874567 -0.092603676 -0.046087567 -0.05726054 -0.10979458 -0.10842723 -0.14620055 0.064422205
0.16953202 0.23073529 -0.1811535 0.331843 0.050004955 0.04961462 0.40373957 0.25685823
-0.12078245 -0.09706389 -0.31052616 0.12722483 -0.18084669 -0.2182907 0.008223622 -0.19145137
0.14581585 0.14699122 0.14482741 0.054407597 -0.1105266 0.15636812 -0.033167854 -0.09453393
-0.108388975 0.028853063 -0.1488645 0.15528886 0.21855572 0.090061516 0.26820752 0.12713276
0.02683143 0.21119367 0.21857011 -0.08984034 -0.27346316 -0.008347077 -0.04522804 0.05471164
-0.1705306 -0.003984071 0.15634237 -0.12200992 0.039682515 0.033240676 -0.029769018 -0.034033645
0.083425865 -0.06614917 -0.04728071 -0.14681086 0.041898314 0.14830673 0.42111644 -0.2841161
0.08986179 0.11196616 0.18659686 0.2248394 -0.07233079 -0.043526947 0.31542957 -0.09228586
-0.07694167 0.43066284 -0.009601464 0.040926114 -0.05230643 0.26965675 -0.26535478 0.1031238
00000000: 243d fb3d 189e 6e3c 2679 c0bd 80f3 9d3c
00000010: aca7 48bd c825 073d 9672 503d 8909 35bd
00000020: 7959 573e 3f0c 1b3c 0157 1c3e 5804 153e
00000030: 8221 673e 39a6 efbc 1f6b 35be 4ad1 cc3d
00000040: ed2b 5b3c de10 e8bc a358 41be b25b 003e
00000050: 0e49 04ba 0558 40be f87a 38be 02d1 9cbc
00000060: 48ad a1be 9c23 1ebe fcd4 febd f3e6 7b3d
00000070: 25c0 1ebd fa2e 953d 4a5f 1e3d c718 013f
00000080: 1365 fd3d 013c bf3c 8589 f9bd 1f02 35be
00000090: 8eb4 0ebe 9c67 0fbe 562d 54bd 319c 07bc
000000a0: 5c9f 123d 4d4f d2bd 0a17 473e 2476 80bd
000000b0: 8db9 a2bd c409 24be 83be a93d 6c88 d3bc
000000c0: 507a 843e ffa6 bdbd 51c6 3cbd 078a 6abd
000000d0: fbdb e0bd 180f debd 99b5 15be caef 833d
000000e0: cd99 2d3e df45 6c3e 4e80 39be 53e7 a93e
000000f0: ffd1 4c3d b338 4b3d f4b6 ce3e ec82 833e
00000100: ca5c f7bd 6fc9 c6bd 49fd 9ebe 3a47 023e
00000110: e02f 39be 9987 5fbe 5fbc 063c d40b 44be
00000120: c050 153e de84 163e a34d 143e 80da 5e3d
00000130: c55b e2bd f71e 203e 04db 07bd 019b c1bd
00000140: 0afb ddbd 425d ec3c ef6f 18be 0b04 1f3e
00000150: 12cd 5f3e 2c72 b83d 7f52 893e 172f 023e
00000160: 96cd db3c 2743 583e d8d0 5f3e 36fe b7bd
00000170: 5d03 8cbe 2ec2 08bc 0a41 39bd 5019 603d
00000180: 939f 2ebe cf8c 82bb 3718 203e 56e0 f9bd
00000190: 228a 223d 6027 083d 28de f3bc dd66 0bbd
000001a0: 2edb aa3d 3779 87bd 6ba9 41bd 9655 16be
000001b0: 919d 2b3d b8dd 173e 939c d73e aa77 91be
000001c0: 7509 b83d 844e e53d 3f13 3f3e 4d3c 663e
000001d0: 2a22 94bd 5049 32bd fc7f a13e 5e00 bdbd
000001e0: 9893 9dbd d77f dc3e 754f 1dbc 24a2 273d
000001f0: 443f 56bd 7310 8a3e 95dc 87be 9232 d33d

network_body._body_endoder.seq_layers.0.weight f4 [128, 21]
0.122492276 0.10941177 -0.20336576 0.47685167 -0.6783431 0.0883632 0.45433676 0.7768685
-0.079451546 0.06341117 -0.3411155 -0.19925919 -0.21028452 0.24199723 -0.46460757 -0.20409524
-0.2713287 0.12843212 0.0388929 0.19419762 0.24372536 -0.4368364 -0.32108277 0.094598465
-0.31527746 -0.12725568 0.70953834 0.26106617 0.12675923 -0.110854484 0.41946232 0.34509143
-0.75788087 0.2730199 -0.020780157 -0.027670467 0.4605541 0.11172517 0.37766904 -0.5354239
-0.34624496 0.17382404 -0.9686587 -0.029682616 0.43549392 -0.14643522 -0.30761418 0.18042344
0.2789266 0.21385528 -0.25538492 0.5046162 -0.054800898 -0.22967365 -0.20890188 -0.26680842
0.004008034 0.0558486 0.22229812 -0.10956891 -0.58453053 0.17370054 -0.18552274 0.471638
-0.20878641 0.19829825 -0.4436578 -0.29443517 0.07511689 0.115549326 -0.3338549 0.17274547
0.49987108 0.5616024 -0.08525549 0.2590997 -0.1439117 0.15572141 0.46668717 -0.0333482
-0.20532326 -0.04268483 -0.6046374 0.38993222 -0.37389156 0.53855646 0.34626642 -0.044107582
-0.37754315 0.17201538 -0.39160773 -0.33029458 -0.32198134 0.10435715 -0.6651145 -0.32948104
0.06788145 0.19743766 0.9371514 -0.3269571 -0.046698175 0.16331448 0.08615094 -0.1262328
0.08642207 -0.22317323 -0.067235254 -0.1986463 0.76881146 0.1908844 -0.34191287 0.032253895
-0.21530333 0.0714906 0.5138712 -0.069465004 0.43284488 -0.3125223 0.1668471 0.051570352
-0.5339677 -0.43482053 -0.5328631 -0.105735496 0.08354485 -0.13765757 0.20483203 -0.6020663
0.2637069 -0.1199475 0.28766355 -0.50228184 -0.12807272 0.07502361 -0.057074554 0.37771994
0.66057676 0.09654992 0.4061812 -0.045113992 0.23578955 -0.44804278 -0.22280419 -0.21441455
-0.22870645 -0.12290324 0.027345467 -0.13815974 -0.11422899 -0.120287225 -0.40914848 -0.45581374
0.09063287 0.22789003 -0.24607721 -0.02298493 0.37490043 0.095046654 -0.20242958 -0.097552545
-0.26766118 0.20864686 0.09163709 -0.043359533 -0.49430418 0.012589826 0.046562757 0.09712012
0.33940935 -0.05634961 -0.09138593 -0.067516096 -0.36869735 0.58534867 0.22066426 0.00739835
0.34078553 -0.064083986 -0.38274753 0.28440362 -0.12748925 -0.0025450704 0.63049805 -0.03924503
0.59148526 0.08172448 0.46634457 -0.59058756 -0.15582731 -0.4079982 -0.37337857 0.053432018
-0.045534685 0.01330235 -0.23972169 -0.1717299 0.35760438 -0.528602 0.36461693 0.2534792
-0.261945 -0.005062338 0.025942326 0.74648 0.021705123 -0.25542885 -0.41711593 0.49408248
-0.005531123 0.37960187 -0.22596064 0.24606182 0.25353858 0.15133516 -0.24728222 -0.30208817
-0.26066816 -1.1083597 -0.015953345 -0.35698977 -0.01436316 0.040251043 0.18367961 -0.3856509
0.22798954 -0.1940207 -0.05385448 -0.20842816 0.21610953 -0.27595103 -0.26411602 0.43327928
-0.15854816 -0.25273085 -0.5492818 0.2635156 0.42854095 0.33249977 -0.1216679 0.075933315
-0.5701242 0.41659525 0.47324932 -0.3385615 0.03135499 0.06312172 -0.101124875 0.58896166
0.10029036 0.2392012 -0.110006444 -0.45435482 -0.024305595 0.35372442 0.044615272 0.27347338
00000000: 3bdd fa3d 4713 e03d 1d3f 50be e725 f43e
00000010: e5a7 2dbf c4f7 b43d d49e e83e dbe0 463f
00000020: 7eb7 a2bd b7dd 813d b1a6 aebe 9a0a 4cbe
00000030: d354 57be 1fce 773e 0be1 edbe 58fe 50be
00000040: 98eb 8abe b683 033e 294e 1f3d bedb 463e
00000050: 2493 793e 05a9 dfbe f664 a4be d7bc c13d
00000060: 0c6c a1be 504f 02be 4ea4 353f 77aa 853e
00000070: 2ccd 013e ad07 e3bd c4c3 d63e d3af b03e
00000080: 7b04 42bf 44c9 8b3e 263b aabc 2dad e2bc
00000090: bfcd eb3e 2ad0 e43d d65d c13e 8a11 09bf
000000a0: 0547 b1be eefe 313e 04fa 77bf f528 f3bc
000000b0: 0ff9 de3e 1df3 15be 9b7f 9dbe ecc0 383e
000000c0: 78cf 8e3e e1fc 5a3e d0c1 82be 872e 013f
000000d0: e876 60bd 922f 6bbe 60ea 55be 1d9b 88be
000000e0: d355 833b 80c1 643d 1ea2 633e aa65 e0bd
000000f0: cba3 15bf 8ede 313e acf9 3dbe 897a f13e
00000100: 1bcc 55be b20e 4b3e 1d27 e3be 35c0 96be
00000110: e2d6 993d 20a5 ec3d 08ef aabe 30e4 303e
00000120: 1aef ff3e 2dc5 0f3f 6e9a aebd b7a8 843e
00000130: 975d 13be 6f75 1f3e 9ff1 ee3e 1f98 08bd
00000140: 4340 52be 4ad6 2ebd 84c9 1abf 32a5 c73e
00000150: b76e bfbe d6de 093f d549 b13e 27aa 34bd
00000160: 564d c1be cd24 303e cf80 c8be 5f1c a9be
00000170: bdda a4be 34b9 d53d f244 2abf bdb1 a8be
00000180: 6e05 8b3d 192d 4a3e 27e9 6f3f ec66 a7be
00000190: 9646 3fbd e93b 273e e76f b03d 2c43 01be
000001a0: 0efe b03d 8687 64be a3b2 89bd f069 4bbe
000001b0: d4d0 443f 3377 433e 340f afbe a91c 043d
000001c0: 7a78 5cbe aa69 923d 108d 033f ab43 8ebd
000001d0: d89d dd3e ec02 a0be f7d9 2a3e 6f3b 533d
000001e0: 1bb2 08bf cca0 debe b769 08bf da8b d8bd
000001f0: 9019 ab3d 1bf6 0cbe 7dbf 513e 0421 1abf
00000200: 9704 873e 09a7 f5bd a348 933e 8b95 00bf
00000210: 7f25 03be faa5 993d 02c7 69bd 8264 c13e
00000220: 8f1b 293f f7bb c53d fbf6 cf3e 73c9 38bd
00000230: d172 713e dd65 e5be c826 64be 7d8f 5bbe
00000240: 0632 6abe b2b4 fbbd 9a03 e03c bf79 0dbe
00000250: e4f0 e9bd 2659 f6bd e97b d1be 6b60 e9be
00000260: ba9d b93d 015c 693e aafb 7bbe e44a bcbc
00000270: f3f2 bf3e d2a7 c23d b349 4fbe a1c9 c7bd
00000280: e30a 89be 86a7 553e 3aac bb3d c499 31bd
00000290: 7015 fdbe 8f45 4e3c 97b8 3e3d eae6 c63d
000002a0: 10c7 ad3e d9ce 66bd 8c28 bbbd e145 8abd
000002b0: e6c5 bcbe 69d9 153f d0f5 613e dc6d f23b
000002c0: 717b ae3e 773e 83bd 7cf7 c3be 5a9d 913e
000002d0: 8b8c 02be 32cb 26bb 5268 213f 66bf 20bd
000002e0: 946b 173f 2a5f a73d b7c4 ee3e bf30 17bf
000002f0: 3291 1fbe 24e5 d0be 7a2b bfbe 88db 5a3d
00000300: 9482 3abd 1af2 593c 9a79 75be f7d9 2fbe
00000310: ec17 b73e 7652 07bf 12af ba3e 07c8 813e
00000320: a81d 86be f8e1 a5bb 0085 d43c 5019 3f3f
00000330: f1ce b13c 92c7 82be 3890 d5be 61f8 fc3e
00000340: 6c3e b5bb 2d5b c23e 3a62 67be a1f7 7b3e
00000350: cfcf 813e 9bf7 1a3e 8d37 7dbe 4dab 9abe
00000360: 4c76 85be bbde 8dbf 97b0 82bc 5dc7 b6be
00000370: 7653 6bbc 47de 243d 8216 3c3e 0974 c5be
00000380: 1776 693e 5dad 46be 8496 5cbd 316e 55be
00000390: d14b 5d3e 7449 8dbe 373a 87be c8d6 dd3e
000003a0: 735a 22be f065 81be bb9d 0cbf 84eb 863e
000003b0: b869 db3e 693d aa3e 052d f9bd ed82 9b3d
000003c0: a9f3 11bf f94b d53e bc4d f23e ef57 adbe
000003d0: 176e 003d f645 813d 8f1a cfbd 31c6 163f
000003e0: 0865 cd3d 29f1 743e 0f4b e1bd 32a1 e8be
000003f0: 871c c7bc 5e1b b53e 81be 363d b404 8c3e

network_body._body_endoder.seq_layers.2.bias f4 [128]
-0.14380126 -0.08445032 -0.20864005 -0.1354378 0.30255815 0.10779073 -0.03698865 0.07974409
-0.091508284 0.057334315 -0.059566416 -0.006870709 0.05377196 0.05456991 -0.006066904 -0.009397856
-0.1707991 -0.16676442 0.008887143 -0.09985105 -0.11791281 -0.12308928 0.06738919 -0.14212438
0.2977019 -0.05725621 -0.098264374 -0.1719973 0.00987166 0.0045875544 -0.1357366 -0.099434055
0.014580934 -0.18702132 -0.12072226 -0.18885738 0.008183429 -0.11258302 0.058039654 -0.03300457
-0.021683073 -0.09705362 -0.06892648 -0.11775138 0.24518293 -0.050739296 -0.046118345 -0.07775641
0.23033947 -0.06664493 -0.032638893 0.0997851 0.021163728 -0.18974827 -0.09371947 -0.18530846
-0.27426055 0.05984672 0.14330319 -0.00690537 -0.14493069 -0.07803513 -0.059316542 0.19854033
0.02460756 -0.16094111 0.021395948 -0.044780836 0.08493826 -0.07777341 -0.011857107 -0.1156652
-0.05897767 -0.062106546 -0.037444457 -0.15365724 0.02023297 0.02668907 -0.010693825 -0.119997956
-0.17482214 0.045120616 -0.15950865 -0.1525819 -0.23352547 -0.12794125 -0.08660959 0.011534322
-0.21933423 -0.00944065 -0.21412423 -0.0780139 -0.1593967 0.011641678 0.15739603 -0.06382681
-0.1206153 -0.056415897 -0.037085727 0.0012294754 0.015097958 -0.11528115 0.0037429947 -0.0585385
-0.16420117 -0.12390277 -0.054610588 -0.035449494 0.10018236 0.15089816 -0.1364721 -0.09730732
-0.05517337 -0.07415761 -0.09029581 0.1523298 0.022356356 0.109173514 -0.12050708 -0.16950715
-0.18199122 0.2628509 -0.17344414 -0.11915769 0.150202 -0.13973305 -0.20141497 -0.013442191
00000000: a340 13be 4af4 acbd bda5 55be 35b0 0abe
00000010: e7e8 9a3e 63c1 dc3d 6981 17bd df50 a33d
00000020: b268 bbbd 63d7 6a3d eafb 73bd af23 e1bb
00000030: fd3f 5c3d b384 5f3d e1cc c6bb 77f9 19bc
00000040: f6e5 2ebe 4bc4 2abe 619b 113c b57e ccbd
00000050: 457c f1bd 3c16 fcbd 5803 8a3d 0e89 11be
00000060: 626c 983e 7d85 6abd d53e c9bd 0f20 30be
00000070: bebc 213c 3253 963b 89fe 0abe 15a4 cbbd
00000080: dfe4 6e3c 8482 3fbe 3b3d f7bd d463 41be
00000090: ca13 063c ed91 e6bd fdba 6d3d cd2f 07bd
000000a0: b3a0 b1bc 0cc4 c6bd 5429 8dbd a327 f1bd
000000b0: 3c11 7b3e 02d4 4fbd 97e6 3cbd c13e 9fbd
000000c0: 1cde 6b3e 237d 88bd 5cb0 05bd 215c cc3d
000000d0: 8e5f ad3c 5f4d 42be feef bfbd 80c1 3dbe
000000e0: e16b 8cbe d621 753d 12be 123e 7146 e2bb
000000f0: b668 14be e2d0 9fbd e7f5 72bd 284e 4b3e
00000100: cb95 c93c bfcd 24be 8e46 af3c 1c6c 37bd
00000110: 1cf4 ad3d aa47 9fbd 5044 42bc e0e1 ecbd
00000120: 9292 71bd 6f63 7ebd 5c5f 19bd 5358 1dbe
00000130: 9dbf a53c 09a3 da3c 2735 2fbc 7dc1 f5bd
00000140: 9304 33be 65d0 383d 3c56 23be 6e3e 1cbe
00000150: 4d21 6fbe 0803 03be 5e60 b1bd 74fa 3c3c
00000160: 2799 60be f5ac 1abc 6243 5bbe c0c5 9fbd
00000170: e338 23be bdbc 3e3c 6d2c 213e a1b7 82bd
00000180: 2805 f7bd 5b14 67bd 34e7 17bd 5926 a13a
00000190: 6d5d 773c 8618 ecbd 084d 753b 11c6 6fbd
000001a0: 5a24 28be bcc0 fdbd 5aaf 5fbd 7d33 11bd
000001b0: 692c cd3d 0c85 1a3e 58bf 0bbe 0f49 c7bd
000001c0: 79fd 61bd f2df 97bd 02ed b8bd 58fc 1b3e
000001d0: ad24 b73c 5d96 df3d 6acc f6bd 4893 2dbe
000001e0: e85b 3abe 6594 863e 579b 31be f208 f4bd
000001f0: 8ece 193e 2e16 0fbe ba3f 4ebe a33c 5cbc

network_body._body_endoder.seq_layers.2.weight f4 [128, 128]
-0.24902764 -0.31251827 -0.3286674 -0.321182 -0.006272234 0.0807063 -0.20519505 -0.12509678
-0.22351576 -0.2407996 0.28392154 -0.009662595 0.10080623 -0.015598649 -0.1017958 0.048551086
-0.33429757 -0.22346282 -0.110188715 -0.0043075676 -0.27779278 0.29282135 0.14558119 -0.12655789
-0.0033558654 0.19558206 -0.09545752 -0.22289564 0.071866766 0.09497294 -0.20509031 0.044439495
0.013593512 -0.16474767 -0.038115516 -0.04406989 0.11076084 -0.04672278 0.12184384 -0.13961346
-0.33156762 0.026475884 -0.275112 0.048436426 -0.29894665 0.120561205 -0.12114484 -0.086254925
-0.008429707 -0.2676583 0.16348071 -0.5398014 -0.19537033 0.09738199 -0.038324546 0.20763688
0.41756153 -0.05365838 0.044423282 -0.05866302 -0.08248477 -0.0021125851 -0.38940468 -0.02116776
-0.16380322 -0.02180809 0.028714098 -0.23950836 0.14145198 -0.100752205 -0.039175633 -0.05414294
-0.020412803 0.13498485 -0.20204869 -0.27860475 0.03822232 -0.18406777 -0.04308856 -0.3190435
0.11079367 0.14156471 0.09277844 -0.16383828 -0.3715146 0.24205747 -0.18986315 -0.37612203
0.34215742 -0.14339931 -0.22174503 0.14356336 0.0053789224 -0.029069928 -0.014022482 -0.3467939
-0.19349734 -0.462181 -0.16941059 0.075296104 -0.32473937 -0.36349735 -0.0015294458 -0.11436445
-0.27814594 -0.24878186 -0.14617756 0.17957467 0.11865677 -0.0070000226 -0.20723055 -0.23137839
-0.033492364 -0.012807707 0.09199123 -0.29745486 -0.46759462 0.013203718 0.0068074074 -0.0019358322
0.08106256 -0.04869376 0.08816065 -0.13249424 -0.08682083 0.19072548 -0.037681956 0.040389612
-0.048794344 0.03656422 -0.23474465 -0.22153024 0.02252971 -0.2206447 -0.27508554 -0.23943555
-0.25658852 0.096356295 -0.041044176 0.12738173 0.09824782 0.17546001 0.13785197 -0.06966304
0.36915657 -0.05036574 0.28986248 0.029444499 0.073796 0.12960687 0.30832645 0.06991203
0.13697444 0.16941929 -0.1402919 0.08923396 0.1633118 0.020784969 -0.28480363 -0.2797012
-0.18767937 0.039622847 -0.00071686844 -0.2732025 -0.14266776 0.09163235 0.06432519 0.18660311
-0.3944895 -0.049354997 -0.08439814 -0.12666924 -0.38607076 0.25508672 0.21173036 0.23433667
-0.010465325 -0.43936673 0.27730748 -0.25109565 0.08159795 -0.0082803825 0.045840118 -0.28382295
-0.23806784 -0.3957064 0.230315 -0.5016027 -0.15295187 -0.17040649 -0.4359743 -0.10434752
-0.1471942 -0.098798335 0.032434184 -0.08513401 0.067937426 -0.31402817 0.101969995 -0.3521067
-0.18195555 -0.1272057 -0.029796438 -0.12019414 0.122556806 -0.13481572 0.2635286 -0.18052189
0.03900945 0.042920623 0.22787562 -0.12506047 -0.07635917 0.04571897 -0.34346113 -0.1503822
0.039474547 -0.17756614 -0.035303265 0.045265395 -0.015123591 0.14047335 0.006151377 -0.18127653
-0.16662765 0.21734439 -0.32288322 0.17843576 -0.119185425 -0.15891702 -0.3551541 -0.29641145
-0.2745294 0.03792348 -0.20209031 -0.063286 0.07550116 -0.251632 -0.31703928 -0.329231
-0.37653348 -0.033747185 0.09515094 -0.07428467 -0.13902357 0.21744637 -0.16003194 0.12621304
0.06951503 -0.48480946 0.09913924 -0.06426434 0.41957822 0.11692902 0.21531487 0.0005339686
00000000: 1a01 7fbe 6502 a0be 1847 a8be f871 a4be
00000010: 5087 cdbb 5849 a53d a71e 52be 5f19 00be
00000020: 51e1 64be 2c94 76be 2a5e 913e dc4f 1ebc
00000030: 7f73 ce3d 7a91 7fbc 517a d0bd 81dd 463d
00000040: 0d29 abbe 70d3 64be 9faa e1bd 7f26 8dbb
00000050: db3a 8ebe aeec 953e 3c13 153e 6498 01be
00000060: 14ee 5bbb aa46 483e 3b7f c3bd c13e 64be
00000070: e22e 933d 2c81 c23d 3203 52be 3006 363d
00000080: 52b7 5e3c 9db3 28be 041f 1cbd a182 34bd
00000090: 94d6 e23d 6360 3fbd 4389 f93d d5f6 0ebe
000000a0: 3bc3 a9be f4e3 d83c 7bdb 8cbe 4665 463d
000000b0: 890f 99be cbe8 f63d c91a f8bd 6ca6 b0bd
000000c0: c11c 0abc 820a 89be 7d67 273e 6d30 0abf
000000d0: 290f 48be 3570 c73d 33fa 1cbd c39e 543e
000000e0: a0ca d53e e4c8 5bbd 30f5 353d a348 70bd
000000f0: c6ed a8bd 4c73 0abb 0d60 c7be 0368 adbc
00000100: 08bc 27be e1a6 b2bc d439 eb3c ae41 75be
00000110: cad8 103e 2c57 cebd a176 20bd fdc4 5dbd
00000120: c038 a7bc 7839 0a3e dae5 4ebe 48a5 8ebe
00000130: 028f 1c3d 437c 3cbe a17d 30bd ab59 a3be
00000140: cbe7 e23d 57f6 103e 9f02 be3d 39c5 27be
00000150: 2937 bebe eadd 773e 7c6b 42be 1193 c0be
00000160: 422f af3e 45d7 12be 2111 63be 4602 133e
00000170: ac41 b03b 0f24 eebc 8dbe 65bc f88e b1be
00000180: 2b24 46be fda2 ecbe f879 2dbe d834 9a3d
00000190: 3d44 a6be 531c babe af77 c8ba e937 eabd
000001a0: 2569 8ebe acc0 7ebe 92af 15be 6ce2 373e
000001b0: 5202 f33d 7260 e5bb 3f34 54be 75ee 6cbe
000001c0: 4a2f 09bd 6bd7 51bc e665 bc3d 014c 98be
000001d0: 9068 efbe 6854 583c ac10 df3b c0bb fdba
000001e0: 2104 a63d 1c73 47bd 928d b43d 92ac 07be
000001f0: 1fcf b1bd 8a4d 433e 6558 1abd 946f 253d
00000200: 94dc 47bd 5dc4 153d e760 70be d3d8 62be
00000210: 3a90 b83c aff0 61be 03d8 8cbe 982e 75be
00000220: 925f 83be 7356 c53d f01d 28bd 5b70 023e
00000230: 2736 c93d caab 333e 1129 0d3e 7fab 8ebd
00000240: 1702 bd3e 4e4c 4ebd db68 943e 9735 f13c
00000250: 5b22 973d aab7 043e f7dc 9d3e 0a2e 8f3d
00000260: 0743 0c3e 407c 2d3e aea8 0fbe 4bc0 b63d
00000270: 353b 273e 3d45 aa3c c8d1 91be ff34 8fbe
00000280: 052f 40be 914b 223d 3aec 3bba 33e1 8bbe
00000290: 7f17 12be bea9 bb3d edbc 833d e314 3f3e
000002a0: 87fa c9be 7728 4abd efd8 acbd 95b5 01be
000002b0: 11ab c5be ba9a 823e d8cf 583e f4f5 6f3e
000002c0: c176 2bbc adf4 e0be 3ffb 8d3e 9c8f 80be
000002d0: d31c a73d 71aa 07bc d9c2 3b3d 3e51 91be
000002e0: 0ec8 73be 079a cabe b2d7 6b3e 0969 00bf
000002f0: 6a9f 1cbe 0a7f 2ebe 0638 dfbe 27b4 d5bd
00000300: 14ba 16be c856 cabd b5d9 043d bd5a aebd
00000310: c722 8b3d 4dc8 a0be a5d5 d03d 5447 b4be
00000320: 8e52 3abe 3642 02be a917 f4bc 5828 f6bd
00000330: 10ff fa3d 220d 0abe 38ed 863e bbda 38be
00000340: 5fc8 1f3d 89cd 2f3d 3a58 693e da0f 00be
00000350: 3262 9cbd d143 3b3d 23da afbe cbfd 19be
00000360: 10b0 213d e6d3 35be 289a 10bd 3568 393d
00000370: f0c8 77bc 3fd8 0f3e 7e91 c93b 8ea0 39be
00000380: 70a0 2abe 878f 5e3e f350 a5be ddb7 363e
00000390: 7d17 f4bd 25bb 22be c2d6 b5be 3ec3 97be
000003a0: 1e8f 8cbe a755 1b3d c3f0 4ebe 179c 81bd
000003b0: 5aa0 9a3d e9d5 80be f952 a2be f790 a8be
000003c0: ffc8 c0be 7d3a 0abd 7fde c23d 9022 98bd
000003d0: 325c 0ebe 43aa 5e3e 6adf 23be fe3d 013e
000003e0: e55d 8e3d f238 f8be 8409 cb3d 069d 83bd
000003f0: f5d2 d63e 7b78 ef3d 807b 5c3e 07fa 0b3a

network_body.observation_encoder.processors.0.normalizer.running_mean f4 [21]
3.019097 -0.027198477 -4.047812 -0.09364375 -0.00044158625 -0.68961054 0.014660768 0.00017371905
0.000769401 0.00023572751 -6.8291985e-05 -0.00010667753 -0.0005869336 0.9923892 0.0069305627 8.952645
-0.013298824 -0.026383448 -51.493053 0.061933786 0.75314814
00000000: e338 4140 57cf debc ad87 81c0 4bc8 bfbd
00000010: b484 e7b9 518a 30bf b833 703c 5a28 3639
00000020: a1b1 493a 9f2d 7739 fb37 8fb8 10b8 dfb8
00000030: 72dc 19ba 380d 7e3f c619 e33b 093e 0f41
00000040: 50e3 59bc 1a22 d8bc e3f8 4dc2 48ae 7d3d
00000050: 51ce 403f
