Assets/NNModels/SpherePilotAgent.onnx (onnx, 561470 bytes, 15 tensors)

82 f4 [20]
00000000: 3cf1 ac41 c119 ce40 326e a741 9284 ea40
00000010: c6d5 fb3f 6e2a 8d40 162a 1140 6751 cc3d
00000020: 791a e53d fb9a a83d 975f 1241 04c7 8741
00000030: 2f27 003c 1d54 523e 53a2 8e41 a1a2 743e
00000040: 5594 8140 459a 5041 cdae a540 3f01 ff3e
21.61779 6.440644 20.928806 7.328683 1.9674613 4.4114294 2.2681937 0.09976464
0.1118669 0.08232685 9.148337 16.972176 0.007821842 0.20539899 17.82926 0.23890163
4.049357 13.037663 5.177588 0.49805638

action_model._discrete_distribution.branches.0.bias f4 [3]
00000000: 730c d03c de04 913d bc43 c3bd
0.025396561 0.070810065 -0.09534404

action_model._discrete_distribution.branches.0.weight f4 [3, 256]
00000000: f6ab 3e3d 278b 4d3d f51d 5ebc 3e84 c13a
00000010: 0276 103d ecef a7bc 9a43 afbc 61b1 4bbd
00000020: e967 7ebd 8438 1a3d e05a d73c 64ae 963c
00000030: 89a9 35bc 0a88 49bd 4dff c2bc 809d 4ebc
00000040: a702 443c cf9a c13d 72b4 9c3c 2f89 e63c
00000050: 3d2b 0a3a 4a8f cb3c b853 8c3d f9d2 9a3c
00000060: fd32 93bb 2cc3 833d 413e 81bc e3a1 d4bc
00000070: a146 10bd 835f e43c 7cf7 cbbc 3fde 463d
00000080: 40a5 ab3c 5cd6 c93c 1bfb 6a3c ff3f 653c
00000090: 425b 053c a68d 463d f03e 9dbc 325d 7ebd
000000a0: 0154 cc3c bf1f 0f3b 4a4e b9bc ef6c 953d
000000b0: f327 a43d 5e88 7c3a adca 3ebd b713 6b3d
000000c0: 3ba4 163d 703a c53d 08a0 efbc 47b2 e1bb
000000d0: f125 7c3d ab76 abba 0549 793d 7d51 babd
000000e0: e0d7 823d 6890 5c3d ee38 bcbc 383b 0a3d
000000f0: 4f0a f8bc b5a0 303d ad17 adbd d3ea 913d
00000100: d32f 893d fc98 fe3c ad50 99bc 5a7e 1b3d
00000110: e6f6 563c 750b db3b abec 5d3a 7010 60bd
00000120: 7055 30bc fc67 cd3c e2fa c73d f18f 9c3c
00000130: 00df cc3c d350 963d 5cb4 9d3d ac26 453d
00000140: c4ae 7f3d 01ea a03c fceb 3b3c 3f10 03bc
00000150: 1e91 33bb f2e2 763d fc2e f43c 33b2 8fbd
00000160: 7ecd 9c3d db94 763d 9015 0cbb e0ed 52bd
00000170: 56b1 5c3d d27d e73c 121b a6bb bd3f 683d
00000180: ad96 87bb 5c54 aa3d e7e2 243d 7d9d 7cbc
00000190: 30e9 ecbc 0b08 b9bd d0e2 813a da53 1e3d
000001a0: 1314 b4bc 7df9 3abd 06b8 35bb b735 eb3c
000001b0: eea3 45bb 07e9 c1bb 2641 a23c 25d4 8239
000001c0: d141 eebd 11ef d2bc 36cb 133c c4a1 293b
000001d0: d3db 043d 70bc 293d 8aa3 9c3d c07e 0d3d
000001e0: 3c02 98bd 640f 87bd 6847 cbb9 fa90 cc3c
000001f0: 0629 0bbb e766 0d3a da58 ad3c 9cce 593d
00000200: 9b0b 923c 9f1b f53b 2336 1f3d 26fa ba3d
00000210: 7d70 29bd 25fd 1bbd 6de5 3cbd 5219 0f3b
00000220: 288f 073d 0361 dcbc df8a 7fbc 9c69 553d
00000230: 6921 263d 9b7f 7ebc a7da a73c 6781 c03d
00000240: 0394 be3c 2c29 edbc 699f 433d ef12 9abd
00000250: 7c96 3cbd b9cd ec3c 981e 993c f278 d53b
00000260: 9a45 283d 4991 313c 0b68 f9bb 077b 453d
00000270: 06df 34bc 4f76 3bbd 9d5e 273d e83f b7bd
00000280: 0651 3e3d 80e3 253d 9521 5d3d 2f66 fb3b
00000290: 2b6b 60bd f71a 8bbd 32c4 68bd ec4c d4bb
000002a0: 74f4 a13d 91b2 b03c 294c 1a3d d4e2 86bd
000002b0: 31af 85bc aa7d ebbd 6584 cd3c 353f 8f3b
000002c0: c688 cd3c 9c74 3dba 8748 c8bd 4910 1b3d
000002d0: ab7e 08bd 141a d23c ef92 4a3c e90d 723d
000002e0: 42b9 2a3d ed8b 09bd b088 26bd bdf5 86bc
000002f0: f02e 3b3d 84d1 8ebb 79be 51ba a769 95bc
00000300: c422 3fbc 5532 133d ef1a 8abb 1efb 923c
00000310: 80a9 073d e81d fb3c c12f 193c d29d 69bd
00000320: bd80 6b3d 8307 213c 9c57 4c3c 4ca3 a2bd
00000330: 4064 dc3c 9b87 ccbd 2ca9 703d 5441 2d3d
00000340: 41e1 8c3d 6c24 50bb 59f8 e4bc 2fac 793d
00000350: ca10 7c3d 2647 9f3b 9f6f 863c 388a 6b3d
00000360: aa04 9eba 6c19 943b c708 163d 2d91 443c
00000370: 64c8 293d aa7b fabc 133d cbbd e338 113d
00000380: 94bd 593c a05f 9e3d 6e15 90bd 64e3 803d
00000390: 6be7 74bb c0b9 cc3c 0bfc 9b3d 7ef7 4e3d
000003a0: da62 3bbd 24d0 e93c 6bf1 c03c 16e6 d33b
000003b0: 28cd 2e3d cce8 b93c 9f49 fa3c 902f 143d
000003c0: a9c8 67bc a1c0 6e3d dcd0 8ebd e22f d3bc
000003d0: 85ac d03c e276 e43d 461d 8fbd cea4 fcbc
000003e0: d3ae dc3c 0392 e1bd c783 29be 5019 853d
000003f0: c2da 33bc 6f89 323d a4b7 893d 4305 21bd
0.046550713 0.050181534 -0.013556947 0.0014764143 0.03526879 -0.020500146 -0.02139454 -0.04972971
-0.062110815 0.037651554 0.02628845 0.018393703 -0.011087784 -0.049202003 -0.023803378 -0.012610793
0.011963523 0.094533555 0.019129012 0.028141586 0.0005270725 0.024848599 0.068519056 0.018899428
-0.0044921623 0.064337105 -0.015776755 -0.0259561 -0.035223607 0.027877575 -0.024898283 0.048551794
0.02095282 0.024638347 0.014342095 0.013992309 0.008139433 0.04847493 -0.01919505 -0.062100597
0.0249424 0.002183899 -0.022620339 0.07296168 0.08015432 0.00096333574 -0.046580005 0.05739185
0.036777716 0.09630287 -0.029251114 -0.0068877074 0.06155962 -0.001308163 0.060860652 -0.09097574
0.06388831 0.053848654 -0.022976365 0.03374788 -0.030278353 0.043122012 -0.084517814 0.07124867
0.06698575 0.031078808 -0.018715227 0.037962295 0.013120389 0.0066847154 0.0008465747 -0.054703176
-0.010762557 0.025073998 0.09764649 0.019111605 0.025008678 0.07339635 0.077004164 0.048132583
0.06242253 0.019642832 0.011469837 -0.007999479 -0.002739973 0.060275026 0.02980756 -0.07016411
0.07656382 0.060200553 -0.0021375157 -0.051496387 0.05388006 0.028258238 -0.005069145 0.05670141
-0.004137835 0.083168715 0.040255453 -0.0154184075 -0.028919786 -0.09034737 0.0009909514 0.038654186
-0.021982228 -0.045648087 -0.0027728095 0.028712137 -0.0030157524 -0.0059176716 0.019806456 0.00024953592
-0.11633647 -0.025748761 0.009020617 0.0025883773 0.032436203 0.041439474 0.0764838 0.034544706
-0.07422301 -0.065947324 -0.0003877238 0.024971474 -0.0021234169 0.0005394057 0.021160532 0.053175554
0.0178278 0.0074800993 0.03886999 0.09129743 -0.041367043 -0.038083214 -0.046117235 0.002183516
0.03309551 -0.026901728 -0.015597074 0.05210267 0.040559206 -0.015533353 0.020490004 0.093996815
0.023263937 -0.028950296 0.047759447 -0.075231425 -0.04604195 0.02890669 0.018691346 0.006514662
0.041082002 0.010837861 -0.00761128 0.04821303 -0.011039501 -0.045767125 0.040861715 -0.08947736
0.04646399 0.040500164 0.053987104 0.0076720933 -0.054789703 -0.067922525 -0.05682773 -0.0064788964
0.07907954 0.021569522 0.03767029 -0.06586233 -0.01631889 -0.11498578 0.025087545 0.0043715485
0.025089633 -0.0007227154 -0.097794585 0.037857328 -0.033323925 0.0256472 0.012364133 0.059095297
0.041680582 -0.03358071 -0.0406577 -0.016474599 0.04569906 -0.0043584723 -0.00080011 -0.018238856
-0.011666004 0.035936672 -0.0042146365 0.017942008 0.033120632 0.030653909 0.009349764 -0.057035275
0.05749582 0.009828451 0.01247206 -0.07941303 0.026903272 -0.09986802 0.058755085 0.04229863
0.06878901 -0.003175999 -0.027950453 0.060955223 0.06153945 0.0048607765 0.016410647 0.057504863
-0.0012055833 0.004519632 0.036629464 0.011997503 0.041450873 -0.030576546 -0.09923758 0.035454642
0.013289828 0.07733083 -0.070353374 0.06293371 -0.0037369381 0.024990916 0.07616433 0.050528996
-0.04574857 0.028541632 0.023552617 0.0064666374 0.04267612 0.022694014 0.030552683 0.03617817
-0.014146962 0.058289174 -0.069734305 -0.025779668 0.025472889 0.111554876 -0.06988005 -0.030840304
0.026938831 -0.11014178 -0.16554175 0.064989686 -0.010977449 0.0435881 0.0672448 -0.03931166

action_model._discrete_distribution.branches.1.bias f4 [3]
00000000: 4b05 b13d a1e1 95bd b1b4 43bc
0.08643588 -0.07318426 -0.011944936

action_model._discrete_distribution.branches.1.weight f4 [3, 256]
00000000: 81d5 cabd 95af a43d 45a7 8bbd d5a5 d23c
00000010: cfc5 bb3c 4e5a 8e3d 0cd5 0ebe a2b8 b13c
00000020: 0914 cdbb 9aa5 8d3d adbe 383d 722d 903d
00000030: c570 423c 7fe7 00bc 7b23 24bb 1f44 1b3d
00000040: cfc3 6f3d 41d6 9a3d de07 f03c 9caa 1c3d
00000050: 1e74 a93d 50cf 503c 3338 e93c cb44 083d
00000060: c66f c83c 67c6 8b3d 846e 023d 00f8 2d3d
00000070: 53cb 993d 349e 863c 8026 a0bc 2931 623d
00000080: 27de d0bb ff31 6a3c 5682 fb3b c343 96ba
00000090: 215e c93d d5e4 d33c edbe 183d 10b5 a93d
000000a0: db03 363d de13 95bd 10ce babd e7ee 253d
000000b0: 8249 753d df5b c33c 5080 333d 9708 473d
000000c0: 8b7c 9e3a 6a43 913d 73d3 6cbc c6ca 9cbc
000000d0: 0ff8 673d 44fa 4bbd d27a 343d c209 ea3b
000000e0: 67c8 d0ba dbe2 6fbd 7e04 2f3d 10ea 953d
000000f0: 8877 403d bba7 80bd dd34 41bd 9756 2b3d
00000100: e6ea d0bb b4a2 793d c067 c63c 62d2 96bd
00000110: 106a 623b fefa 213d 5cc7 e2ba 887c 803d
00000120: d8e2 27bb 75e4 133d 2492 723b f6ca 6e3d
00000130: d103 6bbd cc0d 8ebb 46c0 243d 6776 62bd
00000140: 4858 913d be38 593d ee9e 873c eeb4 993c
00000150: 63d1 983c 0fa9 19bd 82b7 263d d016 3c3d
00000160: b4b5 67bd 1d7a ae3d 7436 933d a8ad 833b
00000170: d10e fd3c f726 163d 85e5 663d d32d 323d
00000180: e9a8 433d f42c 89bd 2b0e 8c3c f7b1 5abd
00000190: 5fe7 7bbd eb76 cabc 95c0 5f3d 9611 fe3c
000001a0: 5845 fbbc 9add 90bc 1429 7d3c 1dc4 233d
000001b0: 2299 0bbd 2eb5 adbc ccc0 7d3d d2c0 05bd
000001c0: 337c 113d 8d35 893d 95e2 0e3d 7531 673d
000001d0: 291b 0abc e402 183d 544a 743c a395 95bd
000001e0: 7ab2 d9bd f6af 9bbd d379 7f3c cb84 e43c
000001f0: d8ca 983c d509 a43d 5bc4 13bc e35c c2bd
00000200: b1f6 883b 5add c93d 63f7 153d 5605 1e3c
00000210: b40b 8d3c 33bb 3b3d 0d51 933c b743 9c3c
00000220: 0e1d 4bbc c9b1 d3bc 32e4 63bd f9b6 38bc
00000230: a745 63bd 5e4f ce3c 5e55 583c ed7c 6a3d
00000240: fdd9 163c 549f da3b 27f9 0f3d eb0a 8cbb
00000250: 101f 2a3d a962 e6ba e5d5 123d 7755 31bd
00000260: c078 383d a185 e5bc 803c 523d 1912 083d
00000270: 4a50 1ebc 61da 413d ec73 d23c 5bb0 20bd
00000280: 72b7 4b3d 01c3 b33b dd12 353d d92e 9f3c
00000290: 8315 a3bd 1955 d23c 32a8 893d 7c66 46bb
000002a0: 844f 27bd 2ca7 64bd 141f 56bc de78 f7b9
000002b0: 9f7e ed3c eedf 84bd 023e 9e3d 7319 02be
000002c0: bea2 5d3d fe53 8c3d be93 7d3d 00b9 6d3d
000002d0: 1df7 723d f584 41bc 40ee 0ebd 7026 573c
000002e0: 6f9b 9e3c 335f 6a3b 142e cd3d 585d 9abd
000002f0: 9aff 25bd 9bcd b03b 0fd6 62bb 4eaf 0b3d
00000300: 89be 93bc 1e22 6f3d ad26 88bc 4b36 383c
00000310: b30f 983b e3f4 c2bd 6543 82bc d56e 913c
00000320: 366a b3bc d395 ad3c 6a73 91bd 877c 86bd
00000330: f155 d4bc c687 493c d506 043d 18b7 f8b9
00000340: 8ad3 183d a3c6 463d c7b8 943d fcbe 333d
00000350: ce90 7b3d 18be d6bc 9e72 1abb 6a27 35bd
00000360: 8a13 893d 1bc1 543c 1c27 e43c f589 0a3d
00000370: c7db 25bd c68a 593d 9c22 35bd a0cd 27bc
00000380: ed41 533d 4c25 123d 06a8 b23d a572 d6bc
00000390: 6864 793d e5f9 8bbc dd94 2abe 27ac 943c
000003a0: b5ab 8bbc c8ed ddbc cca0 87ba d7da 233d
000003b0: d6f3 08bd e705 0dba 88da 673c bc7f 073c
000003c0: 5e42 3e3d 5f4f 003d fee2 823d 700e 3a3c
000003d0: 5cc6 373b 053d a23d 3468 8ebd a589 07bc
000003e0: fca7 3a3d b0be 5bbb 144e 92bd fef4 62bc
000003f0: 1d27 edbc f228 463c 1892 c43c e894 a03c
-0.09904004 0.08041302 -0.068190135 0.02571384 0.02292147 0.06950818 -0.13948458 0.021694485
-0.006258492 0.069163516 0.045103718 0.07039918 0.011867707 -0.007867693 -0.0025045562 0.037906762
0.058536347 0.07560397 0.029300626 0.038248643 0.08274101 0.01274474 0.02846918 0.03326873
0.02446736 0.068249516 0.031843677 0.04247284 0.07509484 0.016432859 -0.019549608 0.055222664
-0.006374139 0.014294147 0.0076754494 -0.0011464286 0.09832407 0.025865952 0.037291456 0.08286488
0.04443727 -0.0727918 -0.091213346 0.04051104 0.059884556 0.023847518 0.04382354 0.048592176
0.001209156 0.07092936 -0.01445471 -0.019139659 0.05663305 -0.04979922 0.044062443 0.0071422765
-0.0015928865 -0.058565956 0.042728893 0.073200345 0.046988994 -0.06281992 -0.047169555 0.041830625
-0.0063756583 0.06094618 0.024219394 -0.07364346 0.0034548081 0.039546005 -0.0017301845 0.062737525
-0.0025617387 0.036106545 0.0037013376 0.058299027 -0.057376686 -0.004335141 0.04022243 -0.0552887
0.070969164 0.05303263 0.016555276 0.018763032 0.01865453 -0.037514742 0.04070235 0.045920193
-0.05656977 0.08519385 0.071881205 0.004018504 0.030890854 0.036658254 0.05637123 0.043500733
0.047768507 -0.06698027 0.0170966 -0.053392377 -0.06149995 -0.024714908 0.05462702 0.031014245
-0.030672714 -0.017683793 0.015451688 0.03998195 -0.034081586 -0.021204557 0.061951444 -0.03265459
0.035518836 0.06699667 0.034884054 0.05644365 -0.008429327 0.03711213 0.014910299 -0.073039316
-0.10629745 -0.07601921 0.01559301 0.027895352 0.018651411 0.08009688 -0.009018983 -0.09490373
0.0041797985 0.098566726 0.03661288 0.009644827 0.017217495 0.045832824 0.017982984 0.019075258
-0.012397064 -0.02584161 -0.055637546 -0.011274093 -0.055486348 0.02518433 0.013203947 0.057248045
0.009207246 0.0066718254 0.03514972 -0.0042737625 0.04153353 -0.001757701 0.035848517 -0.043294396
0.04503703 -0.02801782 0.05132723 0.033220384 -0.009662697 0.047327403 0.025690041 -0.039230686
0.049735494 0.0054858928 0.044207443 0.019431518 -0.079630874 0.025675343 0.06721534 -0.0030273488
-0.040847316 -0.05582349 -0.013068933 -0.00047201564 0.028991042 -0.06488024 0.07726671 -0.1270502
0.05411028 0.06851958 0.061908476 0.058037758 0.059317697 -0.011811485 -0.03489518 0.013131723
0.019361226 0.003576231 0.10018554 -0.07537335 -0.040526964 0.005395604 -0.0034612452 0.03410273
-0.01803519 0.058382146 -0.016620005 0.011243413 0.0046405434 -0.09519365 -0.015901277 0.017753044
-0.021901231 0.021189606 -0.071020916 -0.065667205 -0.025919886 0.012300437 0.032233078 -0.00047438662
0.037311114 0.04852928 0.07261806 0.04388331 0.061417393 -0.02621369 -0.0023566852 -0.04422704
0.0669318 0.012985493 0.02785068 0.033822972 -0.0404928 0.05311086 -0.04422246 -0.010241896
0.051576544 0.0356801 0.08723454 -0.026177714 0.06088677 -0.017086932 -0.1665835 0.018148495
-0.01704965 -0.027090922 -0.0010347604 0.040003624 -0.033435665 -0.00053796027 0.014151223 0.0082702
0.04645001 0.031325694 0.063909516 0.011355981 0.0028041815 0.07921795 -0.06953469 -0.008272563
0.04557036 -0.0033530407 -0.071437985 -0.013852356 -0.028949315 0.012094723 0.023995444 0.019602254

action_model._discrete_distribution.branches.2.bias f4 [3]
00000000: 5dab 513d f793 88bc 4a97 f6bc
0.051188815 -0.016672118 -0.030101437

action_model._discrete_distribution.branches.2.weight f4 [3, 256]
00000000: 6795 c73d ef09 523d 53fa 48bd f963 203d
00000010: ee6c 1b3d 79b4 a93c 37b7 78bc 3fa8 b63d
00000020: 3107 563d cffa 1b3d 64d1 743d 97af 853d
00000030: dd88 343a ae2a 60bc f406 1cbc a5f9 643d
00000040: b2d1 45bd 4cca 2d3d e628 bf3b 7d63 353d
00000050: 86fe d43c cd50 573b 1317 663d be20 64bc
00000060: 2336 2d3d c368 333c 321a 12bc 0572 df3c
00000070: 2881 2a3d dfbe e73c d7dd a33d c0e2 0cba
00000080: 94d6 723c 6391 013c aba7 713d e149 003b
00000090: b845 143d e679 4f3c 04ac 5b3c 1dd6 6c3d
000000a0: 7836 573c 3c07 1dbd 233b 143d a658 e63c
000000b0: 7af5 563d 4daa b73b c32a d63c 3ab8 6a3c
000000c0: 9080 12bc 8f3f 01bd 0660 28bd f8eb babc
000000d0: d391 bbba e3b5 b4bd 7e17 e23c 578d 47bd
000000e0: 0410 9b3a e605 233d 1107 edbb a8af e1bc
000000f0: a276 b7bc 79cb 6e3c e9ba 72bc 551e 293d
00000100: eef2 dab9 b95a 023c 1189 34bd 27fd 1f3c
00000110: 4b9c 0e3c d414 1bbd 6c76 343d af1f 3a3d
00000120: 608b c43b 57de 31bc 9e72 823c 201c 423d
00000130: cd24 85bd 451e 873b b218 3d3d f59b b23b
00000140: c25d a33c ca88 14bd a865 193a 435d 1e3d
00000150: 3a79 5fbc f14b 35bc b5fe 333d 4391 073d
00000160: d563 fcbb 29e7 6a3d eb77 ca3c 1f3a d13c
00000170: 014c 9b3b e295 e0bb f8e1 3b3d 4cf6 23bc
00000180: 356a ed3c b22d b13a d308 c1bd d4f4 e33c
00000190: f8b0 9c3c ac40 b93c 974a f33c ca4a 233c
000001a0: e7eb 6dbd a900 76bd c92a 843d 1d58 363d
000001b0: 0781 51bd b93c c5bd 37b4 653d 279a 813c
000001c0: fd33 c83c 63e9 1bbd f0c8 51bc c27a 183c
000001d0: 0893 21bd 55f5 18bd d2f1 f43c 47ab a7ba
000001e0: 96e5 9c3d 10c6 4a3d b6c8 f4bb 9295 463c
000001f0: eb19 71bc c327 423d 9516 733d f79f eebc
00000200: 92ce afbc 92fe af3d e4b3 f33c 0c81 2d3d
00000210: ad84 1ebb d430 5c3d 09ac fc3b 3458 703c
00000220: 8a45 903c 6b7f 983b 04bc 3ebc a6aa 483d
00000230: 3367 febc ef04 353d 4daa de3d 0af6 453d
00000240: 62aa 14bd c1f4 89bb c033 6cbc 8629 3fbd
00000250: 6f06 86bd 54b0 513d 5343 263b 3404 27bd
00000260: 6b44 ccbc 8bc5 1f3d d852 de3c be92 133d
00000270: 2b58 4fbd 8c87 633d 9710 183d d9ef 8ebd
00000280: 9082 aebb 1340 893d abe8 893d 5446 103c
00000290: b81f 03bb 76a1 8e3d 9784 d93d 850f 67bd
000002a0: 1dbe 643d 749a 72bd e4e0 8d3d eb3c 873d
000002b0: 6eba a0bd 570d a73c 65f2 fd3c e4d4 31bc
000002c0: cf31 bbbd 1991 e1bc ebd1 9d3c b55a 123d
000002d0: 8715 433d 0fc6 8f3b 1733 b53b 69b8 51bc
000002e0: e264 913d 4bc3 a33d b513 96bb e367 65bb
000002f0: c1fb 7cbb f1a8 0bbd 58c1 8b3c e74c 803c
00000300: 7cb8 2bbd 8b01 613d f0b0 c7bc 65df 6d3a
00000310: fe61 da3c a720 13be 4b27 04ba 0886 443c
00000320: 546c 793d eca1 593d 4dd7 92bc 0422 5b3b
00000330: b133 203d b955 c13c 979a cd3c 0053 17bd
00000340: 12c8 643d 0c32 a0bc f4e5 25bc 90fe 3ebc
00000350: 75d9 d93c c3b9 15bd 4fe8 48bd 6ac5 eb3c
00000360: 3b6f c93d 7cb6 30bd 3f79 3c3d 6e52 423d
00000370: f660 773d 90ec ed3c 7aa8 693d 618a 963c
00000380: 51bd 9b3d 2edb 2abd bee8 bbbd cf08 3f3d
00000390: 8ee6 e13b 607d 99bc d1e7 493d 8ea0 00bd
000003a0: b78a 913d 8ba0 823b 5cd2 cc3c c089 8c3d
000003b0: c6bf 953a f775 413d 7844 09bc 0575 e03a
000003c0: 2dc0 9e3c c82d a83d 37aa da3c 62d2 9b3c
000003d0: 12d1 793d 8a21 e43c 8cc8 f93b 9df3 84bc
000003e0: 009e 9a3c 4d6f f6bd ed92 0c3d 06f5 23bc
000003f0: 4ee3 073c 317d d53c 3bd4 303c 84aa bd3b
0.09745293 0.051279005 -0.049066853 0.03915784 0.03794568 0.020715939 -0.015180401 0.08918809
0.052252952 0.038080987 0.059770003 0.06527632 0.00068868493 -0.013682051 -0.009523142 0.055902142
-0.048295684 0.042429253 0.005833733 0.044284333 0.026000272 0.0032854558 0.05617435 -0.013923822
0.042287957 0.01095027 -0.008917378 0.027276048 0.04162708 0.028289257 0.08001297 -0.00053743646
0.014821667 0.007908198 0.05899779 0.0019575285 0.0361993 0.01266334 0.013407711 0.05782138
0.013135545 -0.038336977 0.03618921 0.028118443 0.0524802 0.005605018 0.026143437 0.01432615
-0.0089417845 -0.031554755 -0.0411072 -0.022817597 -0.0014310427 -0.08823755 0.027599093 -0.048718777
0.0011830335 0.039800547 -0.0072335084 -0.02754958 -0.022395436 0.014574879 -0.014815071 0.041288693
-0.00041761197 0.0079562 -0.04407603 0.009764946 0.008704255 -0.03786166 0.04405825 0.045440372
0.00599806 -0.010856233 0.015923794 0.047390103 -0.0650116 0.0041234815 0.04616613 0.0054507204
0.019942168 -0.036263265 0.0005851635 0.03866316 -0.0136397425 -0.011065469 0.04394408 0.033097517
-0.0077023306 0.057349358 0.024715384 0.02554041 0.004739285 -0.006853805 0.045869797 -0.010007452
0.028981308 0.0013517647 -0.09425511 0.027826704 0.019127354 0.022613846 0.029698653 0.009966562
-0.058086302 -0.060059223 0.06453473 0.044517625 -0.05114844 -0.096307226 0.05608007 0.015820576
0.024438852 -0.03806437 -0.012804255 0.0093066115 -0.03944686 -0.03734334 0.029900465 -0.0012792133
0.076609775 0.049505293 -0.0074702157 0.012120621 -0.014715652 0.0474012 0.059347708 -0.029129012
-0.021460805 0.08593477 0.029748864 0.042359397 -0.0024187968 0.053757504 0.007710938 0.014669467
0.017611284 0.0046538613 -0.011641506 0.048990868 -0.031055069 0.04419416 0.10872326 0.048330344
-0.036295302 -0.004210085 -0.014416635 -0.04667046 -0.06544196 0.05119355 0.0025369718 -0.040775493
-0.024934968 0.03900675 0.027139112 0.036028616 -0.050621193 0.05554919 0.037125196 -0.06979341
-0.005325623 0.06701674 0.06733831 0.00880583 -0.002000792 0.0696439 0.10620993 -0.056411285
0.05584537 -0.05922933 0.0692766 0.06603416 -0.07848059 0.020392103 0.030999372 -0.01085398
-0.091403596 -0.027535008 0.019265136 0.035731036 0.047627952 0.004387624 0.005529772 -0.012800314
0.0709932 0.079962336 -0.004579986 -0.0035004548 -0.0038602205 -0.034096662 0.017059967 0.01566167
-0.041923985 0.054933112 -0.024376363 0.0009074121 0.026658054 -0.14367925 -0.00050412555 0.011994846
0.060894325 0.053132936 -0.017924929 0.0033437023 0.039111797 0.023600446 0.025098128 -0.03694439
0.055854864 -0.019555114 -0.010125626 -0.011657372 0.02659295 -0.03655411 -0.04904967 0.028780658
0.09835669 -0.04314278 0.046014067 0.047441892 0.060395204 0.029043466 0.057045437 0.018376531
0.076044686 -0.041712932 -0.091752514 0.04663926 0.0068939393 -0.018736541 0.049293343 -0.031403117
0.07106536 0.0039864234 0.02500265 0.06862211 0.0011424951 0.04723164 -0.008378141 0.0017124718
0.019378746 0.08211857 0.026692493 0.019021217 0.0609904 0.027848024 0.007622784 -0.016229445
0.018874168 -0.12032948 0.034319807 -0.010007149 0.00829394 0.026060672 0.010792787 0.0057881493

discrete_action_output_shape f4 [1, 3]
00000000: 0000 4040 0000 4040 0000 4040
3.0 3.0 3.0

network_body._body_endoder.seq_layers.0.bias f4 [256]
00000000: f5ab e9bb d7c7 293d 8acf 92bd f243 8bbd
00000010: 3bba 31bc 6387 bebb ae13 483d 428a 943c
00000020: 3ca2 0abd 6201 9c3b 5507 4a3d 8978 a03d
00000030: 7da4 adbc 23ea 053e 3c3c 3f3d f978 0cbd
00000040: 1131 45be 34f2 803a 8cda 30bc bc6b 1a3c
00000050: da6f 50bc 0bbc e4bd 914f debc df36 9dbd
00000060: 6751 02be 1043 8c3c e0b9 efbc 8c1d ac3d
00000070: 32d8 c3bb a989 a53c c37e 00be ece6 343d
00000080: 5bd7 cb3d b8ed 01bd 1bf5 71bd b7c0 1d3d
00000090: f98f 053e e72c 0dbc aa81 983d ff24 11be
000000a0: d19e d93c a674 49bd 642f 05bd 2ed6 3fbd
000000b0: eb9b 3ebc 45bd f4bb b2af 093a f167 6dbd
000000c0: a489 b63b 30ab 953c c69d 17bd 88b7 613c
000000d0: bcc1 a2bc ef57 3e3d 44b0 95bd ca8a 59bd
000000e0: 5a84 94bc 9dbb 373d 0e83 253d efa1 9abd
000000f0: 90cd a4bd 3c3e cd3d 49ce 44be 2b5a 363c
00000100: 4d11 913a 4a3b c93c 1188 a13c 46de 04bd
00000110: b081 13bd da2d 16bc 08ec 7fbb b11c a5bc
00000120: ca16 8b3d 6862 0cbe 08d7 cdbd 5613 44bd
00000130: 7052 cfbd 7ed9 64bc 2045 23bc 90fa 29bb
00000140: 3976 da3c cd41 813c 202f 9bbd 47a7 44bc
00000150: fc74 cebd e643 90b9 5562 79bd b501 343d
00000160: 913d a13d 2c0b 953d ba8f bd3d 399f 81bd
00000170: 2d0f ac3b f17e 193e 09a1 49bd 461d 4f3d
00000180: 9b13 dbbc 632a e5bd 6386 8fbd 558b d3bc
00000190: 1f7a acbd d372 863d 9904 65bd cdc8 4ebd
000001a0: 79dc 003d 0ded 00bd 34d8 093d d529 d03b
000001b0: f19a b03b 71de d1bd 6771 12be 0716 f0bc
000001c0: 49c2 983c cf48 f33d 6016 a93d cdac d7bd
000001d0: a2e8 14bd b6ae cebc 2365 58be d2ac cdbb
000001e0: dc5a 3f3d 405f 61bc 447c 6cbd 8144 0cbd
000001f0: 94ff 12bd 5419 abba 03e4 763d 0e18 a03d
00000200: e4cc c4bd 8300 a3bd 9154 ddbd 90a4 ce3d
00000210: f2a4 5f3c c6f5 093c bf3e c83b f202 633d
00000220: 082c 80bd 9c70 c03c c7fe 02bd d47a 9a38
00000230: 8b77 073e 1f3a 713d a5b1 75bd 80da f73c
00000240: b60e 6abd 201e b03d 7d4a 8cbc 1be9 49bd
00000250: 691d 7e3d 77eb 943c 6996 73bc d55d 34bd
00000260: 2ac1 223c 6094 c63d 8ebc 13bd 639b 9ebc
00000270: aef0 703c cb3b b1b8 ca0f 48bd a7ad f63d
00000280: 7df8 d73d dc97 d7bc eda1 87bc 1ce0 cabd
00000290: d08d 6d3c a3fa 673d 79d9 d7bc 2bd3 3ebd
000002a0: 6e9d adbd c8be 663d e8f8 853d 21bd a73c
000002b0: 386a 91bc a03d 25bc 55bf 053c eea4 ec3d
000002c0: 93e6 7b3d 160c f2bc ae10 333c 265d 2b3d
000002d0: ae1e 9c3d 7cb3 f83c b09a be3d 5e79 4bbd
000002e0: 705b 13ba d933 013d ac83 03bd 11f7 463d
000002f0: 1dff 403d 72d2 133d 331a 64bd c7d7 cd3c
00000300: 0136 a7bb cb80 653d 36e8 653c 4def 8ebd
00000310: cf0a e43d c2f1 4e3d 3323 913d b272 10be
00000320: e8ac f4bb 4811 203d 57aa 7dbd fa60 98bd
00000330: 86ae 323d c668 adbd 998d c8bc 2f62 6fbd
00000340: 2e76 e03d 5a2b abbd c03d 96bd 9508 6bbc
00000350: 863d 653d 1a82 563d a2d2 a2bc e168 763b
00000360: 13da 09bd 4927 ad3c c5f3 923d 9caa 6e3c
00000370: 2073 02be 6306 e23b 380e 813d cca8 c5bc
00000380: ef9a bf3c 024d bbbd 3d48 953d 57be 8e3c
00000390: 7215 043e 1ae1 ba3d 2c03 463c b78d 1a3e
000003a0: 9150 ea3d 5b53 c5bd c2ef a0bd 9ed8 fc3c
000003b0: e825 9bbd 0aaf 243d 8022 c23d 21ab 98bd
000003c0: 7450 1b3d dada 38bd 23f1 1c3d dd15 0b3d
000003d0: 864c d9bb 181b 87bd f791 9ebd b57c 94bd
000003e0: 78a8 97bc 433a 8c3c 3ad5 7fbd 48c2 75bd
000003f0: 90c1 c3ba 659b 73bd 96ed 82bd 7bee b13d
-0.0071310946 0.041450348 -0.07168491 -0.06800069 -0.010847623 -0.005814479 0.048846893 0.018132333
-0.033846125 0.004760907 0.0493234 0.0783549 -0.021196598 0.13077597 0.046688303 -0.034295056
-0.19256999 0.0009837807 -0.010794293 0.0094251 -0.01272198 -0.11168679 -0.02713755 -0.076764815
-0.12726365 0.017121822 -0.029263437 0.08404073 -0.0059767 0.020207243 -0.12548356 0.044165537
0.09953185 -0.031720847 -0.05907164 0.038513865 0.13043202 -0.008616663 0.074466065 -0.14174269
0.026564987 -0.04918351 -0.0325159 -0.046835117 -0.011633853 -0.0074688517 0.0005252316 -0.057960454
0.0055706073 0.018270105 -0.0370157 0.013776667 -0.01986777 0.04647058 -0.073090106 -0.053110875
-0.018129516 0.044856656 0.040408187 -0.07550418 -0.080470204 0.10021636 -0.19219317 0.011129896
0.0011067778 0.024564404 0.019718202 -0.03243854 -0.03601235 -0.009166205 -0.0039050598 -0.020155283
0.06791456 -0.13709414 -0.100507796 -0.047870003 -0.101231456 -0.01396787 -0.009965211 -0.00259367
0.026667701 0.015778447 -0.07577348 -0.012002773 -0.10080907 -0.0002751641 -0.060884792 0.04394694
0.07873071 0.072775215 0.09255929 -0.063291974 0.0052508325 0.1498983 -0.04922584 0.050565027
-0.026742747 -0.11189725 -0.07008054 -0.025823275 -0.0842173 0.0656487 -0.055912588 -0.050484467
0.03146026 -0.03147607 0.033653453 0.006352643 0.005389564 -0.102475055 -0.14301072 -0.029307378
0.01864733 0.118791215 0.08256221 -0.10531006 -0.03635467 -0.025229793 -0.2113233 -0.0062767053
0.04671751 -0.0137556195 -0.057735696 -0.034245018 -0.03588827 -0.0013053813 0.060276043 0.07817088
-0.09609392 -0.07959082 -0.108071454 0.100899816 0.013650166 0.008420413 0.0061109955 0.05542273
-0.06258398 0.023491196 -0.031981256 7.366171e-05 0.13229196 0.05889332 -0.05998387 0.030255556
-0.057142936 0.08599496 -0.017125363 -0.049294572 0.062039766 0.018178685 -0.014867404 -0.044034798
0.009933749 0.09696269 -0.03606849 -0.019361204 0.01470582 -8.451155e-05 -0.048843183 0.1204484
0.10545442 -0.02631753 -0.016556704 -0.09906027 0.014499143 0.05663551 -0.026348816 -0.046588104
-0.08477293 0.056334287 0.06541616 0.020475926 -0.017750844 -0.010085493 0.008163293 0.11554895
0.06149919 -0.029546779 0.01092927 0.04183688 0.07623039 0.030359022 0.09306848 -0.04967629
-0.000562123 0.031543586 -0.032107994 0.048575465 0.047118295 0.03608937 -0.055689048 0.025127305
-0.0051028733 0.05603103 0.014032414 -0.06979237 0.11134874 0.050523527 0.07086792 -0.14106253
-0.007466901 0.03907898 -0.061930027 -0.07440372 0.04362347 -0.084672496 -0.024481582 -0.058443245
0.10960041 -0.08357878 -0.07335997 -0.014345308 0.055966876 0.05237017 -0.019875828 0.0037599134
-0.033655237 0.021136897 0.071754016 0.014567044 -0.12739229 0.006897734 0.0630154 -0.02412834
0.023389308 -0.091455474 0.07289169 0.017424745 0.12898806 0.09124966 0.012085717 0.15093122
0.11441148 -0.096350394 -0.0785823 0.03086501 -0.075755894 0.040205993 0.094792366 -0.07454515
0.037918523 -0.045130588 0.038315903 0.033956397 -0.0066314368 -0.065969646 -0.07742684 -0.072503485
-0.01851295 0.017117625 -0.062459208 -0.059999734 -0.0014935005 -0.059474368 -0.06392972 0.08688065

network_body._body_endoder.seq_layers.0.weight f4 [256, 20]
00000000: 4d57 a9bd fe7e 5cbe ab3b fb3d 874d 5fbe
00000010: 7fa1 563e fbd8 bb3c bb42 bb3c 9c51 bc3e
00000020: a6ce f03d 7be7 debe 1f94 8cbe 2e05 203f
00000030: 6f5c 063d 48c2 16be ba22 c53d 502e a0be
00000040: 117a 51bc d33a 803e 3a39 1f3e 2c6b 1dbe
00000050: 2073 80be e87f dcbd 5f3d 6ebe 5422 35bd
00000060: 82fb 183e 1db3 a23d 4c39 4ebe 893e b5bd
00000070: 7623 81be 9d03 1ebf ac99 483e a863 06bc
00000080: 3db9 3dbe 2e07 d3be 47d6 dfbd 9358 d7bd
00000090: f7f7 833e e020 82be fee0 fe3e f6d6 3cbe
000000a0: 041e 6ebe fa3e 2fbe be38 62be 5c08 06bd
000000b0: ac8d 9dbe e753 cb3e 9d36 e2bd 9036 673d
000000c0: b7b0 04be 80fd 30bf 6263 043e 7261 8b3e
000000d0: 3390 eebb b8b3 693d 3624 37be 02c4 39be
000000e0: 4f26 cc3e e03c 4b3e 2ca5 e7bb 2bf5 4c3e
000000f0: 40b2 70be 64d4 ae3e 0cc1 c1be 72e1 01bf
00000100: 8977 243d abc0 d4bd 9562 97be 5bec 80be
00000110: d4fa 04bf ed62 02bc 3d57 b0bd 5e59 043f
00000120: ce45 763e 7cbf c43d 310d 08bd 11f9 ef3e
00000130: 4d3a 85be 11bf bf3e da28 66be 3bbb 6abe
00000140: c841 8abd 49a2 ffbe a155 2b3d efa1 c93d
00000150: 344d b13d 657c 5a3e b2da 6b3d 47e7 fbbd
00000160: 3749 903e 0078 90be 53f0 bb3d e80b c6bd
00000170: b7dc 963d 7f39 1abf 1063 0c3d 9b12 123e
00000180: c27a 013f d6f4 063e b36b 033e 860e a03c
00000190: a699 a3be 492b 593e 92ad 6f3d 28ac c23e
000001a0: cf72 413d 077e 893e 3b84 963e 6d96 a53e
000001b0: 7c11 41be a5b5 5c3e 9374 ea3c 6a7d 7b3e
000001c0: 5212 823d 9641 793e 0fc9 053f 4110 1fbe
000001d0: ad23 633e 2de7 4c3f 4375 763e e50d df3d
000001e0: f588 70be 39ad c1bd 22ee 163c 37fb 9bbc
000001f0: 10f5 c8bd 79f3 5cbe 1d41 443e 7744 373d
00000200: 9427 34be bfb9 cabc 5aea 0bbe 97f7 efbd
00000210: 70c7 c63e b0f1 eabd 57cc a13c 10dc 653d
00000220: 6dd3 e2be e0b9 62be fa68 f13d 1e37 0e3f
00000230: 5d88 04be 1b68 29be 3f56 103f ac03 b5be
00000240: a5d8 cebd 12e2 c63e fd9b 8c3a 3711 863e
00000250: e15a 3cbe 9c39 1abe 73bd 6a3e 923d 6ebe
00000260: 8e96 c1be 9cf5 56bd ffe4 d13d d52c c4bd
00000270: 437b c63c 83ba 803e 6f68 9f3e f4f2 09bb
00000280: 8f82 a4be 54cc 983d 33de 98be 7110 a6be
00000290: bb08 b03d 7fbc 26bf 8ca7 05be 71ea 1bbf
000002a0: 1637 69be 174f 9e3c 8d92 39be 55a4 993c
000002b0: 616d 93be dcbb 593e 6e0a 70be 3d5b 20be
000002c0: 8285 d1be b587 af3d 2529 803d 349d 9cbe
000002d0: 6a17 803d 43c8 bbbe 9109 323e d66f 913e
000002e0: 2ff0 d43e 2db9 fbbd 0f15 063f 6257 d1bc
000002f0: 0359 473d 90b8 18bf ac1e 6f3d afb7 853e
00000300: 3b2d b5be 0277 debe b31e ab3e df75 55bd
00000310: 0b64 f63e 9939 9a3e a68f 293e 9927 06be
00000320: 4d37 183d cfde e53e 214a 483e 0cf7 e7be
00000330: 88e3 273e 2565 23be e000 2abd dc51 9e3e
00000340: f3d4 a23e a83e d33e e90f 0cbe d567 fdbd
00000350: 8c84 86be 83de b9bb a778 a0be 07c6 d33b
00000360: 291a e4be 986c 6abe cca6 9b3e 7c3d d63d
00000370: 88f9 54be 0030 db3d b375 893e fb4c c2bc
00000380: a665 88be f2c6 d4be 8cb7 59be 5672 9b3e
00000390: f994 dcbe 8718 80bd e132 043d 737d 10bf
000003a0: d0c5 a2bc 18c7 2dbe b007 143e 6407 80be
000003b0: 7f29 053e e181 3a3e 6dc2 e2be 6669 cc3e
000003c0: 03b1 3e3c bcfb 39be fef0 8abe 7e41 aa3e
000003d0: d62e 9cbe 33f7 b03e 90d2 8a3d 3324 713a
000003e0: f0ec 763e 22c0 d6be 612d 60bc e12c d5bd
000003f0: eeb7 113d b42f de3d e1c5 033d d7b4 063f
-0.082686044 -0.21532819 0.1226724 -0.21806918 0.20960043 0.022930613 0.022858968 0.36781013
0.11758165 -0.4353598 -0.27456757 0.62507904 0.032802995 -0.1472255 0.09625764 -0.31285334
-0.012785451 0.2504488 0.15549174 -0.15372914 -0.25087833 -0.10766584 -0.23265599 -0.04422219
0.14939693 0.079443194 -0.20139045 -0.08849818 -0.25222367 -0.61724263 0.19589871 -0.008202471
-0.18527694 -0.41216415 -0.10929542 -0.10514941 0.2577512 -0.25415707 0.4978103 -0.18441376
-0.23253638 -0.17113867 -0.22091958 -0.032722816 -0.3077215 0.3971245 -0.11045573 0.05644852
-0.12958036 -0.6913681 0.12928537 0.27222782 -0.0072803735 0.05705616 -0.17884907 -0.18141177
0.39872977 0.1984744 -0.0070692506 0.20015399 -0.23505497 0.34146416 -0.37842596 -0.5073463
0.04015306 -0.10388311 -0.295674 -0.25180325 -0.51945233 -0.007958156 -0.086103894 0.51698864
0.24050066 0.09606835 -0.033215705 0.4686971 -0.26021042 0.3745046 -0.22476521 -0.22922985
-0.06750828 -0.499285 0.04182971 0.098453395 0.086573035 0.21336515 0.05758161 -0.12299972
0.28180858 -0.28216553 0.091766976 -0.0967024 0.07366317 -0.6024398 0.03427416 0.1426491
0.5057794 0.13179335 0.12834053 0.019538175 -0.31953162 0.21207918 0.05851514 0.3802197
0.04722863 0.26853964 0.2939776 0.32341328 -0.18854326 0.21553667 0.02862004 0.2455956
0.063511506 0.24341425 0.52259916 -0.15533544 0.22181578 0.80040246 0.2406817 0.10891322
-0.23489745 -0.09456868 0.009212049 -0.019040687 -0.09812367 -0.21577252 0.19165464 0.044743028
-0.17593223 -0.024746774 -0.13663617 -0.11717146 0.38824034 -0.114718795 0.019750757 0.05611807
-0.4430193 -0.22141218 0.11787601 0.5555285 -0.12942643 -0.1654362 0.563816 -0.35354364
-0.100999154 0.38844353 0.001072764 0.2618501 -0.18394043 -0.15061039 0.22923832 -0.23265675
-0.37810177 -0.052480325 0.10248756 -0.095788635 0.024228698 0.25142297 0.31134364 -0.0021049352
-0.32130858 0.074608475 -0.29857025 -0.3243442 0.08595415 -0.6513137 -0.13052195 -0.60904604
-0.2277492 0.019324822 -0.18122311 0.018755117 -0.28794387 0.21263069 -0.23441479 -0.15659805
-0.4092217 0.08570806 0.06257848 -0.30588686 0.06254466 -0.36676225 0.17386462 0.28405637
0.41589496 -0.12291179 0.5237588 -0.025554363 0.048668873 -0.5965662 0.05837886 0.26116702
-0.3538607 -0.4345017 0.3342186 -0.052114364 0.48123202 0.3012207 0.16558704 -0.13101043
0.037162114 0.44896552 0.19559528 -0.4530567 0.1639539 -0.15956552 -0.04150474 0.3092183
0.31803092 0.4125874 -0.13677944 -0.1237332 -0.26273 -0.0056722774 -0.3134205 0.0064628157
-0.4455121 -0.22892988 0.30400693 0.10460946 -0.20798314 0.10702515 0.2684761 -0.023718348
-0.26640052 -0.41558033 -0.21261424 0.3036067 -0.43082407 -0.06254678 0.032275084 -0.5644142
-0.019869715 -0.1697048 0.14456058 -0.2500564 0.13004111 0.18213607 -0.4428896 0.39924163
0.011638883 -0.18162435 -0.27136987 0.33253092 -0.30504483 0.34563598 0.06778443 0.00091988145
0.24113822 -0.4194346 -0.013682694 -0.104089506 0.0355758 0.108489424 0.032171134 0.5261969

network_body._body_endoder.seq_layers.2.bias f4 [256]
00000000: 4ef9 c5bd 106b 06be b2b8 2d3d 1124 9bbd
00000010: 49c9 f7bc 7528 eabd 4772 11bd ac34 04be
00000020: d079 1fbd eb6d 07be ec69 cfbd 9887 613d
00000030: d44e 153d c55d 67bd 293f 983d 3d0d 61bc
00000040: 70c1 40bd 79d0 11bc 5afd 22bc 6b3e 793c
00000050: 7006 d4bd c7a3 e4bd 29f5 7b3d f01a 05bd
00000060: e08a 8a3d 616c 22bc 89ba 84bd 5c66 9fbd
00000070: dea0 da3d c038 22bd 0047 f7bc 397e d2bd
00000080: 4847 3ebd 0aaf 423c bae4 8cbd c93a 53bd
00000090: 5225 1ebe 1bae cfbd e177 a9bc 9fbc c03d
000000a0: 0735 873c 57b0 2fbd 8ea3 b33d 3e7d e43d
000000b0: f569 55bd c2ee abbd 71f1 2fbe dab1 cfbb
000000c0: 00a3 ddbc 25c1 e63d 47b7 f53d 9582 99bd
000000d0: 1f1e 043d 437f a63d 0007 e83d acf1 bbbd
000000e0: b01e 1ebd bdcf 5abd e3a2 65bd dcb2 c3bd
000000f0: 738c 943c a39f a2bd c9f3 6aba 86f3 a93d
00000100: 431c 983d f0ce b1bd 2011 20bd 69ed 95bd
00000110: 4a3a 333c 04cf 193c c22a 75bd 8be6 103d
00000120: a63c 3dbd 6c59 de3c 6742 23bd ef15 2a3d
00000130: 952b 8cbd 6358 2cbe b4b7 fe3c 2e04 b9bd
00000140: 0357 4bbd 588d b7bd f42a 853c a1c2 1cbe
00000150: 77bb a63b 0c19 d3bd b7c5 88bd b54a dfbd
00000160: 8dbf 183b d863 213d f173 1c3d d011 bfbb
00000170: 6671 ffbb 4d73 dcbc 0a73 a3bd f77e 233d
00000180: b8f5 60bd af70 46bc f45c c6bd 948c d6bd
00000190: 5dd7 8a3d f02f 1abc 71aa f13c 70d0 a9bd
000001a0: 1593 0fbd 913d febc 246c bb3c 4a3f cb3c
000001b0: e7c9 5e3c 8b59 7abc 8418 323d 5f06 ccbd
000001c0: 2d7b 92bd 1586 95bd cd30 87bd 1b5c 6ebd
000001d0: d046 4e3b 8c28 083d bdd2 88bc dc27 9dbd
000001e0: f332 34bd 4952 b73b 4699 f33c cdeb adbd
000001f0: 247a 9a3d f545 9cbb a57a 8abd 5d41 5bbd
00000200: fc04 843a 9bf2 3b3c 0f43 d7bc b3f3 d43c
00000210: 9cb9 a3bd 0558 8a3d 4b88 abbd 77a5 ef3d
00000220: cb7a c13d 725e 4abd 2a23 d8bd 41d3 56bc
00000230: 12cd eabd f201 89bd 77b5 adbc e4dc ccbd
00000240: 20c4 3e3d 3d45 9ebd 62ab 12bc 6963 cd3d
00000250: 9969 d23d d64b 46bd 641c 023e c681 1e3d
00000260: a55f 4ebd 74fd d23c eb5c 873d c4ce 00be
00000270: 5f43 f8bc eee8 593d c5c3 06be 7f68 9c3d
00000280: 4e9d 6dbd 289d a7bd a056 76bd 2317 0bbc
00000290: 4b0e 86bd ea9f 953d 8d2d 53bd 9fe8 30bd
000002a0: 26df e83c 43cc e5bb 8e4b c2bd 6129 c3bd
000002b0: 92ca 02be 6baa 8e3c 1308 79bd fd8e a53d
000002c0: 01c5 393d 151e 91bd 9914 773c a746 ccbc
000002d0: de4c 96bd 15c3 a33c caf1 813d d070 df3c
000002e0: 54b3 cdbd 16c0 21bd 980f 633c 1986 47bd
000002f0: 08aa c5bc c3bf e2bc cc40 e6bd 6ad8 d5bd
00000300: 9e96 4cbd f8eb c2bd 1c77 763d 2caa 9b3b
00000310: 658c bfbd 6201 083e 811f cbbd b8c1 82bb
00000320: 19cd c1bd 2cb0 fdbd e96c 83bd 2c7d 8ebd
00000330: 9720 48bd eb53 b5bd 131e c3bd 689f 2cbd
00000340: 2783 d5bc 34f4 28be 188a 79bc a579 97bd
00000350: cca3 8c3d 2545 63bd 1211 d8bd 19e8 44bd
00000360: b51c f9bd 2e35 1ebe b589 923b e236 e8bc
00000370: 2cd4 29be 7ccd bc3b ae12 ef3c 99ec 55bd
00000380: 28f9 86bd e7c8 f23d 8d90 3cbd dada 58bd
00000390: c212 68bc f484 93bc 0891 94bd 0c22 e4bc
000003a0: 90b4 c4bd 8021 b0bd 9b0e 95bc 8741 d3bd
000003b0: 0703 fabc 1e00 aabc 7e02 8abd a406 c63b
000003c0: 25e6 ec3d f1f4 483d e9a8 25bd 871b 06be
000003d0: 0dc2 7b3d 5fb6 c8bd f2a4 6fbd 2877 18bd
000003e0: 4aab 0cbe 866b aebd 950f 00be aec9 febd
000003f0: c549 263d 5d2e 1a3d 4ab5 fcbd 65bd 33bd
-0.09666692 -0.13126779 0.042412467 -0.075752385 -0.030247347 -0.11433498 -0.035509374 -0.12910718
-0.03893453 -0.13225524 -0.10127625 0.055060953 0.03645213 -0.05648591 0.07433922 -0.013736066
-0.047059476 -0.008899801 -0.009948099 0.0152126355 -0.1035279 -0.111640505 0.0615131 -0.032496393
0.067647696 -0.009913535 -0.06480891 -0.077831954 0.10675214 -0.039604902 -0.030185223 -0.10277981
-0.046454698 0.011882553 -0.06879564 -0.051569734 -0.15443924 -0.1014063 -0.020687046 0.094109766
0.016504778 -0.04289278 0.0877143 0.111567006 -0.052103 -0.08395149 -0.17181946 -0.00633834
-0.027055264 0.11267308 0.11997848 -0.0749561 0.03225529 0.08129742 0.1132946 -0.091769546
-0.038603485 -0.05342077 -0.056063544 -0.09555599 0.018133378 -0.079406045 -0.00089627184 0.082984015
0.074272655 -0.08682048 -0.03907883 -0.07320673 0.01093919 0.009387735 -0.05985523 0.035376113
-0.046200417 0.027142249 -0.039858248 0.041524824 -0.0684425 -0.16830592 0.031093456 -0.09034
-0.049643528 -0.08962506 0.016255833 -0.1530862 0.0050882655 -0.10307512 -0.06678336 -0.10902921
0.0023307533 0.03940186 0.038196508 -0.005830981 -0.0077955006 -0.026910448 -0.07980926 0.039916005
-0.054921836 -0.012111827 -0.09685698 -0.10476032 0.067793585 -0.009410843 0.029500218 -0.082917094
-0.035052378 -0.031035217 0.022878714 0.024810452 0.013597942 -0.015280138 0.04348041 -0.09962153
-0.071524 -0.07300965 -0.06601105 -0.058193307 0.0031475313 0.033241794 -0.01670205 -0.07673618
-0.0439939 0.005594526 0.029736172 -0.08492241 0.07542828 -0.0047690817 -0.06761674 -0.053529132
0.0010072286 0.011471416 -0.026277093 0.025995111 -0.079943866 0.0675507 -0.08375605 0.11701482
0.09447249 -0.049406476 -0.10553582 -0.01311189 -0.11464895 -0.06689824 -0.021204693 -0.10003069
0.046573758 -0.0772805 -0.008951994 0.100287266 0.102740474 -0.048412167 0.12706143 0.03869798
-0.050384182 0.025755621 0.066095196 -0.12578875 -0.030305563 0.053200655 -0.13160618 0.076371185
-0.058011346 -0.08184272 -0.060141206 -0.008489403 -0.06545695 0.07305892 -0.051557112 -0.043190595
0.028426718 -0.0070128753 -0.09487067 -0.09529377 -0.12772587 0.017415246 -0.060798716 0.080839135
0.045353893 -0.07085816 0.015080594 -0.024936033 -0.0733888 0.019990483 0.06344946 0.027275473
-0.1004397 -0.039489828 0.013858698 -0.04871187 -0.024128929 -0.02767933 -0.11242828 -0.10441668
-0.049948327 -0.09517664 0.060172185 0.0047505107 -0.0935295 0.13281778 -0.09918118 -0.003990378
-0.094629474 -0.12387118 -0.06417257 -0.069574684 -0.048859205 -0.08853897 -0.095272206 -0.04214421
-0.026063515 -0.16499406 -0.015230678 -0.07396249 0.06867179 -0.055485863 -0.10550131 -0.048072908
-0.121636786 -0.15449974 0.0044719824 -0.028346483 -0.16584843 0.0057618003 0.029183712 -0.05222759
-0.065904915 0.11854725 -0.046036292 -0.052943088 -0.014164628 -0.018007733 -0.07254225 -0.027848266
-0.09604752 -0.086001396 -0.018195441 -0.10315233 -0.030519022 -0.020752009 -0.067387566 0.006043272
0.11567334 0.04906172 -0.04044429 -0.13096438 0.061464358 -0.098004095 -0.058506913 -0.03722301
-0.13737217 -0.08516602 -0.12505944 -0.12440811 0.040597696 0.03764187 -0.12339266 -0.043881793

network_body._body_endoder.seq_layers.2.weight f4 [256, 256]
00000000: a945 743a 8477 6a3d afec c93c ac25 8f3d
00000010: e658 613c 9752 afbd 9a2d 9e3d 47c4 303d
00000020: 833d 223d 3694 9dbb d790 8ebd bec5 55bd
00000030: c972 8abd 8bd7 6cbc ba9a f03d 5409 0c3d
00000040: be1a 6a3e c363 773d eace b5bd 4fec cdbd
00000050: 61e7 02be f994 303d 27d6 333d ae32 13bd
00000060: 0b1c d63c db72 03be 2673 9d39 451d d0bd
00000070: eb8a 913d c2ee 14bd cfd2 d23c 95a0 56bb
00000080: 51a1 253d 27e3 533d 775c 153d cfda 2bbe
00000090: f0b2 0a3d cf87 94bd bc25 673d 5a3c 853b
000000a0: f68f dc3c 4e2f d93c 872d 81bd 764f fe3c
000000b0: be02 a1bd 1f0e 0d3d 0539 6cbd 65ee 1c3c
000000c0: 18d4 9a3d ed01 7abd 127d 923d 0bdc 903d
000000d0: 8b0d 393d 552d 44bd 6423 4a3d b23b be3d
000000e0: e63f 88bb adb2 f43d 6f67 00be a224 89bc
000000f0: 6666 d13c 91fe 11bc 0b29 dcbb b196 343c
00000100: 45f2 61bd 2e5c 1b3d 2b23 933d fff9 a93c
00000110: bbb8 4e3d 10de ebbc d2da 553d abc1 fcbc
00000120: ea47 14be e7f2 333d 72b3 f1bc 1518 1f3c
00000130: 2fdc 9bbc e802 2fbd 4d34 80bd f9a0 003e
00000140: 1359 04bd 3169 25bb 494c b9bd d1db ffbd
00000150: ba60 783d 7594 5abd 7f5e dfbc 0f27 343c
00000160: ab73 2ebe 93f6 b3bd 7995 8e3d dd3e c2bd
00000170: 8f5d f4bd 569d 1cbe 811d 9a3d 6f78 38bd
00000180: 79b1 363d af11 433d 5092 8b3c 11d1 7ebc
00000190: 6fc4 8d3d 1b8c 1d3d 51ed 2fbc cb41 0b3d
000001a0: afe9 27bd dec6 0cbd 716b 5cbd 8077 323b
000001b0: 2dfe 98bd 7b04 6e3c dcc5 0b3e bb23 f8bc
000001c0: ca17 313c 43c9 9ebd 917a 05bd 13d3 cd3d
000001d0: 328c 073d 3a07 983d f288 f53d 7b05 11bb
000001e0: e63a 9f3c 69da 69bd d799 fb3d f10c e1bd
000001f0: 71d6 e33d 9aa7 1ebe 968c abbd c74f efbd
00000200: cf74 d13c 2726 bc3d 16ad 653d 637c 17be
00000210: 81fd bbbb 71f9 c1bd c138 bbbc a069 603c
00000220: 3b84 29bc 370a 08bc a07c 51bd 5fdc 8c3c
00000230: c7c3 a33c 042f ab3a f02d 6bbd 530f c3bd
00000240: e89c 23bc 48c9 8bbd f3d8 b8bd 0c46 913c
00000250: 7352 dab9 6b81 6dbc 9649 d0bd 6d93 a1bd
00000260: 3b7b 33bc e59d 6fbb 0dce 12be bf52 ea3d
00000270: ee26 9dbc 5dc8 02be e538 afbd 847c 01bd
00000280: 1e92 23be 5a77 3f3d bd80 b83d 3406 223d
00000290: e39d eebd ea65 b73d c141 773d 5b05 b8bc
000002a0: 69c0 98bd 246a c3bd 9a61 3ebe dc14 05be
000002b0: 9b37 2c3d 93a3 173e 78e0 84bd d3e2 46be
000002c0: 3508 543e cc7a be3c 9e57 0d3e 5b12 4b3d
000002d0: 862b 85be c1d7 383d 4fc5 9f3d fd11 863c
000002e0: e6fa 353e 7d6b 0cbe 33b3 1b3c f360 59be
000002f0: ea99 dcbd 93aa 5a3d b4ec 1b3d 10ce c4bd
00000300: cfef 40bd eef0 06bc 2c76 ecbd d263 723d
00000310: 90ac 22be 4822 363d 5e1e c5bb 7f6e bc3c
00000320: 08b0 6ebc f835 3dbb f8d5 a73d d766 2cbd
00000330: 825a 383d c0f0 8c3d 8e7e e7bd fb04 36bb
00000340: 7d3b bb3d 5d71 ba3c 46b3 e53c 664f f83c
00000350: 2da8 7cbd 00dc 373c 5f93 193d bf6a 023d
00000360: 68a1 3cbd ce95 2bbe e092 003c baee 47bd
00000370: bf62 b03c 8774 b7bd e8ee 453d 20f1 0f3e
00000380: d926 01bd e6e2 f93d 9e0b 2f3c 2090 a43d
00000390: bf3c d1bb 15ef 40bc ddde debd 5a27 abbd
000003a0: 190e 7d3c 8d3e 99ba 8743 8f3d 7b99 b93d
000003b0: a01d ab3d f67b b2bd 7005 813d 1926 b8bd
000003c0: b886 343d b727 e9bc 8aeb 0fbd 04e5 cfbd
000003d0: dab7 c7bd 1dfd 993e 8d21 033e a127 423d
000003e0: 63b1 223e 8a67 843d 5c13 86bc 7aed 183d
000003f0: 2261 473d 3c12 833a 6c88 fcbd aeeb 353d
0.00093182415 0.057242885 0.024648992 0.06989607 0.013754105 -0.08560675 0.077235416 0.043155935
0.039609443 -0.004808928 -0.0696122 -0.052190535 -0.06760175 -0.014455686 0.11748262 0.034188583
0.22861764 0.060397875 -0.08877356 -0.10054838 -0.12783577 0.04311082 0.043905403 -0.035937004
0.026136419 -0.12836783 0.00030031166 -0.10161833 0.071065746 -0.03636051 0.025735287 -0.0032749523
0.040437046 0.0517303 0.036465134 -0.16782688 0.033862054 -0.07252466 0.05643247 0.0040660324
0.026924115 0.026511814 -0.06307512 0.03104375 -0.07861851 0.034437295 -0.057671566 0.009578322
0.07559985 -0.061036993 0.071527615 0.0707322 0.04517893 -0.047894794 0.049350157 0.0928873
-0.004158008 0.11948142 -0.12539457 -0.0167411 0.025561523 -0.008910791 -0.00671876 0.011022256
-0.055162687 0.037929706 0.07184442 0.02074909 0.05046914 -0.028792411 0.052210636 -0.030854067
-0.14480558 0.04393282 -0.029504512 0.009710331 -0.01902589 -0.04272738 -0.062599756 0.12561406
-0.03231151 -0.00252397 -0.09047753 -0.124930985 0.06063912 -0.053364236 -0.027266739 0.01099564
-0.17036311 -0.08787265 0.069621034 -0.094846465 -0.119319074 -0.15294394 0.07525159 -0.04503673
0.044602845 0.047624286 0.01703754 -0.015552775 0.06922232 0.038463693 -0.010737733 0.033998292
-0.040994342 -0.034369342 -0.0538134 0.0027231872 -0.07470355 0.014527435 0.13649696 -0.030290475
0.010808894 -0.077532314 -0.03258759 0.10050025 0.033092685 0.07423253 0.11989011 -0.002212851
0.019437265 -0.057093058 0.12285202 -0.109887965 0.11124886 -0.15493622 -0.08376424 -0.11685138
0.025568394 0.091869645 0.05607327 -0.14793544 -0.005737007 -0.09471405 -0.02285421 0.013697058
-0.010346468 -0.008303217 -0.051144242 0.017194925 0.019990815 0.0013060276 -0.057416856 -0.09524407
-0.00998614 -0.06825501 -0.09025755 0.017733596 -0.0004164163 -0.014496188 -0.101702854 -0.07889447
-0.010954673 -0.0036562618 -0.14336415 0.11441564 -0.019183602 -0.12771745 -0.08555774 -0.031612888
-0.15973708 0.046744682 0.0900893 0.039556697 -0.11651208 0.089549854 0.060365442 -0.022463491
-0.07458574 -0.09541729 -0.1859192 -0.12996238 0.042045217 0.14808492 -0.064881265 -0.19422464
0.20706256 0.023251913 0.13802955 0.049578052 -0.26009768 0.045127634 0.078013055 0.016366
0.17771491 -0.13712879 0.009503174 -0.2122839 -0.10771544 0.05338533 0.038067535 -0.09609616
-0.0471037 -0.008236153 -0.11545977 0.059177227 -0.1588614 0.044466287 -0.006015583 0.023001907
-0.014568336 -0.002887128 0.08195108 -0.042090263 0.04500819 0.06881857 -0.11303435 -0.0027773965
0.09142206 0.022759134 0.028039586 0.030311298 -0.061683822 0.011221886 0.03749406 0.031840082
-0.046052366 -0.16756365 0.007847518 -0.04881165 0.02153146 -0.08957773 0.048323542 0.14056826
-0.03153119 0.122014806 0.010683922 0.08035302 -0.0063854153 -0.011775752 -0.108823515 -0.08357115
0.015445256 -0.0011691615 0.06995302 0.09062477 0.0835526 -0.0871505 0.06299865 -0.089916416
0.04407379 -0.02846132 -0.035136737 -0.10151103 -0.09751864 0.30075923 0.12805767 0.047401074
0.1588798 0.06465061 -0.016366653 0.03733585 0.048676617 0.0009999941 -0.12330708 0.044414215
