Assets/NNModels/SphereLandingAgent.onnx (onnx, 561470 bytes, 15 tensors)

82 f4 [20]
0	0x41277af8	10.467522
1	0x409bf1b8	4.8732567
2	0x4125bb4d	10.358228
3	0x40923e51	4.570107
4	0x3fc1a560	1.5128593
5	0x405a0ae1	3.406914
6	0x3fae9c16	1.3641384
7	0x3da0971b	0.07841321
8	0x3dd8533a	0.10562749
9	0x3daef3c8	0.08542591
10	0x40b74788	5.727482
11	0x41249939	10.287408
12	0x3b8a2fc3	0.0042171194
13	0x3e50a20b	0.20374314
14	0x41975beb	18.919882
15	0x3e30ee9b	0.17278521
16	0x4069c704	3.652772
17	0x41092686	8.571905
18	0x4066389b	3.597205
19	0x3ee9af78	0.45641685

action_model._discrete_distribution.branches.0.bias f4 [3]
0	0xbd9ebf52	-0.07751335
1	0x3d5260f9	0.05136201
2	0x3d420aa0	0.047373414

action_model._discrete_distribution.branches.0.weight f4 [3, 256]
0	0x3e2602ab	0.16211955
1	0xbd9b5f8e	-0.07586585
2	0x3c571988	0.013128646
3	0x3e4a6b33	0.19767456
4	0x3e544fe3	0.207336
5	0x3dbf9de3	0.093562864
6	0x3e11a5c4	0.14223391
7	0x3d4d4313	0.050112795
8	0x3badc3b4	0.0053028706
9	0xba39639c	-0.0007072033
10	0xbc32636e	-0.010887964
11	0x3e0b64f4	0.1361273
12	0x3c5a8264	0.013336752
13	0xbd94f5c7	-0.07273441
14	0xbe737581	-0.23775293
15	0x3be8274c	0.0070847627
16	0xbd3d9b34	-0.04629059
17	0x3c7e4d31	0.015521334
18	0x3d0b42fa	0.03399942
19	0xbe32872e	-0.1743438
20	0xbe3c2d99	-0.18376769
21	0xbe856f8b	-0.26061663
22	0x3daab028	0.083343804
23	0xbc7c1ef7	-0.015388242
24	0xbdd06056	-0.101746246
25	0xbce0705e	-0.02739733
26	0x3e6d8f5e	0.23199221
27	0xbcee5a39	-0.029095756
28	0x3d3a3566	0.04546108
29	0x3e5e2008	0.21691906
30	0x3ddcb97e	0.10777567
31	0x3d5d1b50	0.053981125
32	0x3db13e20	0.086544275
33	0xbd5e6354	-0.054293945
34	0x3e359e0e	0.17736074
35	0x3cecc30b	0.028901597
36	0xbda94d72	-0.08266725
37	0xbe1ae412	-0.15126064
38	0xbd2d347d	-0.042286385
39	0x3e9bf3f0	0.30459547
40	0xbdfe2810	-0.12409985
41	0xbede3b90	-0.43404818
42	0x3c562d2a	0.013072291
43	0x3dae5b6f	0.08513533
44	0xbd6c948d	-0.057758857
45	0x3d25d8e8	0.04049006
46	0x3e906320	0.28200626
47	0x3e1a5914	0.15073043
48	0x3e4d4255	0.20044835
49	0x3df21f6b	0.11822399
50	0xbe21ab4b	-0.15788
51	0xbe79b4d6	-0.2438539
52	0xbcdf6bf8	-0.027273163
53	0x3d78d52a	0.060750164
54	0x3d959fa9	0.073058434
55	0x3d1efda9	0.038816128
56	0xbd600045	-0.054687757
57	0x3e4b9185	0.1987973
58	0x3e08a145	0.1334277
59	0xbddc7734	-0.10764924
60	0x3e74eb4b	0.23917882
61	0x3e39b96b	0.18137138
62	0x3cb026d4	0.02150289
63	0x3d8c6ea2	0.06857039
64	0xbdb63d18	-0.088983715
65	0xbe5493bf	-0.20759486
66	0x3d86501e	0.0655825
67	0x3ebede4d	0.37278977
68	0x3e346b0d	0.17618962
69	0xbd824acf	-0.06361925
70	0x3e105adc	0.1409716
71	0xbe814922	-0.25251108
72	0x3bd39075	0.0064564296
73	0x3e2265e3	0.15859179
74	0xbe633472	-0.22187975
75	0xbe41f0bc	-0.18939489
76	0x3e59bd55	0.2126363
77	0xbe40521c	-0.18781322
78	0x3e200b8c	0.15629405
79	0x3e093965	0.134008
80	0xbd0a4195	-0.03375395
81	0xbdb2eb95	-0.0873634
82	0xbe420b96	-0.18949732
83	0x3e3d7292	0.18500736
84	0x3dd66a71	0.10469521
85	0xbabc46a8	-0.0014364319
86	0x3d9c3a8b	0.07628354
87	0x3d49875a	0.049201347
88	0xbdf7e38b	-0.12103947
89	0x3d2fd20b	0.042924922
90	0xbe1095af	-0.141196
91	0x3dfcc028	0.123413384
92	0xbdbb552a	-0.09147103
93	0x3e5fb1d6	0.21845183
94	0xbc6a70b9	-0.014309102
95	0x3e1db4eb	0.15401046
96	0xbd98e941	-0.07466365
97	0xbd52d931	-0.05147666
98	0x3e03777e	0.12838551
99	0xbcf4ea26	-0.029896807
100	0x3e4b4564	0.19850689
101	0x3cbace4e	0.022803452
102	0x3d62d431	0.055378143
103	0xbe859209	-0.26087978
104	0xbd98aadd	-0.074544646
105	0x3db9f747	0.090803675
106	0xbd80513f	-0.062654965
107	0x3e89f25f	0.26942727
108	0xbe4b31f6	-0.19843277
109	0xbe037bc9	-0.12840189
110	0xbd8b8663	-0.068127416
111	0x3e7ded4a	0.2479755
112	0x3d3e2460	0.04642141
113	0xbd63c99c	-0.05561219
114	0x3e815a71	0.25264314
115	0x3d6fb4d1	0.05852205
116	0xbe8ffde9	-0.28123406
117	0x3d8364bb	0.06415697
118	0x3e118207	0.14209758
119	0xbd1de9ee	-0.03855317
120	0x3d0f583d	0.03499626
121	0xbd59f3e5	-0.05321111
122	0x3db54f17	0.08852976
123	0xbd7a3380	-0.06108427
124	0x3de1430b	0.109991156
125	0xbe268766	-0.16262588
126	0xbdb3885b	-0.08766242
127	0x3dd2c557	0.10291546
128	0xbd81a352	-0.06329979
129	0x3d5a1784	0.053245082
130	0xbda5fc04	-0.08104709
131	0x3c9c28a2	0.019062344
132	0x3b0586fa	0.0020374642
133	0xbc8e8f27	-0.017402245
134	0xbe139617	-0.14412723
135	0xbe90cb63	-0.28280172
136	0xbdf7acf0	-0.12093532
137	0xbc70b4de	-0.01469156
138	0xbd319e3b	-0.04336379
139	0x3e89d9a0	0.26923847
140	0x3e0bf2f7	0.13666902
141	0x3e42764a	0.18990436
142	0x3e19c8ca	0.15018001
143	0xbc92de2b	-0.017928204
144	0xbdadd3c2	-0.08487655
145	0xbd3af433	-0.045643043
146	0x3e0ce02d	0.13757391
147	0xbd0dfc34	-0.034664348
148	0xbe44930f	-0.19196723
149	0x3cc2b6ef	0.02376887
150	0x3d0366f8	0.03208062
151	0xbec89c38	-0.39181685
152	0x3dc587fe	0.09645079
153	0xbe1449f2	-0.14481333
154	0xbc802574	-0.015642859
155	0xbccf1cc5	-0.025282273
156	0xbd3c7624	-0.046011105
157	0x3bb9626f	0.005657486
158	0xbd119ad1	-0.035548035
159	0xbd3a31bc	-0.045457587
160	0xbc1f358d	-0.009717357
161	0xbc339540	-0.010960877
162	0x3d27a570	0.040929258
163	0x3e274556	0.16335043
164	0x3d83abe8	0.06429273
165	0x3e58c040	0.21167088
166	0x3dd315e6	0.10306911
167	0xbe2fa771	-0.17153718
168	0xbdd81f1c	-0.10552809
169	0x3cf70aef	0.03015658
170	0x3ddcf3ee	0.107887134
171	0xbe3cd6bd	-0.18441291
172	0x3c2bd5f9	0.010488027
173	0x3daa2e37	0.08309596
174	0x3dbaa8a2	0.091141954
175	0xbe82c1b8	-0.2553842
176	0x3d1c9170	0.038224638
177	0xbc2f13fe	-0.010685919
178	0xbe00e77c	-0.12588304
179	0x3ddb63cd	0.10712395
180	0x3ce28029	0.027649002
181	0x3e218592	0.1577361
182	0x3dc89818	0.097946346
183	0xbe0c7eaa	-0.13720194
184	0xbd9e9126	-0.077425286
185	0x3d702713	0.058631014
186	0x3d196f51	0.037459675
187	0xbdd56cbb	-0.10421129
188	0x3d9e881c	0.077408046
189	0x3cdf12c2	0.027230624
190	0x3e2cac51	0.16862608
191	0xbd70ee58	-0.058821052
192	0x3e0decbd	0.1385984
193	0x3dbecfc5	0.09316973
194	0xbd5cbc9e	-0.053890817
195	0xbd6514d3	-0.055928063
196	0x3db9c520	0.09070802
197	0xbe280e3c	-0.1641168
198	0x3dc1fb0f	0.09471714
199	0xbdbcacd1	-0.092126496
200	0xbc57423e	-0.013138352
201	0xbcf11b1b	-0.02943187
202	0x3e1de752	0.15420273
203	0x3d8e337a	0.06943412
204	0xbe9b3e7b	-0.30321106
205	0x3c8c8f65	0.01715822
206	0xbe59f323	-0.21284156
207	0x3dd36d25	0.10323552
208	0x3de5e9dd	0.112262465
209	0x3d79a2f0	0.060946405
210	0xbdcd4df6	-0.100246355
211	0x3e28d6d4	0.164882
212	0x3d97e425	0.07416562
213	0x3d9c6741	0.076368816
214	0x3e173af5	0.14768584
215	0x3d7ddce5	0.06197824
216	0x3d00716a	0.03135816
217	0xbc4da659	-0.012551867
218	0xbd7b1634	-0.06130047
219	0xbe2dc170	-0.16968322
220	0xbe27d226	-0.16388759
221	0x3de1140d	0.109901525
222	0xbdd995b5	-0.106242575
223	0x3ba1b45e	0.0049348315
224	0xbd625f5a	-0.055266716
225	0x3e83825f	0.25685403
226	0x3e5c35b4	0.21504861
227	0xbad5946a	-0.0016294841
228	0xbd3b827b	-0.045778733
229	0xbd99bccf	-0.075067155
230	0xbded446f	-0.11585318
231	0xbb46eb47	-0.0030352639
232	0xbea5605d	-0.32300082
233	0x3e4c89c5	0.1997443
234	0x3e0dac7e	0.13835332
235	0xbe8d4081	-0.27588275
236	0x3d26672c	0.040625736
237	0xbe31230e	-0.17298529
238	0x3c7cf894	0.015440125
239	0xbdf492ac	-0.11942038
240	0xbe95cdc7	-0.29258558
241	0x3cf6af0c	0.030112766
242	0xbeba5c90	-0.36398745
243	0xbd06d214	-0.03291519
244	0xbe0f6b3e	-0.14005753
245	0x3e41c512	0.18922833
246	0x3e3dc423	0.18531851
247	0xbd873696	-0.06602208
248	0x3c9723a6	0.018449616
249	0x3d8d34bd	0.06894825
250	0x3dbb063f	0.09132051
251	0xbead2bd8	-0.33822513
252	0x3e6a62eb	0.22889297
253	0x3c27b251	0.010235385
254	0x3e4ed685	0.2019902
255	0x3e2a280d	0.1661684

action_model._discrete_distribution.branches.1.bias f4 [3]
0	0xbd785623	-0.06062902
1	0xbd9b5b08	-0.07585722
2	0x3e2d48cf	0.16922306

action_model._discrete_distribution.branches.1.weight f4 [3, 256]
0	0x3e45bbe7	0.1930996
1	0xbe80ea5a	-0.25178796
2	0x3cd9fd83	0.026610142
3	0x3e083bab	0.13304012
4	0xbd0aa852	-0.03385193
5	0xbe58c8f0	-0.21170402
6	0xbdc49fb2	-0.09600772
7	0xbe973703	-0.29534158
8	0x3e6c90bd	0.23102088
9	0x3cae7c9e	0.021299656
10	0x3e5999a7	0.2125002
11	0x3d8afd00	0.06786537
12	0x3d35ada1	0.04435504
13	0x3e46af37	0.19402777
14	0x3d9af8ae	0.07566963
15	0x3ec0c949	0.37653568
16	0xbeb2c9e4	-0.34919655
17	0xbe52b269	-0.2057587
18	0xbe19211e	-0.1495404
19	0x3d69e797	0.057105627
20	0x3e331a6c	0.17490548
21	0x3dd57342	0.10422374
22	0xbcee3b02	-0.029080871
23	0x3d3af378	0.045642346
24	0xbe07cf7d	-0.13262744
25	0x3e2ced85	0.16887482
26	0x3e1932ff	0.1496086
27	0xbe5dfb0f	-0.21677803
28	0xbea9cf48	-0.33165956
29	0xbdfbdb2c	-0.12297663
30	0x3d12b3e2	0.03581608
31	0x3daffcba	0.08593126
32	0x3d87ece1	0.06636978
33	0xbe84bcfa	-0.25925428
34	0xbd12535c	-0.03572403
35	0xbd0f4523	-0.034978043
36	0xbd6407a3	-0.055671345
37	0x3e91aacd	0.28450623
38	0x3dbf378c	0.093367666
39	0x3e44afa4	0.19207627
40	0x3e600980	0.21878624
41	0xbdd6e244	-0.104923755
42	0xbd99ba35	-0.07506219
43	0x3b99c0a8	0.004692156
44	0x3df27879	0.118393846
45	0xbca86c28	-0.020559385
46	0xbd53a041	-0.051666502
47	0x3e45b1e5	0.19306143
48	0xbcb79e83	-0.022414451
49	0xbe61ccce	-0.22050783
50	0x3e4bfac4	0.19919878
51	0x3da7a087	0.08184915
52	0xbe3d8a92	-0.18509892
53	0x3db50ffa	0.08840938
54	0x3d4f9424	0.050678387
55	0x3d1003e2	0.035159953
56	0x3ec2a4ed	0.38016453
57	0xbe012a66	-0.1261383
58	0x3e9a8a68	0.3018372
59	0xbca46cb5	-0.020071367
60	0xbd28b593	-0.041188788
61	0xbde996e8	-0.11405736
62	0xbe4881c2	-0.19580749
63	0x3db9681c	0.090530604
64	0xbe4a6697	-0.19765697
65	0xbdf94bc6	-0.12172656
66	0x3dcbb0f1	0.09945858
67	0xbe131c11	-0.14366175
68	0xbdebc36e	-0.11511885
69	0xbdc5f987	-0.09666734
70	0x3e747734	0.23873597
71	0x3d637ba2	0.055537827
72	0xbea7c7f5	-0.32769743
73	0xbe123425	-0.14277704
74	0x3e0416f3	0.1289938
75	0xbc2ddae2	-0.010611268
76	0x3da9ddfa	0.08294292
77	0xbe5bdc74	-0.21470815
78	0x3e36c628	0.17849028
79	0x3d000c50	0.031261742
80	0x3d98e96e	0.07466398
81	0xbe4db2b7	-0.20087706
82	0xbe0d1820	-0.13778734
83	0xbd750215	-0.05981644
84	0x3db0b00e	0.0862733
85	0x3d0d1f4a	0.034453668
86	0x3e24f715	0.1610988
87	0xbe73663c	-0.23769468
88	0xbd808a9c	-0.06276438
89	0xbd7e3d89	-0.062070403
90	0x3d47a4eb	0.048741262
91	0xbe2eff78	-0.17089641
92	0xba74eee5	-0.00093434594
93	0xbe61f8f4	-0.22067624
94	0x3e394646	0.18093213
95	0xbe1746a7	-0.14773045
96	0xbe915964	-0.28388512
97	0xbe129c19	-0.14317359
98	0xbb06d119	-0.002057141
99	0xbc1656bb	-0.009175952
100	0xbd3b89e8	-0.045785815
101	0x3e5af64b	0.21383016
102	0xbe6869fa	-0.22696677
103	0x3d4f6f49	0.05064324
104	0xbe4b43b9	-0.19850053
105	0x3df325aa	0.11872418
106	0xbd8f7ab0	-0.07005823
107	0x3cda5e1d	0.026656205
108	0xbe5a6a62	-0.21329644
109	0x3cd27c08	0.025693908
110	0x3af6c20c	0.0018826141
111	0xbde09182	-0.109652534
112	0x3cb9d8c9	0.022686379
113	0x3e424d4c	0.18974799
114	0x3e910b4f	0.2832894
115	0x3e12d58b	0.14339273
116	0x3e2dff02	0.16991809
117	0x3e253efd	0.1613731
118	0x3db121da	0.08649035
119	0x3ca41b94	0.020032682
120	0xbe3c7ea7	-0.18407689
121	0xbeae55be	-0.3404979
122	0xbd1ac5fd	-0.037786473
123	0xbd8a4a51	-0.06752456
124	0xbe0213b0	-0.12702823
125	0xbcef3d1c	-0.029203944
126	0x3c8d78d3	0.017269528
127	0xbce03b9f	-0.02737218
128	0x3e50ed08	0.2040292
129	0xbdfbd239	-0.12295956
130	0x3da45f3e	0.080259785
131	0x3d192f27	0.037398484
132	0x3e7dd380	0.24787712
133	0x3e3b0f6c	0.18267602
134	0x3e5cf959	0.21579494
135	0x3ebf0130	0.37305593
136	0xbcaf6a1d	-0.021412903
137	0x3ce3a9ba	0.027790893
138	0xbe0a164f	-0.13485073
139	0x3e57d0a5	0.21075685
140	0xbe561398	-0.20905912
141	0x3e10bf10	0.14135385
142	0xbe1d6dd0	-0.15373921
143	0xbd25f254	-0.040514305
144	0x3b9a4a33	0.0047085523
145	0xbd2da442	-0.042392977
146	0x399d88eb	0.00030047385
147	0xbd9218fd	-0.071336724
148	0x3e606dab	0.21916835
149	0x3e584378	0.21119487
150	0xbcbb17b5	-0.022838453
151	0xbd22eb39	-0.039775107
152	0x3df402cc	0.11914596
153	0xbbc12bc8	-0.0058951117
154	0x3db02937	0.08601611
155	0x3d7af767	0.061271098
156	0xbe44efb8	-0.1923207
157	0x3e7cb40f	0.24678062
158	0x3d69004e	0.056885056
159	0x3e27a6e5	0.16372259
160	0xbeadd6ee	-0.3395304
161	0xbe908ec0	-0.2823391
162	0xbe27871b	-0.16360132
163	0xbc870a1b	-0.01648431
164	0xbd83829d	-0.06421397
165	0x3e220a62	0.15824273
166	0x3dd708f0	0.104997516
167	0x3c4b76a1	0.01241842
168	0xbcf0e6e0	-0.029406965
169	0x3d3911b2	0.04518289
170	0xbd9f1c68	-0.0776909
171	0x3e4b7f34	0.19872743
172	0xbe54485c	-0.20730728
173	0x3da5402d	0.08068881
174	0xbe2fda68	-0.17173159
175	0x3d1dc7c7	0.0385206
176	0x3dda3425	0.10654477
177	0xbe8b0a44	-0.2715627
178	0x3e45069f	0.19240807
179	0xbc8f32cf	-0.017480282
180	0x3e171c2a	0.14756837
181	0x3d6a76c0	0.057242155
182	0xbe2d8155	-0.16943868
183	0xbc939abf	-0.018018125
184	0xbdcd5dc0	-0.10027647
185	0xbe107927	-0.14108716
186	0x3e4ecbd3	0.2019494
187	0x3e8093bb	0.2511271
188	0xbd4efe9d	-0.050535787
189	0x3caa8d24	0.020819254
190	0xbdb55d8f	-0.088557355
191	0x3d8fff1e	0.070310816
192	0xbdb7629b	-0.089543544
193	0xbdf12a2c	-0.11775622
194	0xbe8b1f4b	-0.27172312
195	0xbe3f41cc	-0.18677443
196	0x3c476198	0.012169264
197	0x3decc1a3	0.11560371
198	0x3e1f42c0	0.15552807
199	0xbe6041f5	-0.2190016
200	0xbc40eb1c	-0.011774804
201	0x3c92bef1	0.017913314
202	0x3d97259b	0.073802195
203	0x3d240060	0.04003942
204	0xbedb84fd	-0.428749
205	0xbd7f40a2	-0.062317498
206	0xbcaa4b56	-0.020787876
207	0x3d917159	0.071016975
208	0x3d271477	0.040791
209	0xbb819c26	-0.003955382
210	0xbd4f4ea5	-0.05061211
211	0x3dd52c9b	0.104088984
212	0x3ceffa64	0.0292942
213	0x3df33a22	0.11876322
214	0xbe38c29d	-0.18042989
215	0xbdc35128	-0.09536964
216	0xbc903615	-0.017603913
217	0xbe7a013b	-0.24414532
218	0xbe3567f2	-0.17715433
219	0xbd596078	-0.053070515
220	0xbd320238	-0.043459147
221	0xbe3174c3	-0.17329697
222	0xbd17bf37	-0.03704759
223	0x3d27d704	0.04097654
224	0xbc9ced13	-0.019156015
225	0x3d343a55	0.044000942
226	0xbe427e20	-0.18993425
227	0xbe2b91f6	-0.16754898
228	0x3a287907	0.0006426726
229	0x3d83d58c	0.06437215
230	0x3d6d9a4a	0.05800847
231	0xbd7132d3	-0.05888636
232	0xbe07891d	-0.13235898
233	0xbae87c1d	-0.0017737184
234	0x3df5494c	0.11976871
235	0xbde90c3a	-0.11379285
236	0x3c63a685	0.013894682
237	0xbe8ec551	-0.27884915
238	0xbd28ba2e	-0.04119318
239	0x3c91199a	0.017712403
240	0xbe11b582	-0.14229396
241	0xbd3e0880	-0.046394825
242	0xbe34d956	-0.17661032
243	0x3d911242	0.070835605
244	0xbdaab3dd	-0.083350874
245	0xbc7e3a64	-0.015516851
246	0x3e0160ff	0.12634657
247	0xbd2e7e8c	-0.042601153
248	0x3e0a146d	0.13484354
249	0x3d901a07	0.07036214
250	0x3db602ce	0.08887254
251	0xbce22b27	-0.027608467
252	0x3bc076ec	0.0058735516
253	0xbd8d763f	-0.06907319
254	0xbd0480c3	-0.03234936
255	0x3db6ac7a	0.08919616

action_model._discrete_distribution.branches.2.bias f4 [3]
0	0x3db69236	0.08914606
1	0xbe0f0551	-0.13966872
2	0x3d926c97	0.07149618

action_model._discrete_distribution.branches.2.weight f4 [3, 256]
0	0xbc9fdaaa	-0.019513447
1	0xbc84f017	-0.016227765
2	0x3e3b6ae3	0.18302493
3	0xbbf3dc74	-0.0074420515
4	0xbdc53be2	-0.09630562
5	0xbe6c9a52	-0.23105744
6	0xbd1c4866	-0.038154982
7	0xbce2d6c3	-0.027690297
8	0x3d217888	0.03942159
9	0x3d0a59a2	0.033776887
10	0xbe2bbf86	-0.16772279
11	0x3e18145f	0.14851521
12	0x3b4ccab1	0.0031248743
13	0x3d4e23f0	0.05032724
14	0x3e0829e9	0.13297237
15	0x3e4cd002	0.20001224
16	0x3bb33010	0.005468376
17	0xbdbd5cfb	-0.0924625
18	0xbc1fe420	-0.009758979
19	0xbdfba08d	-0.12286482
20	0x3bd1fb70	0.0064081475
21	0xbe8d3797	-0.27581474
22	0x3e08d755	0.13363393
23	0xbe5550de	-0.2083163
24	0xbdc383fe	-0.0954666
25	0x3ce183e2	0.027528707
26	0x3d1cfed9	0.03832898
27	0xbe1f8c08	-0.15580761
28	0x3d60400d	0.054748584
29	0xbe1ca435	-0.15297015
30	0x3df6022f	0.12012135
31	0xbb175134	-0.0023089172
32	0xbd2566d9	-0.040381286
33	0xbe7fbe42	-0.24974921
34	0xbea15cae	-0.3151602
35	0x3e1841f7	0.14868914
36	0xbeddc016	-0.43310612
37	0xbd80a348	-0.062811434
38	0x3d00f2cd	0.031481553
39	0xbed85091	-0.42248967
40	0x3e3d641f	0.18495224
41	0x3d35a136	0.044343196
42	0x3ded103c	0.11575362
43	0xbdc5e961	-0.09663654
44	0x3de48c78	0.11159605
45	0x3e94af7a	0.29040128
46	0xbd921516	-0.07132928
47	0x3d685330	0.05671996
48	0xbe48c04d	-0.19604607
49	0xbdf932d0	-0.12167895
50	0xbd427888	-0.04747823
51	0x3ccf09e0	0.025273263
52	0xbce8b024	-0.028404303
53	0xbe88e49a	-0.2673691
54	0xbde4a1a8	-0.11163646
55	0x3cc46ce9	0.023977714
56	0xbcccb2db	-0.024987629
57	0x3cba413a	0.02273618
58	0x3dc15e05	0.09441761
59	0xbe9598c0	-0.29218102
60	0x3e637b61	0.22215034
61	0xbdb00a23	-0.085956834
62	0x3d92c8e4	0.07167223
63	0xbe974ed7	-0.29552338
64	0x3e48977e	0.1958904
65	0xbe98377c	-0.2972983
66	0xbe168f7b	-0.14703171
67	0x3d2f4a9e	0.04279577
68	0xbe8c1ab1	-0.27364114
69	0xbd505242	-0.050859697
70	0xbcfdbf00	-0.030974865
71	0xbd2145c7	-0.039373185
72	0xbdd30bef	-0.103050105
73	0xbcc6eae7	-0.024281932
74	0x3d62ace5	0.055340666
75	0x3da97d5f	0.08275866
76	0x3d9cc6f4	0.07655135
77	0xbc1aa861	-0.009439559
78	0xbe1dcd01	-0.15410234
79	0x3decd9a4	0.11564949
80	0x3e211e56	0.15734228
81	0xbee02aa5	-0.43782535
82	0x3e537243	0.20649056
83	0x3da08eb6	0.0783972
84	0x3e2cd927	0.16879712
85	0x3e44d465	0.19221647
86	0xbc1c4123	-0.009537014
87	0x3e31392c	0.17306966
88	0x3e056ef8	0.13030612
89	0x3d2f3da5	0.0427834
90	0x3dbb76d5	0.09153525
91	0x3dca9481	0.09891606
92	0xbe3525a1	-0.17690136
93	0xbe146e1b	-0.14495127
94	0x3e40cb49	0.18827547
95	0xbc9c7212	-0.019097362
96	0x3e4214da	0.18953267
97	0xbe33bb96	-0.17552027
98	0x3d3358ee	0.04378598
99	0xbe1dec13	-0.15422086
100	0xbc1112f4	-0.008854616
101	0x3e3c5ca9	0.18394722
102	0x3d6b0f46	0.057387613
103	0x3d8a1722	0.067426935
104	0xbe1a36aa	-0.15059915
105	0x3d88827c	0.06665513
106	0xbe7c7b49	-0.24656405
107	0xbda4e089	-0.08050639
108	0xbe1e4c48	-0.15458786
109	0xbe8193ca	-0.25308067
110	0x3e0aa6af	0.13540147
111	0x3d03bd9f	0.03216326
112	0x3db72ce9	0.08944113
113	0x3d725ca8	0.059170395
114	0xbe2111bd	-0.15729423
115	0x3e4b788f	0.19870208
116	0xbe4df76c	-0.20113915
117	0x3d944443	0.072395824
118	0x3dcafb2f	0.09911191
119	0x3d8cc9b4	0.06874409
120	0x3be24bb2	0.0069059962
121	0xbe201374	-0.15632421
122	0xbdf076c4	-0.11741403
123	0x3e28ed7b	0.16496842
124	0xbe6230a6	-0.2208887
125	0x3dc2f4f1	0.09519375
126	0xbcd95355	-0.026528994
127	0x3b854a75	0.004067714
128	0xbe205dd5	-0.15660794
129	0xbe3be16a	-0.18347707
130	0xbe2bc454	-0.16774112
131	0x3c7fa077	0.015602223
132	0x3db60881	0.08888341
133	0xbdc8842f	-0.09790837
134	0xbde1c862	-0.11024548
135	0xbe6f26d8	-0.23354661
136	0x3df9432b	0.121710144
137	0x3c85afec	0.016319238
138	0x3db04756	0.08607356
139	0xbe02576a	-0.12728658
140	0x3e90a44e	0.28250355
141	0xbdc321d0	-0.095279336
142	0xbe91cad3	-0.28475055
143	0xbe309c76	-0.17247185
144	0xbdd10f20	-0.10207963
145	0xbe935735	-0.2877747
146	0xbe9a6b12	-0.30159813
147	0xbcd8be1f	-0.026457844
148	0x3d08e7f1	0.03342432
149	0x3d15f36a	0.03660909
150	0xbd6168fc	-0.05503176
151	0xbdf486af	-0.11939751
152	0xbc2e0be8	-0.010622956
153	0xbcadb71d	-0.02120548
154	0x3d5a6d69	0.053326998
155	0x3cf08ba9	0.02936347
156	0xbe2c817a	-0.16846266
157	0x3e1dc3a5	0.15406664
158	0x3c606bf1	0.01369761
159	0x3c9f04b5	0.019411424
160	0xbde62923	-0.11238315
161	0x3e374fce	0.17901537
162	0xbe6a357f	-0.2287197
163	0xbda98d6c	-0.08278927
164	0x3d92a884	0.07161048
165	0x3da95cc7	0.08269649
166	0x3e025149	0.1272632
167	0xbda7326a	-0.081639126
168	0xbe914a13	-0.28376827
169	0x3dde821c	0.1086466
170	0x3dcd2b3c	0.10018012
171	0xbe871e5c	-0.2639035
172	0xbe339ec2	-0.1754103
173	0x3cf6c018	0.030120894
174	0xbc824abf	-0.015904782
175	0x3e7fbbf0	0.24974036
176	0xbc6f3105	-0.0145990895
177	0x3d983c9d	0.07433436
178	0xbdfc3f8f	-0.1231681
179	0xbdad416c	-0.08459744
180	0xbe0d7792	-0.13815144
181	0x3cc64944	0.024204858
182	0xbd6eb934	-0.058282092
183	0xbcfc2412	-0.030778918
184	0xbcb90747	-0.022586478
185	0x3e06d926	0.13168773
186	0x3e0434e6	0.12910804
187	0xbe11ba25	-0.14231165
188	0xbd195438	-0.037433833
189	0x3dd66d2f	0.10470044
190	0x3e867efc	0.26268756
191	0xbe5ab733	-0.21358947
192	0xbe66d8e8	-0.2254368
193	0xbd5947d5	-0.05304702
194	0xbdc822d1	-0.09772266
195	0xbe07c0ef	-0.13257192
196	0x3e4bb345	0.19892605
197	0x3d9e6cc6	0.07735591
198	0x3cf7a53e	0.03023016
199	0x3d5f4e6b	0.054518145
200	0x3c54a059	0.012977683
201	0x3da964a9	0.082711525
202	0xbe195a6e	-0.14975902
203	0x3e7996a9	0.24373879
204	0xbe634a41	-0.22196294
205	0x3d3b538e	0.04573398
206	0xbdac07c8	-0.08399922
207	0x3e04c3ab	0.12965266
208	0x3e81cd31	0.2535186
209	0x3cf69436	0.03009997
210	0x3de8418f	0.11340629
211	0x3e0e0cf0	0.13872123
212	0x3dfa9d60	0.12237048
213	0xbd1feafd	-0.03904246
214	0x3dab86bd	0.08375309
215	0xbe87256a	-0.26395732
216	0xbd7f4c08	-0.06232837
217	0x3d2a1e44	0.04153277
218	0xbe572ed3	-0.21013956
219	0x3d297c88	0.041378528
220	0xbd454e61	-0.04817045
221	0xbe49d4c0	-0.19710064
222	0x3e636c77	0.22209345
223	0x3e702f76	0.23455605
224	0xbdf6dc11	-0.12053693
225	0xbcc381fd	-0.023865694
226	0x3db522b8	0.08844513
227	0xbdfa8c7f	-0.12233829
228	0x3df2b070	0.11850059
229	0xbdb8a2c1	-0.09015418
230	0x3e0879ef	0.13327764
231	0xbeac475f	-0.33648202
232	0xbe8d0077	-0.27539417
233	0x3e32741d	0.17427106
234	0x3b84a48c	0.004047936
235	0x3d1d8bfc	0.038463578
236	0x3d97dd02	0.07415201
237	0xbe5e24dd	-0.2169375
238	0x3db84b00	0.0899868
239	0x3d985743	0.07438519
240	0x3df690c7	0.12039333
241	0xbd7aad3f	-0.061200377
242	0xbda17f33	-0.078855895
243	0xbe58116f	-0.211004
244	0xbd47a024	-0.048736706
245	0xbe0c89fc	-0.13724512
246	0x3e5de7aa	0.21670404
247	0x3e181182	0.14850429
248	0x3c3c47ec	0.011491757
249	0xbd655349	-0.05598763
250	0x3ddef8e0	0.10887313
251	0x3c95bfea	0.018279988
252	0x3bdbbb7e	0.0067057004
253	0xbe4a3cfe	-0.19749829
254	0xbd534b0e	-0.05158525
255	0xbe4fb547	-0.20283996

discrete_action_output_shape f4 [1, 3]
0	0x40400000	3.0
1	0x40400000	3.0
2	0x40400000	3.0

network_body._body_endoder.seq_layers.0.bias f4 [256]
0	0x3c24af79	0.010051602
1	0x3d763fad	0.06011932
2	0xbd7c8527	-0.06165042
3	0xbda07698	-0.0783512
4	0xbe069cc9	-0.13145746
5	0xbd18632d	-0.037203956
6	0x3daef4f4	0.08542815
7	0xbe8ee363	-0.27907857
8	0x3d2b61a9	0.041841183
9	0xbda52870	-0.080643535
10	0xbe3087c9	-0.17239298
11	0x3d1fbb06	0.03899672
12	0xbc83f425	-0.016107628
13	0x3c948f5b	0.018134763
14	0xbe287ec9	-0.16454615
15	0xbe0fb27d	-0.14032932
16	0xbe44ec9f	-0.19230889
17	0xbc2243d7	-0.00990387
18	0xbe0f8032	-0.14013746
19	0xbdd95fc0	-0.10613966
20	0xbdd167d0	-0.10224879
21	0xbc362025	-0.011116062
22	0xbe536cb4	-0.20646936
23	0xbd87ca17	-0.066303425
24	0x3e16dab1	0.14731862
25	0x3e49dc38	0.19712913
26	0xbdb6e59c	-0.08930513
27	0x3d048b97	0.032359686
28	0xbe489493	-0.19587927
29	0x3cdbc0cd	0.026825333
30	0xbd5ae0a8	-0.053436905
31	0xb8eaecb1	-0.00011202077
32	0xbdf47f57	-0.11938351
33	0xbe7e157e	-0.24812886
34	0xbe2cbaf5	-0.16868193
35	0xbe48b07b	-0.19598572
36	0xbe5d4dcf	-0.21611713
37	0x3d962ceb	0.07332786
38	0x3dd87001	0.10568238
39	0xbe1bc1e5	-0.15210684
40	0xbe12668d	-0.14296933
41	0xbd89d34d	-0.067297556
42	0xbe280c47	-0.16410933
43	0xbe887391	-0.2665067
44	0xbd9b0605	-0.075695075
45	0xbdd1fb31	-0.10252989
46	0xbcb527e4	-0.022113748
47	0xbe11c7eb	-0.14236419
48	0x3ca4dc8d	0.020124698
49	0xbdb3c469	-0.08777697
50	0xbe3c99c9	-0.1841804
51	0xbbc71d73	-0.0060765087
52	0xbd229e1d	-0.03970157
53	0xbd80c3c3	-0.062873386
54	0xbe54c98d	-0.2078001
55	0xbe0e5cfa	-0.13902655
56	0xbe813120	-0.25232792
57	0xbe11eb97	-0.14250027
58	0xbe3361ae	-0.1751773
59	0xbe609099	-0.2193016
60	0xbe0b1156	-0.13580832
61	0xbbf6283b	-0.00751212
62	0xbdf26490	-0.11835587
63	0xbe32a3e5	-0.17445333
64	0xbdda4e60	-0.1065948
65	0xbe29e6e8	-0.1659199
66	0xbdad9ca4	-0.084771425
67	0xbdbd7197	-0.09250181
68	0xbd6f2058	-0.058380455
69	0xbc32e557	-0.010918937
70	0x3bd01a23	0.006350772
71	0x3d6a6479	0.057224724
72	0x3c876744	0.016528733
73	0x3da8d1eb	0.08243164
74	0x3cdb6942	0.02678359
75	0x3d8c438e	0.068488225
76	0xbe4f3621	-0.20235492
77	0x3d4acdab	0.049512547
78	0x3d3244f6	0.043522798
79	0xbde5bb08	-0.11217314
80	0xbd996ece	-0.074918374
81	0xbe73de9c	-0.23815387
82	0x3d0ebabd	0.034846056
83	0x3c98e11e	0.018662032
84	0xbdaa6676	-0.08320324
85	0x3cfbceb2	0.030738208
86	0x3d170327	0.03686824
87	0xbe672ca8	-0.22575629
88	0xbe2d29ef	-0.16910528
89	0xbe24c0c6	-0.16089162
90	0xbe6755cf	-0.22591327
91	0xbda48190	-0.080325246
92	0x3de8338d	0.113379575
93	0xbd62417e	-0.05523824
94	0xbe8b858b	-0.27250323
95	0x3d64e8ef	0.055886205
96	0xbdc517b5	-0.096236624
97	0xbe0fad16	-0.14030871
98	0xbd3fd6a8	-0.04683557
99	0xbd739e89	-0.059477363
100	0xbe15114b	-0.14557378
101	0xbdd6ba6a	-0.104847744
102	0xbe3faa23	-0.18717246
103	0xbe9d0ae6	-0.30672377
104	0xbd474549	-0.04865006
105	0x3d2fa790	0.04288441
106	0xbc655c1d	-0.013999012
107	0xbd06baeb	-0.032893103
108	0xbd9972b6	-0.074925825
109	0xbe225d47	-0.15855895
110	0xbe9fda1f	-0.312211
111	0x3d0dd9d6	0.034631573
112	0xbe236072	-0.1595476
113	0x3cbff1c1	0.023430707
114	0x3dcc3031	0.09970129
115	0xbea03dec	-0.31297243
116	0x3d37d6d7	0.04488262
117	0x3d874e07	0.066066794
118	0xbdb7182a	-0.08940156
119	0xbdbc715b	-0.09201308
120	0xbd956c35	-0.072960295
121	0xbd4302c5	-0.047610063
122	0xbee95522	-0.45572764
123	0xbd5118a7	-0.0510489
124	0xbe16b187	-0.14716159
125	0xbd796591	-0.060887877
126	0xbb9e51ae	-0.0048315143
127	0xbd9d2430	-0.07672918
128	0xbd3810ac	-0.044937775
129	0x3d35cc75	0.04438444
130	0xbda08784	-0.078383476
131	0x3db526c0	0.088452816
132	0xbe918cc0	-0.28427696
133	0xbd2ecb18	-0.042674154
134	0xbd44d5ed	-0.048055578
135	0xbec6008e	-0.38672298
136	0xbd2f9f2f	-0.04287642
137	0xbe7f4090	-0.24926972
138	0x3b8b0550	0.0042425767
139	0xbebd3b94	-0.36959517
140	0xbdc84ab0	-0.097798705
141	0x3c5a9ef2	0.01334356
142	0xbe11761b	-0.1420521
143	0xbd876f60	-0.0661304
144	0x3c8474ea	0.01616903
145	0xbe105f11	-0.14098765
146	0xbe807a40	-0.2509327
147	0xbe08889b	-0.13333361
148	0xbe046f1c	-0.1293301
149	0x3c0086b3	0.007844615
150	0xbdc4a181	-0.09601117
151	0xbd98c5e9	-0.07459623
152	0xbe23663c	-0.15956968
153	0xbe147bcf	-0.14500354
154	0xbe561746	-0.20907316
155	0xbe0463b3	-0.12928657
156	0xbdcc57b2	-0.09977664
157	0x3b7287a5	0.003700712
158	0xbbf23be0	-0.0073923916
159	0xbd1dceca	-0.038527288
160	0xbb556ff6	-0.0032567955
161	0xbdc8471a	-0.097791865
162	0xbe7fea95	-0.2499183
163	0xbd392616	-0.045202337
164	0x3d6a6a23	0.057230126
165	0x3df202ef	0.11816966
166	0xbd49e42d	-0.04928987
167	0xbd23290f	-0.03983408
168	0xbcceaea9	-0.025229769
169	0xbd9d92da	-0.07694025
170	0xbac5ef77	-0.0015101273
171	0xbd9cce1e	-0.07656501
172	0xbdb59cf1	-0.08867825
173	0x3cbf85d7	0.02337925
174	0xbe24c884	-0.16092116
175	0xbe8ca2c5	-0.27467933
176	0xbcfb15b6	-0.030650001
177	0x3cab65f0	0.020922631
178	0xba708c5e	-0.000917619
179	0xbe0763bf	-0.13221644
180	0xbe28f44f	-0.16499446
181	0x3d934bdf	0.07192206
182	0x3c554558	0.013017021
183	0xbe0e4e6a	-0.138971
184	0xbe0c96ac	-0.13729352
185	0xbdf9c353	-0.12195458
186	0x3d2143f2	0.03937144
187	0xbe9853a1	-0.29751304
188	0x3d06623b	0.032808524
189	0x3ca2b3ec	0.019861184
190	0x3e007fcf	0.12548755
191	0x3e4480d2	0.19189766
192	0xbd0a97b5	-0.033836085
193	0x3d249b7e	0.04018735
194	0xbd8eeb82	-0.06978513
195	0x3cbd6042	0.023117188
196	0xbd88cc67	-0.06679612
197	0xbe2f6678	-0.17128932
198	0x3cd18707	0.025577081
199	0xbd673854	-0.056450203
200	0xbd841426	-0.064491555
201	0xbe48fd83	-0.19627957
202	0xbe26c688	-0.16286671
203	0x3dc9af79	0.09847922
204	0xbe141370	-0.1446054
205	0x3d89746d	0.067116596
206	0xbe56383a	-0.20919886
207	0x3da0c72a	0.078504875
208	0xbdef37fd	-0.11680601
209	0x3d998778	0.07496542
210	0x3c41a062	0.011818023
211	0xbbced8e3	-0.006312476
212	0x3d0379cb	0.032098573
213	0xbcc1985f	-0.023632227
214	0x3d7a3e6a	0.06109468
215	0xbe42a943	-0.1900988
216	0x3c9149a5	0.017735312
217	0xbc8fa969	-0.017536836
218	0x3bbf8397	0.005844544
219	0xbdb8a62a	-0.09016068
220	0xbdeeadeb	-0.11654266
221	0x3dd2f1da	0.10300036
222	0xbd93c465	-0.07215194
223	0x3c9558a4	0.018230744
224	0x3d66d56c	0.05635588
225	0x3c88d4e8	0.016703084
226	0xbd984238	-0.07434505
227	0x3ceb9fd3	0.028762734
228	0xbe5ab968	-0.2135979
229	0xbe3b0185	-0.18262298
230	0x3c42bd48	0.0118859485
231	0xbd940d1f	-0.07229065
232	0xbe0edafb	-0.13950722
233	0xbe87ce41	-0.26524547
234	0x3d43347e	0.047657482
235	0x3b90f4fe	0.0044237366
236	0xbe5e522c	-0.21711034
237	0xbdc55bf0	-0.09636676
238	0xbde44124	-0.11145237
239	0xbce06aae	-0.027394619
240	0xbdc20a70	-0.09474647
241	0x3d5bbc38	0.053646296
242	0xbdffc581	-0.12488843
243	0xbb9dc67f	-0.0048149223
244	0xbcdc9a80	-0.02692914
245	0xbdd91b4f	-0.10600912
246	0xbc3cd9ae	-0.011526508
247	0xbb0396bf	-0.0020078865
248	0xbe807157	-0.2508647
249	0xbcd3c72c	-0.025851808
250	0xbd88a607	-0.06672292
251	0xbd9ffacf	-0.0781151
252	0x3cbc2363	0.022966092
253	0xbd597375	-0.053088624
254	0xbc012bd9	-0.007883989
255	0xbe8ef1a6	-0.27918738

network_body._body_endoder.seq_layers.0.weight f4 [256, 20]
0	0x3c573087	0.013134128
1	0xbe85facd	-0.26167908
2	0xbe5284e1	-0.20558502
3	0xbf27e3cd	-0.6558197
4	0x3e8abccc	0.27097166
5	0xbee04604	-0.43803418
6	0xbe481a71	-0.19541337
7	0xbe6f66de	-0.23379084
8	0x3d622e64	0.055220023
9	0xbdd73073	-0.10507288
10	0xbde68520	-0.1125586
11	0xbe818024	-0.25293076
12	0xbc89ef82	-0.016837839
13	0x3d955a46	0.07292609
14	0xbe93d49a	-0.2887314
15	0x3f1b0378	0.6055217
16	0x3da5d12d	0.08096538
17	0xbc9a2d2c	-0.018820368
18	0xbee4104b	-0.4454368
19	0x3ea86a39	0.3289354
20	0xbe70c0fe	-0.2351112
21	0xbe7a10a7	-0.24420415
22	0xbdb2f017	-0.087372
23	0xbf3c9900	-0.7367096
24	0xbd8abdd9	-0.06774492
25	0xbf15ddb3	-0.5854141
26	0x3debb21c	0.11508581
27	0xbe7e833c	-0.2485475
28	0x3e81e738	0.25371718
29	0x3e829284	0.25502408
30	0xbcca2888	-0.02467753
31	0xbd9fdece	-0.078061685
32	0x3dcaa761	0.09895206
33	0x3e3e814e	0.18604013
34	0xbe9012c5	-0.2813932
35	0x3e6a85fe	0.22902676
36	0xbd54aa60	-0.051920295
37	0xbe92afac	-0.28649652
38	0x3eb8353b	0.35978112
39	0x3ce7888b	0.028263351
40	0x3ec46226	0.3835613
41	0x3dd37140	0.10324335
42	0xbeb7db97	-0.3590972
43	0xbf08b4d5	-0.5340093
44	0x3ef089c2	0.469801
45	0xbdc1e69d	-0.09467814
46	0x3ee94e59	0.45567587
47	0x3b424f82	0.002964944
48	0xbddd7402	-0.10813142
49	0xbe6b6ec1	-0.22991468
50	0x3ed5541e	0.4166574
51	0x3dad152c	0.08451304
52	0xbe7a7b5b	-0.24461119
53	0xbe337b1c	-0.17527431
54	0x3d140fe3	0.036147963
55	0x3d7e28f5	0.06205078
56	0x3f27afee	0.6550282
57	0xbea74124	-0.32666886
58	0x3c016f65	0.007900094
59	0x3d9555aa	0.0729173
60	0x3e4eba7d	0.20188327
61	0x3e296d32	0.16545561
62	0xbe3c0a3e	-0.18363282
63	0x3ea55a84	0.3229562
64	0x3f461376	0.77373445
65	0x3eda918e	0.42689174
66	0x3e5f8bdf	0.218307
67	0xbf08f622	-0.5350057
68	0x3ea5642f	0.32302997
69	0xbebf2e32	-0.37339932
70	0x3c487506	0.012234932
71	0x3e00c92e	0.12576744
72	0xbe03b67e	-0.12862584
73	0xbf206537	-0.6265444
74	0x3e7f8ba8	0.24955618
75	0xbe0b1200	-0.13581085
76	0x3f1cd93b	0.6126897
77	0x3e1e9aa9	0.15488686
78	0xbe1c3cb4	-0.15257531
79	0xbe0ed484	-0.13948256
80	0x3eb2a7eb	0.34893736
81	0xbd889d84	-0.06670669
82	0x3ba70086	0.005096498
83	0x3de5a633	0.112133406
84	0x3e6f1c1a	0.23350564
85	0x3ece24c0	0.40262413
86	0x3db61922	0.088915125
87	0x3ec91206	0.39271563
88	0x3dc5d44b	0.09659632
89	0xbf118c8e	-0.56855094
90	0x3d55e4d6	0.052220188
91	0xbe8bd1c3	-0.27308473
92	0xbe0018a1	-0.12509395
93	0xbe0c0741	-0.13674642
94	0x3ee60d91	0.44932225
95	0xbed30f72	-0.4122272
96	0x3e0d7938	0.13815773
97	0x3e70406e	0.23462078
98	0x3e4927e9	0.19644131
99	0x3d334339	0.04376528
100	0xbe5b8aa3	-0.21439604
101	0xbe669ba8	-0.22520316
102	0x3d72a12a	0.05923573
103	0xbe348b02	-0.17631152
104	0xbcba92c5	-0.022775063
105	0xbd916874	-0.07100001
106	0x3db7256b	0.08942684
107	0x3e79ca16	0.24393496
108	0x3b8426cf	0.0040329467
109	0x3ee39355	0.44448343
110	0x3cb21628	0.02173908
111	0xbeba1ff4	-0.36352503
112	0x3e9df728	0.30852628
113	0x3f006fce	0.501706
114	0xbcecd233	-0.028908825
115	0x3eec4616	0.4614722
116	0xbf702e82	-0.93820965
117	0xbe1b8bee	-0.15190098
118	0x3eddc2da	0.43312722
119	0xbd828138	-0.06372303
120	0x3ddd9d27	0.1082099
121	0x3eeaf3af	0.4588904
122	0x3e093054	0.13397342
123	0xbe8d4c74	-0.27597392
124	0xbe692095	-0.22766335
125	0x3e61de57	0.22057472
126	0x3cce7516	0.025202315
127	0xbe2c90de	-0.16852137
128	0xbed80491	-0.42190984
129	0xbe6b23ed	-0.22962923
130	0xbe4d6d54	-0.20061237
131	0xbf1fd7df	-0.6243877
132	0x3e2aa311	0.16663767
133	0x3e3e7961	0.1860099
134	0x3e295caf	0.16539262
135	0xbe313deb	-0.17308776
136	0xbeea0c8d	-0.457127
137	0x3e514a60	0.20438528
138	0xbed88b0b	-0.4229358
139	0x3e625091	0.22101046
140	0xbec9cb52	-0.39412934
141	0xbf066c90	-0.52509403
142	0x3e2e83c2	0.17042449
143	0xbdc5d7b9	-0.096602865
144	0xbe41d69a	-0.1892952
145	0x3f1a0efa	0.601791
146	0x3ef9d088	0.4879191
147	0x3d881669	0.066448994
148	0x3e995b70	0.29952574
149	0xbeaf795a	-0.3427227
150	0x3e271a96	0.16318735
151	0xbd15a191	-0.036531035
152	0xbecac6b9	-0.39604738
153	0xbe916ba8	-0.28402448
154	0xbed1852e	-0.4092192
155	0xbe0cc733	-0.13747863
156	0xbdd13bce	-0.10216485
157	0xbf145a41	-0.57950217
158	0x3deb2bce	0.114829645
159	0x3c1bb74c	0.009504151
160	0x3e3345cf	0.17507099
161	0x3daae427	0.08344298
162	0xbe2f93ef	-0.17146276
163	0xbe49339c	-0.19648594
164	0xbf309cfe	-0.6898955
165	0x3e18bff3	0.14916973
166	0x3ec91181	0.39271167
167	0xbefa5948	-0.4889624
168	0xbe93fb4b	-0.2890266
169	0x3f2f2d5f	0.68428606
170	0x3e4d64db	0.20058005
171	0x3e04f70f	0.1298487
172	0x3e219833	0.15780716
173	0x3e0925bb	0.133933
174	0x3e01d150	0.12677503
175	0xbecea84a	-0.4036277
176	0x3ce737b4	0.028224804
177	0xbe50d036	-0.20391926
178	0xbe45d0bd	-0.19317909
179	0x3d9a97a9	0.07548458
180	0x3cc60a41	0.024174811
181	0x3e805500	0.2506485
182	0xbe6b70e5	-0.22992285
183	0xbe51712e	-0.20453331
184	0xbe3c8b7f	-0.18412589
185	0xbebcc029	-0.36865357
186	0xbf382fa2	-0.7194768
187	0x3e8e9d58	0.2785442
188	0x3ddbfb85	0.10741333
189	0xbe83aa9b	-0.257161
190	0xbe4eb2b1	-0.20185353
191	0xbf02715b	-0.50954217
192	0xbe921917	-0.28534767
193	0x3e77d439	0.2420205
194	0xbd6993fe	-0.057025902
195	0xbaefb03b	-0.0018286774
196	0xbdec90b2	-0.11551036
197	0xbd623bb1	-0.055232707
198	0xbec8e37d	-0.3923606
199	0x3e5b4c0e	0.21415731
200	0xbae4c8c0	-0.0017454848
201	0xbe9c1b6d	-0.30489674
202	0x3ee93a67	0.4555237
203	0x3e5116a4	0.20418793
204	0x3ea5e278	0.32399344
205	0x3f61d66c	0.88217807
206	0xbe21e042	-0.15808204
207	0xbe32e642	-0.17470649
208	0xbd8bc484	-0.06824592
209	0xbe0bbe24	-0.13646752
210	0xbea3ba48	-0.3197806
211	0xbed68346	-0.4189703
212	0xbeab4a1f	-0.33454987
213	0xbeb20e51	-0.34776548
214	0xbe477a1e	-0.19480178
215	0x3d818627	0.06324416
216	0x3db780ea	0.08960135
217	0xbf019916	-0.50624216
218	0x3f084da5	0.53243476
219	0x3db662da	0.08905573
220	0x3e8c5aa1	0.27412894
221	0x3e8a1b7a	0.26974088
222	0x3e5281b4	0.2055729
223	0x3eed16d7	0.46306488
224	0xbe7c6b51	-0.24650313
225	0x3f17e43a	0.5933262
226	0x3e8ed7e0	0.27899075
227	0xbe36ce7a	-0.17852202
228	0xbd61368e	-0.054983668
229	0xbf50d875	-0.8158029
230	0xbb3a26b7	-0.0028404424
231	0xbe027b21	-0.12742282
232	0xbc05c413	-0.0081644235
233	0xbe41e2ef	-0.18934225
234	0x3e5187fd	0.20462032
235	0x3e8039be	0.25044054
236	0x3e86f452	0.26358277
237	0x3d97900d	0.074005224
238	0x3e76a325	0.24085672
239	0xbdab6506	-0.08368878
240	0xbd9c3fec	-0.0762938
241	0xbde21639	-0.11039395
242	0xbe7c1f8a	-0.24621406
243	0xbe34b529	-0.17647232
244	0xbe1186ed	-0.14211626
245	0xbe87912e	-0.2647795
246	0x3ea12efe	0.31481165
247	0x3f23e915	0.6402753
248	0xbe906245	-0.28199974
249	0xbe9b31b2	-0.30311352
250	0x3e4bd547	0.19905578
251	0x3ecade07	0.39622518
252	0xbe3bb365	-0.18330152
253	0xbe0f4714	-0.13991958
254	0xbe4bdad2	-0.19907692
255	0x3e987a67	0.29780886

network_body._body_endoder.seq_layers.2.bias f4 [256]
0	0xbcf645c6	-0.030062567
1	0xbdc5ba33	-0.09654655
2	0xbec42f14	-0.38317168
3	0xbe2fb50c	-0.17158908
4	0xbb716cce	-0.0036838534
5	0xbe121552	-0.14265946
6	0xbdd3afcf	-0.10336267
7	0x3ce4f64c	0.027949475
8	0xbe2e1252	-0.16999176
9	0x3d8ec701	0.06971551
10	0xbdee7eae	-0.11645256
11	0x3d60f822	0.054924138
12	0xbd3d3f80	-0.046203136
13	0xbe04396b	-0.12912528
14	0xbe34d62d	-0.17659827
15	0xbe3a4edd	-0.18194146
16	0x3c363d86	0.011123067
17	0xbdb89463	-0.090126775
18	0xbcd9dcdf	-0.026594577
19	0xbd95bfc3	-0.07311966
20	0xbde1050c	-0.10987291
21	0xbdddfe68	-0.1083954
22	0xbd2de86f	-0.042457994
23	0xbe5f7cf3	-0.21825008
24	0x3dff5fcb	0.12469443
25	0x3d87d9c6	0.06633334
26	0xbde6b840	-0.11265612
27	0xbc725691	-0.014791147
28	0xbdb28dc0	-0.08718443
29	0xbe043fa3	-0.129149
30	0xbde22f1b	-0.11044141
31	0xbe45a7ef	-0.19302343
32	0xbdd04961	-0.10170246
33	0xbbaf4526	-0.0053488193
34	0xbe8285d1	-0.2549272
35	0xbd4d8d50	-0.050183594
36	0x3e22d9b4	0.1590336
37	0xbdc9a525	-0.09845952
38	0x3d4e5dd3	0.050382446
39	0x3b8d36f3	0.004309529
40	0xbe1f3a26	-0.15549526
41	0x3da3ba93	0.079945706
42	0xbe0e8631	-0.13918377
43	0x3dfa610f	0.12225544
44	0x3dcc9e11	0.09991086
45	0xbe10ad4c	-0.14128608
46	0xbd2ccb32	-0.04218597
47	0xbdb26a23	-0.0871165
48	0xbe203408	-0.15644848
49	0xbdea1307	-0.114294104
50	0xbd82d127	-0.06387549
51	0xbce1dc24	-0.027570792
52	0xbe6a3e5a	-0.22875348
53	0xbdd783ee	-0.105232105
54	0xbe19ddbc	-0.15025991
55	0xbd79b01a	-0.06095896
56	0xbe6a90ea	-0.22906843
57	0xbc1dfba8	-0.009642519
58	0x3ddbcad8	0.10732049
59	0x3dc74ba3	0.097312234
60	0xbe107e4a	-0.14110675
61	0x3cbd99d8	0.023144647
62	0x3ca30c1c	0.019903235
63	0xbe77958e	-0.24178144
64	0x3deba47c	0.11505982
65	0xbe327ee7	-0.17431222
66	0xbd009437	-0.03139135
67	0xbbaf8b03	-0.0053571477
68	0xbe07820e	-0.13233206
69	0xbe15f64c	-0.14644736
70	0xbcd0553d	-0.02543127
71	0xbd5821d1	-0.052766625
72	0xbdffcfab	-0.124907814
73	0x3ca4660d	0.020068193
74	0xbd687f0e	-0.056761794
75	0xbe3c223e	-0.18372437
76	0x3d9d435d	0.07678864
77	0x3d807839	0.06272931
78	0xbbf2d41c	-0.0074105393
79	0xbc90db52	-0.017682705
80	0x3d75dc32	0.060024448
81	0x3dce4354	0.100714356
82	0xbd4b7382	-0.049670704
83	0xbdeb6c08	-0.11495215
84	0xbe35fa92	-0.17771366
85	0xbd038420	-0.032108426
86	0x3dd98e82	0.10622884
87	0x3cc631fd	0.024193758
88	0xbd984bc8	-0.07436329
89	0x3d8a66f8	0.06757921
90	0xbdcbcb11	-0.09950841
91	0xbc60809e	-0.01370254
92	0xbdf98996	-0.121844456
93	0xbe1040e0	-0.14087248
94	0xbd61b3af	-0.055103
95	0xbdedfea9	-0.11620838
96	0xbcec3227	-0.028832508
97	0x3a980e76	0.0011600989
98	0xba404c1d	-0.00073355605
99	0xbe9b22f4	-0.30300105
100	0x3dd22e60	0.102627516
101	0xbd45c162	-0.048280127
102	0xbd2f17af	-0.042747196
103	0x3d6ca115	0.057770807
104	0x3dc89171	0.09793366
105	0xbd617cc4	-0.055050626
106	0xbe47716c	-0.19476861
107	0xbd2063fd	-0.039157856
108	0xbdc49dee	-0.09600435
109	0xbe0811ee	-0.1328809
110	0x3d63c8dd	0.05561148
111	0xbd8f69be	-0.070025906
112	0x3c65f37a	0.0140351
113	0xbe2d3a56	-0.16916785
114	0x3de5a70a	0.11213501
115	0xbdd65b86	-0.104666755
116	0xbe6446ae	-0.22292587
117	0xbe3fab82	-0.18717769
118	0xbe1db107	-0.15399562
119	0xbcbb472e	-0.02286109
120	0xbdb05f1f	-0.08611893
121	0xbd6a309b	-0.05717526
122	0xbd63c016	-0.05560311
123	0xbd9b95e9	-0.075969525
124	0xbd4e52b4	-0.05037184
125	0xbe3e8759	-0.18606319
126	0xbdb813cf	-0.08988153
127	0x3e0ff9ce	0.14060137
128	0xbe632c2c	-0.22184819
129	0xbcef0eaf	-0.029181806
130	0x3cf4d258	0.029885456
131	0xbc45f045	-0.0120812105
132	0xbe07df09	-0.13268675
133	0xbe5da726	-0.21645793
134	0x3cf866fc	0.030322544
135	0xbe15a283	-0.14612775
136	0x3d1e5a52	0.038660355
137	0xbd0929f1	-0.033487264
138	0xbdb9f08a	-0.09079082
139	0xbc806634	-0.015673734
140	0x3d933c79	0.071892686
141	0xbb9ef009	-0.0048503918
142	0xbda8ad08	-0.08236128
143	0x3d286ec4	0.04112126
144	0x3c063619	0.008191609
145	0xbd3bdd4a	-0.045865335
146	0x3cc28400	0.023744583
147	0xbe16bd13	-0.14720564
148	0x3e4674a5	0.19380434
149	0xbdbb254a	-0.09137972
150	0xbcb1e625	-0.021716187
151	0xbdb7b770	-0.08970535
152	0xbe5e5ba7	-0.2171465
153	0xbdf93a7c	-0.12169358
154	0xbe263c6b	-0.16233985
155	0xbdbe8f5d	-0.09304688
156	0xbe35b8b0	-0.17746234
157	0xbd941c48	-0.07231957
158	0xbe0aace8	-0.13542521
159	0x3cbe58ad	0.023235643
160	0xbd6e0010	-0.05810553
161	0xbe2bc6cd	-0.16775055
162	0x3d8d7e2e	0.069088325
163	0xbe7767bf	-0.2416067
164	0xbd85eeb3	-0.06539669
165	0xbe1b2726	-0.15151653
166	0x3d32030b	0.043459933
167	0x3d06decd	0.032927323
168	0xbe6b7bd9	-0.22996463
169	0x3d90fc40	0.07079363
170	0xbd464cf1	-0.04841322
171	0xbe34c685	-0.17653854
172	0x3a0f6c1b	0.0005471126
173	0x3c6bfde5	0.014403795
174	0xbe3e2c82	-0.18571666
175	0xbdae3a21	-0.08507181
176	0x3d5a7863	0.053337466
177	0x3ce14106	0.027496826
178	0xbcfff8c1	-0.031246545
179	0xbde17223	-0.11008098
180	0xbdefcd9f	-0.11709141
181	0xbe246f67	-0.16058122
182	0xbe0f0d4d	-0.13969918
183	0x3d9bc8c6	0.07606654
184	0xbdc4b58e	-0.09604941
185	0xbcc84c02	-0.024450306
186	0xbda6f4b1	-0.0815214
187	0xbe3ebbb5	-0.18626292
188	0xbd68a7a4	-0.0568005
189	0x3b57c7b8	0.0032925438
190	0xbdda172f	-0.10648953
191	0xbcfe777e	-0.031062838
192	0xbe06ba0e	-0.13156912
193	0xbda437e1	-0.080184706
194	0xbdffe52b	-0.12494882
195	0x3d27d73b	0.040976744
196	0xbe20a960	-0.15689611
197	0xbd4c7b09	-0.049922023
198	0xbdcad4b3	-0.099038504
199	0xbc976ae6	-0.01848359
200	0xbe4483c6	-0.19190893
201	0xbda318e7	-0.07963734
202	0xbc8cc3cb	-0.017183205
203	0x3d1fb63b	0.038992148
204	0xbd30775c	-0.04308258
205	0xbc7e37cf	-0.0155162355
206	0xbe16df68	-0.1473366
207	0xbe483c8f	-0.19554351
208	0xbd99e27e	-0.07513903
209	0xbda87632	-0.08225669
210	0x3a8bd77d	0.0010669079
211	0xbdc1a203	-0.094547294
212	0xbd193607	-0.03740504
213	0xbd00996d	-0.03139632
214	0x3b4ff3d6	0.003173103
215	0xbd0d32b8	-0.034472197
216	0xbc034e59	-0.008014285
217	0xbe2593af	-0.16169618
218	0xbde7d180	-0.11319256
219	0x3dda55b3	0.10660877
220	0xbe34bf09	-0.17650999
221	0xbe155d0c	-0.14586276
222	0xbde2d401	-0.11075593
223	0xbe11b29c	-0.1422829
224	0x3e33ad0d	0.17546482
225	0xbc6d237f	-0.014473795
226	0xbe451cc3	-0.19249253
227	0xbd600c69	-0.054699335
228	0xbdb0b283	-0.086277984
229	0xbdbbd84a	-0.09172113
230	0x3b772177	0.0037709156
231	0xbde2bd2e	-0.110712394
232	0xbd8b8abd	-0.068135716
233	0xbe02c38d	-0.12769909
234	0xbc6a256d	-0.01429115
235	0xbd7f1726	-0.062277935
236	0x3cdb44d9	0.026766228
237	0xbe43d4f5	-0.19124205
238	0xbdc98410	-0.09839642
239	0x3d6e3355	0.058154423
240	0xbe0ff4fb	-0.14058296
241	0x3b00a27f	0.0019628105
242	0xbd8d1cec	-0.06890282
243	0xbd68ef3c	-0.056868777
244	0xbd2195eb	-0.039449614
245	0xbd6a8f59	-0.057265613
246	0xbe264a7d	-0.16239353
247	0xbe17e35b	-0.14832823
248	0xbd9e7b12	-0.077383175
249	0xbc7e5820	-0.01552394
250	0xbc786847	-0.01516158
251	0xbdcc7f11	-0.099851735
252	0xbda8d913	-0.082445286
253	0x3dab6dbf	0.08370542
254	0xbe1505ed	-0.14553042
255	0xbdaea6c5	-0.085279025

network_body._body_endoder.seq_layers.2.weight f4 [256, 256]
0	0xbe0cf519	-0.13765372
1	0xbe43c642	-0.19118598
2	0xbe3e509f	-0.18585442
3	0xbd86f048	-0.06588799
4	0xbdec644c	-0.115425676
5	0x3c6569f2	0.01400231
6	0xbddcb4f2	-0.107767
7	0x3e8fd9d6	0.28095883
8	0xbe01c39f	-0.1267228
9	0xbe9d1f8e	-0.30688137
10	0x3e710f90	0.23541093
11	0x3c4fd519	0.012685084
12	0xbd911e07	-0.070858054
13	0xbe175a7b	-0.1478061
14	0xbe16fb43	-0.14744286
15	0xbe781241	-0.24225713
16	0xbdd7454d	-0.10511265
17	0xbd07a6c4	-0.033118024
18	0xbe94bed7	-0.2905185
19	0xbcf709aa	-0.030155975
20	0xbcdd2a59	-0.026997732
21	0x3d57973f	0.052634474
22	0xbdac98c3	-0.084275745
23	0xbe237305	-0.15961845
24	0xbdb5372d	-0.088484146
25	0x3cf0199f	0.029309092
26	0xbe971609	-0.29509
27	0xbd1d1c52	-0.038357086
28	0xbe0ba376	-0.13636574
29	0xbe369328	-0.17829573
30	0xbd4e473e	-0.05036091
31	0xbdbfeb89	-0.09371097
32	0x3b9176e0	0.00443922
33	0xbe1355b2	-0.14388159
34	0xbcd5b5cf	-0.02608767
35	0x3d0be02f	0.034149345
36	0x3d612422	0.0549661
37	0x3e31e2fb	0.17371742
38	0x3aa24a50	0.0012381766
39	0xbd836b38	-0.06416935
40	0xbdd1b37a	-0.102393106
41	0xbe330499	-0.17482223
42	0xbdec13e8	-0.11527234
43	0x3e4a13d6	0.1973413
44	0xbd913b66	-0.070914075
45	0xbd8909ab	-0.06691297
46	0x3e2ca30d	0.16859074
47	0xbe0c90a3	-0.1372705
48	0xbe4dcf11	-0.20098521
49	0xbe669859	-0.22519054
50	0xbe5f465e	-0.21804187
51	0xbe15d5c3	-0.14632325
52	0x3d4746b2	0.048651405
53	0xbd2ca74e	-0.04215174
54	0xbd647e43	-0.055784475
55	0xbd3a685d	-0.045509685
56	0x3c3ca7b0	0.011514589
57	0x3dedee3b	0.116177045
58	0xbe3ac77e	-0.18240163
59	0xbdb5e2b1	-0.088811286
60	0xbd0d6f3a	-0.034529902
61	0xbba95711	-0.00516785
62	0xbdfc5c44	-0.12322286
63	0xbc2d3af6	-0.010573139
64	0xbdcc179e	-0.09965442
65	0xbe9b73a7	-0.30361673
66	0xbe447286	-0.19184312
67	0xbeb92e65	-0.3616821
68	0x3d92e4a9	0.0717252
69	0xbc77c164	-0.0151217915
70	0x3d799494	0.06093271
71	0x3d3ee1c3	0.046602022
72	0x3c8a3adf	0.016873775
73	0x3da7f78d	0.082015134
74	0xbd1816f5	-0.03713127
75	0xbda40ec6	-0.0801063
76	0x3d003a78	0.03130576
77	0xbc9cbf6b	-0.019134244
78	0xbe439425	-0.19099481
79	0xbe9ce69a	-0.30644685
80	0xbd6e1f23	-0.058135163
81	0xbdb2a0f6	-0.08722107
82	0x3eb149e1	0.34626678
83	0xbdf1fc1d	-0.11815665
84	0xbe65bdba	-0.22435656
85	0xbdc485ff	-0.0959587
86	0xbe3e87ba	-0.18606463
87	0xbdf296d9	-0.11845178
88	0xbc60575b	-0.013692702
89	0xbd9e8c94	-0.07741657
90	0x3e54ff73	0.20800571
91	0xbd9507c4	-0.07276872
92	0xbdddb8ed	-0.108262874
93	0xbd18559d	-0.037191022
94	0xbc85a9ee	-0.01631638
95	0xbec45814	-0.38348448
96	0xbdec6eb8	-0.115445554
97	0x3beb5db2	0.0071828
98	0xbea3ff04	-0.320305
99	0xbd0bb772	-0.034110494
100	0x3d571d00	0.05251789
101	0x3d806a43	0.06270268
102	0xbe8b60b4	-0.27222216
103	0x3cde5afe	0.027142998
104	0xbe5c0326	-0.21485576
105	0x3d8f029a	0.06982918
106	0xbcdcb40e	-0.026941326
107	0xbdb2377d	-0.0870199
108	0xbe68f92c	-0.22751302
109	0xbe23e3aa	-0.16004816
110	0xbc8bac45	-0.017049918
111	0xbe004eba	-0.12530032
112	0xbe31c252	-0.17359284
113	0xbe35a506	-0.17738733
114	0xbd48a74c	-0.04898767
115	0x3e12ba55	0.14328893
116	0xbd5e1f0e	-0.054228835
117	0xbe1e04de	-0.15431544
118	0x3d22f89f	0.039787885
119	0xbea48264	-0.3213073
120	0xbc8e32ea	-0.017358262
121	0xbea8f8ed	-0.33002415
122	0x3e45b2c9	0.19306482
123	0xbde890ca	-0.11355741
124	0x3dc3de7e	0.095639214
125	0xbdbd1451	-0.09232391
126	0x3de14c14	0.11000839
127	0x3d77bba9	0.0604817
128	0x3d4a7d19	0.04943571
129	0x3c5d1ca2	0.013495596
130	0xbd56823c	-0.052370295
131	0xbe8ce5d4	-0.27519095
132	0xbe389077	-0.18023859
133	0x3d856a5f	0.06514429
134	0xbce6467e	-0.028109785
135	0x3dea7693	0.114483975
136	0x3de6df98	0.11273116
137	0xbe0d512b	-0.13800494
138	0xbe72751b	-0.23677485
139	0x3c8281a8	0.015930966
140	0x3c6a4201	0.014297963
141	0xbe06a062	-0.13147119
142	0x3d047d7c	0.032346234
143	0xbde63b4c	-0.11241779
144	0xbd6c1dd8	-0.05764565
145	0xbc85bd4e	-0.01632562
146	0x3dd8d6a2	0.10587813
147	0xbe2832ff	-0.16425703
148	0x3db45c85	0.08806709
149	0xbe788c4a	-0.24272266
150	0xbe90b8d9	-0.28266028
151	0xbe303ce4	-0.17210728
152	0x3e03509f	0.12823723
153	0x3dd4c3df	0.10388922
154	0xbe6cbaa5	-0.23118074
155	0xbe05ffa7	-0.13085805
156	0xbe6d4b0d	-0.23173161
157	0xbd66796a	-0.056268133
158	0xbe004fff	-0.12530516
159	0xbe06645a	-0.13124219
160	0xbe46607b	-0.19372742
161	0xbe1c374c	-0.15255469
162	0xbe905fa1	-0.2819796
163	0xbe0467b8	-0.1293019
164	0xbe3f5cde	-0.1868777
165	0xbe08b91e	-0.13351867
166	0xbd052f1f	-0.03251564
167	0xbe08be7f	-0.13353918
168	0xbcbcbe46	-0.023039948
169	0xbdf9a82c	-0.12190279
170	0xbe4aa6fb	-0.1979026
171	0xbeb387a3	-0.3506442
172	0x3bfc99cb	0.0077087632
173	0xbc877463	-0.01653499
174	0xbe2e0f56	-0.16998038
175	0xbe414274	-0.18873006
176	0x3d665d97	0.056241598
177	0xbe4762b6	-0.19471249
178	0xbe912848	-0.28351045
179	0xbdd7d187	-0.10538011
180	0x3d9c737b	0.07639214
181	0x3cd3389e	0.025783833
182	0xbdb4cc48	-0.08828026
183	0xbd718dd7	-0.05897316
184	0xbe1d8abc	-0.15384954
185	0x3b98d9f7	0.0046646553
186	0xbe8442ed	-0.2583231
187	0xbe09dff0	-0.13464332
188	0x3d93da7c	0.07219407
189	0xbe6ec751	-0.2331822
190	0xbe9040c6	-0.28174418
191	0x3e0bc3fa	0.13648978
192	0x37e3c439	2.7151882e-05
193	0xbdf0017f	-0.11719035
194	0xbc0ee82c	-0.008722346
195	0xbd4481b0	-0.047975242
196	0x3df6c246	0.120487735
197	0xbc925de1	-0.01786703
198	0xbd1d6ba8	-0.038432747
199	0xbe32ddd5	-0.17467435
200	0xbe5bd7a9	-0.21468987
201	0xbec9c0c4	-0.3940488
202	0xbdbe9a88	-0.09306818
203	0xbe840c02	-0.2579041
204	0x3d145570	0.036214292
205	0xbd023f3f	-0.031798597
206	0xbe8d694a	-0.27619392
207	0x3d0a0919	0.033700082
208	0xbd48c5b4	-0.04901667
209	0xbe397fbb	-0.18115132
210	0xbdb1882e	-0.08668552
211	0xbe55e1a5	-0.20886858
212	0xbe43feb5	-0.19140132
213	0xbe8a3002	-0.26989752
214	0x3db525c2	0.08845092
215	0xbf022198	-0.5083251
216	0xbe935f47	-0.28783628
217	0xbe682fa4	-0.22674423
218	0x3d8aab08	0.06770903
219	0xbcde807a	-0.027160872
220	0xbebe27ed	-0.37139836
221	0x3c35aa3f	0.011087953
222	0xbe4d7aea	-0.20066419
223	0xbe32b7dc	-0.1745295
224	0x3c9244a7	0.017855002
225	0xbe248eee	-0.16070148
226	0xbe5823e8	-0.21107447
227	0xbe3405f7	-0.175804
228	0xbdb4b5a6	-0.08823709
229	0xbe199da8	-0.15001547
230	0xbe1fd15d	-0.1560721
231	0xbc55e79e	-0.01305571
232	0xbe6b8381	-0.22999384
233	0xbdf1d537	-0.11808246
234	0x3d28b2b8	0.041186064
235	0x3dac7df0	0.08422458
236	0x3d96529d	0.07339976
237	0x3d4c6e43	0.04990984
238	0xbde8a5bb	-0.113597356
239	0xbd1e5001	-0.038650516
240	0xbdd2eff8	-0.10299677
241	0xbd456818	-0.048194975
242	0xbe7cec34	-0.2469948
243	0xbe42d3fb	-0.19026177
244	0xbe6adf42	-0.22936729
245	0xbe390d3c	-0.18071455
246	0xbc27d673	-0.010244
247	0xbe7fece5	-0.24992712
248	0x3ce713d4	0.028207697
249	0xbe7c2489	-0.24623312
250	0x3d09121f	0.033464547
251	0xbdc83fc9	-0.09777791
252	0xbe1cadfb	-0.15300743
253	0xbbb708be	-0.005585759
254	0xbe896ce5	-0.26840892
255	0xbe1850bd	-0.14874549
